…
I1016 22:55:40.619194 32678 net.cpp:294] The NetState phase (0) differed from the phase (1) specified by a rule in layer mnist
I1016 22:55:40.619206 32678 net.cpp:294] The NetState phase (0) differed from the phase (1) specified by a rule in layer accuracy
I1016 22:55:40.619266 32678 net.cpp:51] Initializing net from parameters: 
name: "LeNet"
state {
  phase: TRAIN
  level: 0
  stage: ""
}
layer {
  name: "mnist"
  type: "Data"
  top: "data"
  top: "label"
  include {
    phase: TRAIN
  }
  transform_param {
    scale: 0.00390625
  }
  data_param {
    source: "../examples/mnist/data/mnist_train_lmdb"
    batch_size: 64
    backend: LMDB
  }
}
layer {
  name: "conv1"
  type: "Convolution"
  bottom: "data"
  top: "conv1"
  param {
    lr_mult: 1
  }
  param {
    lr_mult: 2
  }
  convolution_param {
    num_output: 20
    kernel_size: 5
    stride: 1
    weight_filler {
      type: "xavier"
    }
    bias_filler {
      type: "constant"
    }
  }
}
layer {
  name: "pool1"
  type: "Pooling"
  bottom: "conv1"
  top: "pool1"
  pooling_param {
    pool: MAX
    kernel_size: 2
    stride: 2
  }
}
layer {
  name: "conv2"
  type: "Convolution"
  bottom: "pool1"
  top: "conv2"
  param {
    lr_mult: 1
  }
  param {
    lr_mult: 2
  }
  convolution_param {
    num_output: 50
    kernel_size: 5
    stride: 1
    weight_filler {
      type: "xavier"
    }
    bias_filler {
      type: "constant"
    }
  }
}
layer {
  name: "pool2"
  type: "Pooling"
  bottom: "conv2"
  top: "pool2"
  pooling_param {
    pool: MAX
    kernel_size: 2
    stride: 2
  }
}
layer {
  name: "ip1"
  type: "InnerProduct"
  bottom: "pool2"
  top: "ip1"
  param {
    lr_mult: 1
  }
  param {
    lr_mult: 2
  }
  inner_product_param {
    num_output: 500
    weight_filler {
      type: "xavier"
    }
    bias_filler {
      type: "constant"
    }
  }
}
layer {
  name: "relu1"
  type: "ReLU"
  bottom: "ip1"
  top: "ip1"
}
layer {
  name: "ip2"
  type: "InnerProduct"
  bottom: "ip1"
  top: "ip2"
  param {
    lr_mult: 1
  }
  param {
    lr_mult: 2
  }
  inner_product_param {
    num_output: 10
    weight_filler {
      type: "xavier"
    }
    bias_filler {
      type: "constant"
    }
  }
}
layer {
  name: "loss"
  type: "SoftmaxWithLoss"
  bottom: "ip2"
  bottom: "label"
  top: "loss"
}
I1016 22:55:40.619312 32678 layer_factory.hpp:77] Creating layer mnist
I1016 22:55:40.690330 32678 db_lmdb.cpp:35] Opened lmdb ../examples/mnist/data/mnist_train_lmdb
I1016 22:55:40.697499 32678 net.cpp:84] Creating Layer mnist
I1016 22:55:40.697518 32678 net.cpp:380] mnist -> data
I1016 22:55:40.697541 32678 net.cpp:380] mnist -> label
I1016 22:55:40.697963 32678 data_layer.cpp:45] output data size: 64,1,28,28
I1016 22:55:40.698900 32678 net.cpp:122] Setting up mnist
I1016 22:55:40.698911 32678 net.cpp:129] Top shape: 64 1 28 28 (50176)
I1016 22:55:40.698915 32678 net.cpp:129] Top shape: 64 (64)
I1016 22:55:40.698916 32678 net.cpp:137] Memory required for data: 200960
I1016 22:55:40.698921 32678 layer_factory.hpp:77] Creating layer conv1
I1016 22:55:40.698936 32678 net.cpp:84] Creating Layer conv1
I1016 22:55:40.698953 32678 net.cpp:406] conv1 <- data
I1016 22:55:40.698962 32678 net.cpp:380] conv1 -> conv1
I1016 22:55:42.181859 32678 net.cpp:122] Setting up conv1
I1016 22:55:42.181879 32678 net.cpp:129] Top shape: 64 20 24 24 (737280)
I1016 22:55:42.181882 32678 net.cpp:137] Memory required for data: 3150080
I1016 22:55:42.181902 32678 layer_factory.hpp:77] Creating layer pool1
I1016 22:55:42.181926 32678 net.cpp:84] Creating Layer pool1
I1016 22:55:42.181931 32678 net.cpp:406] pool1 <- conv1
I1016 22:55:42.181936 32678 net.cpp:380] pool1 -> pool1
I1016 22:55:42.181975 32678 net.cpp:122] Setting up pool1
I1016 22:55:42.181980 32678 net.cpp:129] Top shape: 64 20 12 12 (184320)
I1016 22:55:42.181982 32678 net.cpp:137] Memory required for data: 3887360
I1016 22:55:42.181984 32678 layer_factory.hpp:77] Creating layer conv2
I1016 22:55:42.181993 32678 net.cpp:84] Creating Layer conv2
I1016 22:55:42.181994 32678 net.cpp:406] conv2 <- pool1
I1016 22:55:42.181999 32678 net.cpp:380] conv2 -> conv2
I1016 22:55:42.183182 32678 net.cpp:122] Setting up conv2
I1016 22:55:42.183192 32678 net.cpp:129] Top shape: 64 50 8 8 (204800)
I1016 22:55:42.183193 32678 net.cpp:137] Memory required for data: 4706560
I1016 22:55:42.183199 32678 layer_factory.hpp:77] Creating layer pool2
I1016 22:55:42.183203 32678 net.cpp:84] Creating Layer pool2
I1016 22:55:42.183207 32678 net.cpp:406] pool2 <- conv2
I1016 22:55:42.183209 32678 net.cpp:380] pool2 -> pool2
I1016 22:55:42.183233 32678 net.cpp:122] Setting up pool2
I1016 22:55:42.183238 32678 net.cpp:129] Top shape: 64 50 4 4 (51200)
I1016 22:55:42.183239 32678 net.cpp:137] Memory required for data: 4911360
I1016 22:55:42.183241 32678 layer_factory.hpp:77] Creating layer ip1
I1016 22:55:42.183248 32678 net.cpp:84] Creating Layer ip1
I1016 22:55:42.183249 32678 net.cpp:406] ip1 <- pool2
I1016 22:55:42.183264 32678 net.cpp:380] ip1 -> ip1
I1016 22:55:42.185214 32678 net.cpp:122] Setting up ip1
I1016 22:55:42.185221 32678 net.cpp:129] Top shape: 64 500 (32000)
I1016 22:55:42.185223 32678 net.cpp:137] Memory required for data: 5039360
I1016 22:55:42.185228 32678 layer_factory.hpp:77] Creating layer relu1
I1016 22:55:42.185235 32678 net.cpp:84] Creating Layer relu1
I1016 22:55:42.185236 32678 net.cpp:406] relu1 <- ip1
I1016 22:55:42.185240 32678 net.cpp:367] relu1 -> ip1 (in-place)
I1016 22:55:42.185576 32678 net.cpp:122] Setting up relu1
I1016 22:55:42.185583 32678 net.cpp:129] Top shape: 64 500 (32000)
I1016 22:55:42.185585 32678 net.cpp:137] Memory required for data: 5167360
I1016 22:55:42.185588 32678 layer_factory.hpp:77] Creating layer ip2
I1016 22:55:42.185593 32678 net.cpp:84] Creating Layer ip2
I1016 22:55:42.185595 32678 net.cpp:406] ip2 <- ip1
I1016 22:55:42.185600 32678 net.cpp:380] ip2 -> ip2
I1016 22:55:42.185966 32678 net.cpp:122] Setting up ip2
I1016 22:55:42.185974 32678 net.cpp:129] Top shape: 64 10 (640)
I1016 22:55:42.185976 32678 net.cpp:137] Memory required for data: 5169920
I1016 22:55:42.185981 32678 layer_factory.hpp:77] Creating layer loss
I1016 22:55:42.185986 32678 net.cpp:84] Creating Layer loss
I1016 22:55:42.185987 32678 net.cpp:406] loss <- ip2
I1016 22:55:42.185991 32678 net.cpp:406] loss <- label
I1016 22:55:42.186005 32678 net.cpp:380] loss -> loss
I1016 22:55:42.186015 32678 layer_factory.hpp:77] Creating layer loss
…
I1016 22:55:42.186375 32678 solver.cpp:172] Creating test net (#0) specified by net file: ../examples/mnist/build/train_test.prototxt
I1016 22:55:42.186399 32678 net.cpp:294] The NetState phase (1) differed from the phase (0) specified by a rule in layer mnist
I1016 22:55:42.186475 32678 net.cpp:51] Initializing net from parameters: 
name: "LeNet"
state {
  phase: TEST
}
layer {
  name: "mnist"
  type: "Data"
  top: "data"
  top: "label"
  include {
    phase: TEST
  }
  transform_param {
    scale: 0.00390625
  }
  data_param {
    source: "../examples/mnist/data/mnist_test_lmdb"
    batch_size: 100
    backend: LMDB
  }
}
layer {
  name: "conv1"
  type: "Convolution"
  bottom: "data"
  top: "conv1"
  param {
    lr_mult: 1
  }
  param {
    lr_mult: 2
  }
  convolution_param {
    num_output: 20
    kernel_size: 5
    stride: 1
    weight_filler {
      type: "xavier"
    }
    bias_filler {
      type: "constant"
    }
  }
}
layer {
  name: "pool1"
  type: "Pooling"
  bottom: "conv1"
  top: "pool1"
  pooling_param {
    pool: MAX
    kernel_size: 2
    stride: 2
  }
}
layer {
  name: "conv2"
  type: "Convolution"
  bottom: "pool1"
  top: "conv2"
  param {
    lr_mult: 1
  }
  param {
    lr_mult: 2
  }
  convolution_param {
    num_output: 50
    kernel_size: 5
    stride: 1
    weight_filler {
      type: "xavier"
    }
    bias_filler {
      type: "constant"
    }
  }
}
layer {
  name: "pool2"
  type: "Pooling"
  bottom: "conv2"
  top: "pool2"
  pooling_param {
    pool: MAX
    kernel_size: 2
    stride: 2
  }
}
layer {
  name: "ip1"
  type: "InnerProduct"
  bottom: "pool2"
  top: "ip1"
  param {
    lr_mult: 1
  }
  param {
    lr_mult: 2
  }
  inner_product_param {
    num_output: 500
    weight_filler {
      type: "xavier"
    }
    bias_filler {
      type: "constant"
    }
  }
}
layer {
  name: "relu1"
  type: "ReLU"
  bottom: "ip1"
  top: "ip1"
}
layer {
  name: "ip2"
  type: "InnerProduct"
  bottom: "ip1"
  top: "ip2"
  param {
    lr_mult: 1
  }
  param {
    lr_mult: 2
  }
  inner_product_param {
    num_output: 10
    weight_filler {
      type: "xavier"
    }
    bias_filler {
      type: "constant"
    }
  }
}
layer {
  name: "accuracy"
  type: "Accuracy"
  bottom: "ip2"
  bottom: "label"
  top: "accuracy"
  include {
    phase: TEST
  }
}
layer {
  name: "loss"
  type: "SoftmaxWithLoss"
  bottom: "ip2"
  bottom: "label"
  top: "loss"
}
I1016 22:55:42.186524 32678 layer_factory.hpp:77] Creating layer mnist
I1016 22:55:42.234812 32678 db_lmdb.cpp:35] Opened lmdb ../examples/mnist/data/mnist_test_lmdb
I1016 22:55:42.241120 32678 net.cpp:84] Creating Layer mnist
I1016 22:55:42.241148 32678 net.cpp:380] mnist -> data
I1016 22:55:42.241161 32678 net.cpp:380] mnist -> label
I1016 22:55:42.241266 32678 data_layer.cpp:45] output data size: 100,1,28,28
I1016 22:55:42.242949 32678 net.cpp:122] Setting up mnist
I1016 22:55:42.242980 32678 net.cpp:129] Top shape: 100 1 28 28 (78400)
I1016 22:55:42.242985 32678 net.cpp:129] Top shape: 100 (100)
I1016 22:55:42.242985 32678 net.cpp:137] Memory required for data: 314000
I1016 22:55:42.242990 32678 layer_factory.hpp:77] Creating layer label_mnist_1_split
I1016 22:55:42.242995 32678 net.cpp:84] Creating Layer label_mnist_1_split
I1016 22:55:42.242998 32678 net.cpp:406] label_mnist_1_split <- label
I1016 22:55:42.243005 32678 net.cpp:380] label_mnist_1_split -> label_mnist_1_split_0
I1016 22:55:42.243010 32678 net.cpp:380] label_mnist_1_split -> label_mnist_1_split_1
I1016 22:55:42.243127 32678 net.cpp:122] Setting up label_mnist_1_split
I1016 22:55:42.243149 32678 net.cpp:129] Top shape: 100 (100)
I1016 22:55:42.243152 32678 net.cpp:129] Top shape: 100 (100)
I1016 22:55:42.243155 32678 net.cpp:137] Memory required for data: 314800
I1016 22:55:42.243157 32678 layer_factory.hpp:77] Creating layer conv1
I1016 22:55:42.243180 32678 net.cpp:84] Creating Layer conv1
I1016 22:55:42.243186 32678 net.cpp:406] conv1 <- data
I1016 22:55:42.243191 32678 net.cpp:380] conv1 -> conv1
I1016 22:55:42.244792 32678 net.cpp:122] Setting up conv1
I1016 22:55:42.244801 32678 net.cpp:129] Top shape: 100 20 24 24 (1152000)
I1016 22:55:42.244812 32678 net.cpp:137] Memory required for data: 4922800
I1016 22:55:42.244834 32678 layer_factory.hpp:77] Creating layer pool1
I1016 22:55:42.244849 32678 net.cpp:84] Creating Layer pool1
I1016 22:55:42.244851 32678 net.cpp:406] pool1 <- conv1
I1016 22:55:42.244854 32678 net.cpp:380] pool1 -> pool1
I1016 22:55:42.244890 32678 net.cpp:122] Setting up pool1
I1016 22:55:42.244895 32678 net.cpp:129] Top shape: 100 20 12 12 (288000)
I1016 22:55:42.244899 32678 net.cpp:137] Memory required for data: 6074800
I1016 22:55:42.244904 32678 layer_factory.hpp:77] Creating layer conv2
I1016 22:55:42.244910 32678 net.cpp:84] Creating Layer conv2
I1016 22:55:42.244915 32678 net.cpp:406] conv2 <- pool1
I1016 22:55:42.244918 32678 net.cpp:380] conv2 -> conv2
I1016 22:55:42.245888 32678 net.cpp:122] Setting up conv2
I1016 22:55:42.245896 32678 net.cpp:129] Top shape: 100 50 8 8 (320000)
I1016 22:55:42.245898 32678 net.cpp:137] Memory required for data: 7354800
I1016 22:55:42.245903 32678 layer_factory.hpp:77] Creating layer pool2
I1016 22:55:42.245909 32678 net.cpp:84] Creating Layer pool2
I1016 22:55:42.245913 32678 net.cpp:406] pool2 <- conv2
I1016 22:55:42.245915 32678 net.cpp:380] pool2 -> pool2
I1016 22:55:42.245937 32678 net.cpp:122] Setting up pool2
I1016 22:55:42.245942 32678 net.cpp:129] Top shape: 100 50 4 4 (80000)
I1016 22:55:42.245944 32678 net.cpp:137] Memory required for data: 7674800
I1016 22:55:42.245945 32678 layer_factory.hpp:77] Creating layer ip1
I1016 22:55:42.245950 32678 net.cpp:84] Creating Layer ip1
I1016 22:55:42.245952 32678 net.cpp:406] ip1 <- pool2
I1016 22:55:42.245956 32678 net.cpp:380] ip1 -> ip1
I1016 22:55:42.247757 32678 net.cpp:122] Setting up ip1
I1016 22:55:42.247766 32678 net.cpp:129] Top shape: 100 500 (50000)
I1016 22:55:42.247767 32678 net.cpp:137] Memory required for data: 7874800
I1016 22:55:42.247772 32678 layer_factory.hpp:77] Creating layer relu1
I1016 22:55:42.247787 32678 net.cpp:84] Creating Layer relu1
I1016 22:55:42.247789 32678 net.cpp:406] relu1 <- ip1
I1016 22:55:42.247793 32678 net.cpp:367] relu1 -> ip1 (in-place)
I1016 22:55:42.247910 32678 net.cpp:122] Setting up relu1
I1016 22:55:42.247915 32678 net.cpp:129] Top shape: 100 500 (50000)
I1016 22:55:42.247916 32678 net.cpp:137] Memory required for data: 8074800
I1016 22:55:42.247920 32678 layer_factory.hpp:77] Creating layer ip2
I1016 22:55:42.247925 32678 net.cpp:84] Creating Layer ip2
I1016 22:55:42.247927 32678 net.cpp:406] ip2 <- ip1
I1016 22:55:42.247931 32678 net.cpp:380] ip2 -> ip2
I1016 22:55:42.248013 32678 net.cpp:122] Setting up ip2
I1016 22:55:42.248019 32678 net.cpp:129] Top shape: 100 10 (1000)
I1016 22:55:42.248023 32678 net.cpp:137] Memory required for data: 8078800
I1016 22:55:42.248026 32678 layer_factory.hpp:77] Creating layer ip2_ip2_0_split
I1016 22:55:42.248030 32678 net.cpp:84] Creating Layer ip2_ip2_0_split
I1016 22:55:42.248034 32678 net.cpp:406] ip2_ip2_0_split <- ip2
I1016 22:55:42.248036 32678 net.cpp:380] ip2_ip2_0_split -> ip2_ip2_0_split_0
I1016 22:55:42.248040 32678 net.cpp:380] ip2_ip2_0_split -> ip2_ip2_0_split_1
I1016 22:55:42.248081 32678 net.cpp:122] Setting up ip2_ip2_0_split
I1016 22:55:42.248085 32678 net.cpp:129] Top shape: 100 10 (1000)
I1016 22:55:42.248088 32678 net.cpp:129] Top shape: 100 10 (1000)
I1016 22:55:42.248100 32678 net.cpp:137] Memory required for data: 8086800
I1016 22:55:42.248102 32678 layer_factory.hpp:77] Creating layer accuracy
I1016 22:55:42.248107 32678 net.cpp:84] Creating Layer accuracy
I1016 22:55:42.248111 32678 net.cpp:406] accuracy <- ip2_ip2_0_split_0
I1016 22:55:42.248112 32678 net.cpp:406] accuracy <- label_mnist_1_split_0
I1016 22:55:42.248116 32678 net.cpp:380] accuracy -> accuracy
…
