…
I0917 00:07:25.473187 13811 caffe.cpp:279] GPU device name: GeForce GTX TITAN Black
I0917 00:07:25.618813 13811 net.cpp:294] The NetState phase (1) differed from the phase (0) specified by a rule in layer mnist
I0917 00:07:25.618901 13811 net.cpp:51] Initializing net from parameters: 
name: "LeNet"
state {
  phase: TEST
  level: 0
  stage: ""
}
layer {
  name: "mnist"
  type: "Data"
  top: "data"
  top: "label"
  include {
    phase: TEST
  }
  transform_param {
    scale: 0.00390625
  }
  data_param {
    source: "../examples/mnist/data/mnist_test_lmdb"
    batch_size: 100
    backend: LMDB
  }
}
layer {
  name: "conv1"
  type: "Convolution"
  bottom: "data"
  top: "conv1"
  param {
    lr_mult: 1
  }
  param {
    lr_mult: 2
  }
  convolution_param {
    num_output: 20
    kernel_size: 5
    stride: 1
    weight_filler {
      type: "xavier"
    }
    bias_filler {
      type: "constant"
    }
  }
}
layer {
  name: "pool1"
  type: "Pooling"
  bottom: "conv1"
  top: "pool1"
  pooling_param {
    pool: MAX
    kernel_size: 2
    stride: 2
  }
}
layer {
  name: "conv2"
  type: "Convolution"
  bottom: "pool1"
  top: "conv2"
  param {
    lr_mult: 1
  }
  param {
    lr_mult: 2
  }
  convolution_param {
    num_output: 50
    kernel_size: 5
    stride: 1
    weight_filler {
      type: "xavier"
    }
    bias_filler {
      type: "constant"
    }
  }
}
layer {
  name: "pool2"
  type: "Pooling"
  bottom: "conv2"
  top: "pool2"
  pooling_param {
    pool: MAX
    kernel_size: 2
    stride: 2
  }
}
layer {
  name: "ip1"
  type: "InnerProduct"
  bottom: "pool2"
  top: "ip1"
  param {
    lr_mult: 1
  }
  param {
    lr_mult: 2
  }
  inner_product_param {
    num_output: 500
    weight_filler {
      type: "xavier"
    }
    bias_filler {
      type: "constant"
    }
  }
}
layer {
  name: "relu1"
  type: "ReLU"
  bottom: "ip1"
  top: "ip1"
}
layer {
  name: "ip2"
  type: "InnerProduct"
  bottom: "ip1"
  top: "ip2"
  param {
    lr_mult: 1
  }
  param {
    lr_mult: 2
  }
  inner_product_param {
    num_output: 10
    weight_filler {
      type: "xavier"
    }
    bias_filler {
      type: "constant"
    }
  }
}
layer {
  name: "accuracy"
  type: "Accuracy"
  bottom: "ip2"
  bottom: "label"
  top: "accuracy"
  include {
    phase: TEST
  }
}
layer {
  name: "loss"
  type: "SoftmaxWithLoss"
  bottom: "ip2"
  bottom: "label"
  top: "loss"
}
I0917 00:07:25.618958 13811 layer_factory.hpp:77] Creating layer mnist
I0917 00:07:25.639247 13811 db_lmdb.cpp:35] Opened lmdb ../examples/mnist/data/mnist_test_lmdb
I0917 00:07:25.639271 13811 net.cpp:84] Creating Layer mnist
I0917 00:07:25.639276 13811 net.cpp:380] mnist -> data
I0917 00:07:25.639293 13811 net.cpp:380] mnist -> label
I0917 00:07:25.648134 13811 data_layer.cpp:45] output data size: 100,1,28,28
I0917 00:07:25.649494 13811 net.cpp:122] Setting up mnist
I0917 00:07:25.649508 13811 net.cpp:129] Top shape: 100 1 28 28 (78400)
I0917 00:07:25.649511 13811 net.cpp:129] Top shape: 100 (100)
I0917 00:07:25.649513 13811 net.cpp:137] Memory required for data: 314000
I0917 00:07:25.649520 13811 layer_factory.hpp:77] Creating layer label_mnist_1_split
I0917 00:07:25.649531 13811 net.cpp:84] Creating Layer label_mnist_1_split
I0917 00:07:25.649535 13811 net.cpp:406] label_mnist_1_split <- label
I0917 00:07:25.649544 13811 net.cpp:380] label_mnist_1_split -> label_mnist_1_split_0
I0917 00:07:25.649552 13811 net.cpp:380] label_mnist_1_split -> label_mnist_1_split_1
I0917 00:07:25.649581 13811 net.cpp:122] Setting up label_mnist_1_split
I0917 00:07:25.649587 13811 net.cpp:129] Top shape: 100 (100)
I0917 00:07:25.649590 13811 net.cpp:129] Top shape: 100 (100)
I0917 00:07:25.649591 13811 net.cpp:137] Memory required for data: 314800
I0917 00:07:25.649595 13811 layer_factory.hpp:77] Creating layer conv1
I0917 00:07:25.649605 13811 net.cpp:84] Creating Layer conv1
I0917 00:07:25.649608 13811 net.cpp:406] conv1 <- data
I0917 00:07:25.649612 13811 net.cpp:380] conv1 -> conv1
I0917 00:07:25.751814 13811 net.cpp:122] Setting up conv1
I0917 00:07:25.751845 13811 net.cpp:129] Top shape: 100 20 24 24 (1152000)
I0917 00:07:25.751862 13811 net.cpp:137] Memory required for data: 4922800
I0917 00:07:25.751879 13811 layer_factory.hpp:77] Creating layer pool1
I0917 00:07:25.751888 13811 net.cpp:84] Creating Layer pool1
I0917 00:07:25.751890 13811 net.cpp:406] pool1 <- conv1
I0917 00:07:25.751895 13811 net.cpp:380] pool1 -> pool1
I0917 00:07:25.751926 13811 net.cpp:122] Setting up pool1
I0917 00:07:25.751931 13811 net.cpp:129] Top shape: 100 20 12 12 (288000)
I0917 00:07:25.751933 13811 net.cpp:137] Memory required for data: 6074800
I0917 00:07:25.751936 13811 layer_factory.hpp:77] Creating layer conv2
I0917 00:07:25.751945 13811 net.cpp:84] Creating Layer conv2
I0917 00:07:25.751947 13811 net.cpp:406] conv2 <- pool1
I0917 00:07:25.751950 13811 net.cpp:380] conv2 -> conv2
I0917 00:07:25.753104 13811 net.cpp:122] Setting up conv2
I0917 00:07:25.753114 13811 net.cpp:129] Top shape: 100 50 8 8 (320000)
I0917 00:07:25.753118 13811 net.cpp:137] Memory required for data: 7354800
I0917 00:07:25.753123 13811 layer_factory.hpp:77] Creating layer pool2
I0917 00:07:25.753127 13811 net.cpp:84] Creating Layer pool2
I0917 00:07:25.753130 13811 net.cpp:406] pool2 <- conv2
I0917 00:07:25.753134 13811 net.cpp:380] pool2 -> pool2
I0917 00:07:25.753156 13811 net.cpp:122] Setting up pool2
I0917 00:07:25.753160 13811 net.cpp:129] Top shape: 100 50 4 4 (80000)
I0917 00:07:25.753162 13811 net.cpp:137] Memory required for data: 7674800
I0917 00:07:25.753165 13811 layer_factory.hpp:77] Creating layer ip1
I0917 00:07:25.753170 13811 net.cpp:84] Creating Layer ip1
I0917 00:07:25.753172 13811 net.cpp:406] ip1 <- pool2
I0917 00:07:25.753177 13811 net.cpp:380] ip1 -> ip1
I0917 00:07:25.754957 13811 net.cpp:122] Setting up ip1
I0917 00:07:25.754966 13811 net.cpp:129] Top shape: 100 500 (50000)
I0917 00:07:25.754968 13811 net.cpp:137] Memory required for data: 7874800
I0917 00:07:25.754973 13811 layer_factory.hpp:77] Creating layer relu1
I0917 00:07:25.754977 13811 net.cpp:84] Creating Layer relu1
I0917 00:07:25.754981 13811 net.cpp:406] relu1 <- ip1
I0917 00:07:25.754983 13811 net.cpp:367] relu1 -> ip1 (in-place)
I0917 00:07:25.755281 13811 net.cpp:122] Setting up relu1
I0917 00:07:25.755290 13811 net.cpp:129] Top shape: 100 500 (50000)
I0917 00:07:25.755291 13811 net.cpp:137] Memory required for data: 8074800
I0917 00:07:25.755295 13811 layer_factory.hpp:77] Creating layer ip2
I0917 00:07:25.755300 13811 net.cpp:84] Creating Layer ip2
I0917 00:07:25.755302 13811 net.cpp:406] ip2 <- ip1
I0917 00:07:25.755308 13811 net.cpp:380] ip2 -> ip2
I0917 00:07:25.755623 13811 net.cpp:122] Setting up ip2
I0917 00:07:25.755630 13811 net.cpp:129] Top shape: 100 10 (1000)
I0917 00:07:25.755632 13811 net.cpp:137] Memory required for data: 8078800
I0917 00:07:25.755636 13811 layer_factory.hpp:77] Creating layer ip2_ip2_0_split
I0917 00:07:25.755640 13811 net.cpp:84] Creating Layer ip2_ip2_0_split
I0917 00:07:25.755643 13811 net.cpp:406] ip2_ip2_0_split <- ip2
I0917 00:07:25.755647 13811 net.cpp:380] ip2_ip2_0_split -> ip2_ip2_0_split_0
I0917 00:07:25.755652 13811 net.cpp:380] ip2_ip2_0_split -> ip2_ip2_0_split_1
I0917 00:07:25.755672 13811 net.cpp:122] Setting up ip2_ip2_0_split
I0917 00:07:25.755676 13811 net.cpp:129] Top shape: 100 10 (1000)
I0917 00:07:25.755678 13811 net.cpp:129] Top shape: 100 10 (1000)
I0917 00:07:25.755681 13811 net.cpp:137] Memory required for data: 8086800
I0917 00:07:25.755682 13811 layer_factory.hpp:77] Creating layer accuracy
I0917 00:07:25.755687 13811 net.cpp:84] Creating Layer accuracy
I0917 00:07:25.755690 13811 net.cpp:406] accuracy <- ip2_ip2_0_split_0
I0917 00:07:25.755692 13811 net.cpp:406] accuracy <- label_mnist_1_split_0
I0917 00:07:25.755697 13811 net.cpp:380] accuracy -> accuracy
…
