…
I0920 17:20:22.873591 12587 net.cpp:294] The NetState phase (0) differed from the phase (1) specified by a rule in layer accuracy
I0920 17:20:22.874076 12587 net.cpp:51] Initializing net from parameters: 
name: "ResNet_train"
state {
  phase: TRAIN
  level: 0
  stage: ""
}
layer {
  name: "data"
  type: "ImageData"
  top: "data"
  top: "label"
  include {
    phase: TRAIN
  }
  transform_param {
    mirror: true
    mean_file: "../examples/Resnet/model/ResNet_mean.binaryproto"
  }
  image_data_param {
    source: "../examples/Resnet/tools/train.txt"
    batch_size: 8
    shuffle: true
    new_height: 224
    new_width: 224
  }
}
layer {
  name: "conv1"
  type: "Convolution"
  bottom: "data"
  top: "conv1"
  convolution_param {
    num_output: 64
    pad: 3
    kernel_size: 7
    stride: 2
  }
}
layer {
  name: "bn_conv1"
  type: "BatchNorm"
  bottom: "conv1"
  top: "conv1"
  batch_norm_param {
    use_global_stats: true
  }
}
layer {
  name: "scale_conv1"
  type: "Scale"
  bottom: "conv1"
  top: "conv1"
  scale_param {
    bias_term: true
  }
}
layer {
  name: "conv1_relu"
  type: "ReLU"
  bottom: "conv1"
  top: "conv1"
}
layer {
  name: "pool1"
  type: "Pooling"
  bottom: "conv1"
  top: "pool1"
  pooling_param {
    pool: MAX
    kernel_size: 3
    stride: 2
  }
}
layer {
  name: "res2a_branch1"
  type: "Convolution"
  bottom: "pool1"
  top: "res2a_branch1"
  convolution_param {
    num_output: 256
    bias_term: false
    pad: 0
    kernel_size: 1
    stride: 1
  }
}
layer {
  name: "bn2a_branch1"
  type: "BatchNorm"
  bottom: "res2a_branch1"
  top: "res2a_branch1"
  batch_norm_param {
    use_global_stats: true
  }
}
layer {
  name: "scale2a_branch1"
  type: "Scale"
  bottom: "res2a_branch1"
  top: "res2a_branch1"
  scale_param {
    bias_term: true
  }
}
layer {
  name: "res2a_branch2a"
  type: "Convolution"
  bottom: "pool1"
  top: "res2a_branch2a"
  convolution_param {
    num_output: 64
    bias_term: false
    pad: 0
    kernel_size: 1
    stride: 1
  }
}
layer {
  name: "bn2a_branch2a"
  type: "BatchNorm"
  bottom: "res2a_branch2a"
  top: "res2a_branch2a"
  batch_norm_param {
    use_global_stats: true
  }
}
layer {
  name: "scale2a_branch2a"
  type: "Scale"
  bottom: "res2a_branch2a"
  top: "res2a_branch2a"
  scale_param {
    bias_term: true
  }
}
layer {
  name: "res2a_branch2a_relu"
  type: "ReLU"
  bottom: "res2a_branch2a"
  top: "res2a_branch2a"
}
layer {
  name: "res2a_branch2b"
  type: "Convolution"
  bottom: "res2a_branch2a"
  top: "res2a_branch2b"
  convolution_param {
    num_output: 64
    bias_term: false
    pad: 1
    kernel_size: 3
    stride: 1
  }
}
layer {
  name: "bn2a_branch2b"
  type: "BatchNorm"
  bottom: "res2a_branch2b"
  top: "res2a_branch2b"
  batch_norm_param {
    use_global_stats: true
  }
}
layer {
  name: "scale2a_branch2b"
  type: "Scale"
  bottom: "res2a_branch2b"
  top: "res2a_branch2b"
  scale_param {
    bias_term: true
  }
}
layer {
  name: "res2a_branch2b_relu"
  type: "ReLU"
  bottom: "res2a_branch2b"
  top: "res2a_branch2b"
}
layer {
  name: "res2a_branch2c"
  type: "Convolution"
  bottom: "res2a_branch2b"
  top: "res2a_branch2c"
  convolution_param {
    num_output: 256
    bias_term: false
    pad: 0
    kernel_size: 1
    stride: 1
  }
}
layer {
  name: "bn2a_branch2c"
  type: "BatchNorm"
  bottom: "res2a_branch2c"
  top: "res2a_branch2c"
  batch_norm_param {
    use_global_stats: true
  }
}
layer {
  name: "scale2a_branch2c"
  type: "Scale"
  bottom: "res2a_branch2c"
  top: "res2a_branch2c"
  scale_param {
    bias_term: true
  }
}
layer {
  name: "res2a"
  type: "Eltwise"
  bottom: "res2a_branch1"
  bottom: "res2a_branch2c"
  top: "res2a"
}
layer {
  name: "res2a_relu"
  type: "ReLU"
  bottom: "res2a"
  top: "res2a"
}
layer {
  name: "res2b_branch2a"
  type: "Convolution"
  bottom: "res2a"
  top: "res2b_branch2a"
  convolution_param {
    num_output: 64
    bias_term: false
    pad: 0
    kernel_size: 1
    stride: 1
  }
}
layer {
  name: "bn2b_branch2a"
  type: "BatchNorm"
  bottom: "res2b_branch2a"
  top: "res2b_branch2a"
  batch_norm_param {
    use_global_stats: true
  }
}
layer {
  name: "scale2b_branch2a"
  type: "Scale"
  bottom: "res2b_branch2a"
  top: "res2b_branch2a"
  scale_param {
    bias_term: true
  }
}
layer {
  name: "res2b_branch2a_relu"
  type: "ReLU"
  bottom: "res2b_branch2a"
  top: "res2b_branch2a"
}
layer {
  name: "res2b_branch2b"
  type: "Convolution"
  bottom: "res2b_branch2a"
  top: "res2b_branch2b"
  convolution_param {
    num_output: 64
    bias_term: false
    pad: 1
    kernel_size: 3
    stride: 1
  }
}
layer {
  name: "bn2b_branch2b"
  type: "BatchNorm"
  bottom: "res2b_branch2b"
  top: "res2b_branch2b"
  batch_norm_param {
    use_global_stats: true
  }
}
layer {
  name: "scale2b_branch2b"
  type: "Scale"
  bottom: "res2b_branch2b"
  top: "res2b_branch2b"
  scale_param {
    bias_term: true
  }
}
layer {
  name: "res2b_branch2b_relu"
  type: "ReLU"
  bottom: "res2b_branch2b"
  top: "res2b_branch2b"
}
layer {
  name: "res2b_branch2c"
  type: "Convolution"
  bottom: "res2b_branch2b"
  top: "res2b_branch2c"
  convolution_param {
    num_output: 256
    bias_term: false
    pad: 0
    kernel_size: 1
    stride: 1
  }
}
layer {
  name: "bn2b_branch2c"
  type: "BatchNorm"
  bottom: "res2b_branch2c"
  top: "res2b_branch2c"
  batch_norm_param {
    use_global_stats: true
  }
}
layer {
  name: "scale2b_branch2c"
  type: "Scale"
  bottom: "res2b_branch2c"
  top: "res2b_branch2c"
  scale_param {
    bias_term: true
  }
}
layer {
  name: "res2b"
  type: "Eltwise"
  bottom: "res2a"
  bottom: "res2b_branch2c"
  top: "res2b"
}
layer {
  name: "res2b_relu"
  type: "ReLU"
  bottom: "res2b"
  top: "res2b"
}
layer {
  name: "res2c_branch2a"
  type: "Convolution"
  bottom: "res2b"
  top: "res2c_branch2a"
  convolution_param {
    num_output: 64
    bias_term: false
    pad: 0
    kernel_size: 1
    stride: 1
  }
}
layer {
  name: "bn2c_branch2a"
  type: "BatchNorm"
  bottom: "res2c_branch2a"
  top: "res2c_branch2a"
  batch_norm_param {
    use_global_stats: true
  }
}
layer {
  name: "scale2c_branch2a"
  type: "Scale"
  bottom: "res2c_branch2a"
  top: "res2c_branch2a"
  scale_param {
    bias_term: true
  }
}
layer {
  name: "res2c_branch2a_relu"
  type: "ReLU"
  bottom: "res2c_branch2a"
  top: "res2c_branch2a"
}
layer {
  name: "res2c_branch2b"
  type: "Convolution"
  bottom: "res2c_branch2a"
  top: "res2c_branch2b"
  convolution_param {
    num_output: 64
    bias_term: false
    pad: 1
    kernel_size: 3
    stride: 1
  }
}
layer {
  name: "bn2c_branch2b"
  type: "BatchNorm"
  bottom: "res2c_branch2b"
  top: "res2c_branch2b"
  batch_norm_param {
    use_global_stats: true
  }
}
layer {
  name: "scale2c_branch2b"
  type: "Scale"
  bottom: "res2c_branch2b"
  top: "res2c_branch2b"
  scale_param {
    bias_term: true
  }
}
layer {
  name: "res2c_branch2b_relu"
  type: "ReLU"
  bottom: "res2c_branch2b"
  top: "res2c_branch2b"
}
layer {
  name: "res2c_branch2c"
  type: "Convolution"
  bottom: "res2c_branch2b"
  top: "res2c_branch2c"
  convolution_param {
    num_output: 256
    bias_term: false
    pad: 0
    kernel_size: 1
    stride: 1
  }
}
layer {
  name: "bn2c_branch2c"
  type: "BatchNorm"
  bottom: "res2c_branch2c"
  top: "res2c_branch2c"
  batch_norm_param {
    use_global_stats: true
  }
}
layer {
  name: "scale2c_branch2c"
  type: "Scale"
  bottom: "res2c_branch2c"
  top: "res2c_branch2c"
  scale_param {
    bias_term: true
  }
}
layer {
  name: "res2c"
  type: "Eltwise"
  bottom: "res2b"
  bottom: "res2c_branch2c"
  top: "res2c"
}
layer {
  name: "res2c_relu"
  type: "ReLU"
  bottom: "res2c"
  top: "res2c"
}
layer {
  name: "res3a_branch1"
  type: "Convolution"
  bottom: "res2c"
  top: "res3a_branch1"
  convolution_param {
    num_output: 512
    bias_term: false
    pad: 0
    kernel_size: 1
    stride: 2
  }
}
layer {
  name: "bn3a_branch1"
  type: "BatchNorm"
  bottom: "res3a_branch1"
  top: "res3a_branch1"
  batch_norm_param {
    use_global_stats: true
  }
}
layer {
  name: "scale3a_branch1"
  type: "Scale"
  bottom: "res3a_branch1"
  top: "res3a_branch1"
  scale_param {
    bias_term: true
  }
}
layer {
  name: "res3a_branch2a"
  type: "Convolution"
  bottom: "res2c"
  top: "res3a_branch2a"
  convolution_param {
    num_output: 128
    bias_term: false
    pad: 0
    kernel_size: 1
    stride: 2
  }
}
layer {
  name: "bn3a_branch2a"
  type: "BatchNorm"
  bottom: "res3a_branch2a"
  top: "res3a_branch2a"
  batch_norm_param {
    use_global_stats: true
  }
}
layer {
  name: "scale3a_branch2a"
  type: "Scale"
  bottom: "res3a_branch2a"
  top: "res3a_branch2a"
  scale_param {
    bias_term: true
  }
}
layer {
  name: "res3a_branch2a_relu"
  type: "ReLU"
  bottom: "res3a_branch2a"
  top: "res3a_branch2a"
}
layer {
  name: "res3a_branch2b"
  type: "Convolution"
  bottom: "res3a_branch2a"
  top: "res3a_branch2b"
  convolution_param {
    num_output: 128
    bias_term: false
    pad: 1
    kernel_size: 3
    stride: 1
  }
}
layer {
  name: "bn3a_branch2b"
  type: "BatchNorm"
  bottom: "res3a_branch2b"
  top: "res3a_branch2b"
  batch_norm_param {
    use_global_stats: true
  }
}
layer {
  name: "scale3a_branch2b"
  type: "Scale"
  bottom: "res3a_branch2b"
  top: "res3a_branch2b"
  scale_param {
    bias_term: true
  }
}
layer {
  name: "res3a_branch2b_relu"
  type: "ReLU"
  bottom: "res3a_branch2b"
  top: "res3a_branch2b"
}
layer {
  name: "res3a_branch2c"
  type: "Convolution"
  bottom: "res3a_branch2b"
  top: "res3a_branch2c"
  convolution_param {
    num_output: 512
    bias_term: false
    pad: 0
    kernel_size: 1
    stride: 1
  }
}
layer {
  name: "bn3a_branch2c"
  type: "BatchNorm"
  bottom: "res3a_branch2c"
  top: "res3a_branch2c"
  batch_norm_param {
    use_global_stats: true
  }
}
layer {
  name: "scale3a_branch2c"
  type: "Scale"
  bottom: "res3a_branch2c"
  top: "res3a_branch2c"
  scale_param {
    bias_term: true
  }
}
layer {
  name: "res3a"
  type: "Eltwise"
  bottom: "res3a_branch1"
  bottom: "res3a_branch2c"
  top: "res3a"
}
layer {
  name: "res3a_relu"
  type: "ReLU"
  bottom: "res3a"
  top: "res3a"
}
layer {
  name: "res3b_branch2a"
  type: "Convolution"
  bottom: "res3a"
  top: "res3b_branch2a"
  convolution_param {
    num_output: 128
    bias_term: false
    pad: 0
    kernel_size: 1
    stride: 1
  }
}
layer {
  name: "bn3b_branch2a"
  type: "BatchNorm"
  bottom: "res3b_branch2a"
  top: "res3b_branch2a"
  batch_norm_param {
    use_global_stats: true
  }
}
layer {
  name: "scale3b_branch2a"
  type: "Scale"
  bottom: "res3b_branch2a"
  top: "res3b_branch2a"
  scale_param {
    bias_term: true
  }
}
layer {
  name: "res3b_branch2a_relu"
  type: "ReLU"
  bottom: "res3b_branch2a"
  top: "res3b_branch2a"
}
layer {
  name: "res3b_branch2b"
  type: "Convolution"
  bottom: "res3b_branch2a"
  top: "res3b_branch2b"
  convolution_param {
    num_output: 128
    bias_term: false
    pad: 1
    kernel_size: 3
    stride: 1
  }
}
layer {
  name: "bn3b_branch2b"
  type: "BatchNorm"
  bottom: "res3b_branch2b"
  top: "res3b_branch2b"
  batch_norm_param {
    use_global_stats: true
  }
}
layer {
  name: "scale3b_branch2b"
  type: "Scale"
  bottom: "res3b_branch2b"
  top: "res3b_branch2b"
  scale_param {
    bias_term: true
  }
}
layer {
  name: "res3b_branch2b_relu"
  type: "ReLU"
  bottom: "res3b_branch2b"
  top: "res3b_branch2b"
}
layer {
  name: "res3b_branch2c"
  type: "Convolution"
  bottom: "res3b_branch2b"
  top: "res3b_branch2c"
  convolution_param {
    num_output: 512
    bias_term: false
    pad: 0
    kernel_size: 1
    stride: 1
  }
}
layer {
  name: "bn3b_branch2c"
  type: "BatchNorm"
  bottom: "res3b_branch2c"
  top: "res3b_branch2c"
  batch_norm_param {
    use_global_stats: true
  }
}
layer {
  name: "scale3b_branch2c"
  type: "Scale"
  bottom: "res3b_branch2c"
  top: "res3b_branch2c"
  scale_param {
    bias_term: true
  }
}
layer {
  name: "res3b"
  type: "Eltwise"
  bottom: "res3a"
  bottom: "res3b_branch2c"
  top: "res3b"
}
layer {
  name: "res3b_relu"
  type: "ReLU"
  bottom: "res3b"
  top: "res3b"
}
layer {
  name: "res3c_branch2a"
  type: "Convolution"
  bottom: "res3b"
  top: "res3c_branch2a"
  convolution_param {
    num_output: 128
    bias_term: false
    pad: 0
    kernel_size: 1
    stride: 1
  }
}
layer {
  name: "bn3c_branch2a"
  type: "BatchNorm"
  bottom: "res3c_branch2a"
  top: "res3c_branch2a"
  batch_norm_param {
    use_global_stats: true
  }
}
layer {
  name: "scale3c_branch2a"
  type: "Scale"
  bottom: "res3c_branch2a"
  top: "res3c_branch2a"
  scale_param {
    bias_term: true
  }
}
layer {
  name: "res3c_branch2a_relu"
  type: "ReLU"
  bottom: "res3c_branch2a"
  top: "res3c_branch2a"
}
layer {
  name: "res3c_branch2b"
  type: "Convolution"
  bottom: "res3c_branch2a"
  top: "res3c_branch2b"
  convolution_param {
    num_output: 128
    bias_term: false
    pad: 1
    kernel_size: 3
    stride: 1
  }
}
layer {
  name: "bn3c_branch2b"
  type: "BatchNorm"
  bottom: "res3c_branch2b"
  top: "res3c_branch2b"
  batch_norm_param {
    use_global_stats: true
  }
}
layer {
  name: "scale3c_branch2b"
  type: "Scale"
  bottom: "res3c_branch2b"
  top: "res3c_branch2b"
  scale_param {
    bias_term: true
  }
}
layer {
  name: "res3c_branch2b_relu"
  type: "ReLU"
  bottom: "res3c_branch2b"
  top: "res3c_branch2b"
}
layer {
  name: "res3c_branch2c"
  type: "Convolution"
  bottom: "res3c_branch2b"
  top: "res3c_branch2c"
  convolution_param {
    num_output: 512
    bias_term: false
    pad: 0
    kernel_size: 1
    stride: 1
  }
}
layer {
  name: "bn3c_branch2c"
  type: "BatchNorm"
  bottom: "res3c_branch2c"
  top: "res3c_branch2c"
  batch_norm_param {
    use_global_stats: true
  }
}
layer {
  name: "scale3c_branch2c"
  type: "Scale"
  bottom: "res3c_branch2c"
  top: "res3c_branch2c"
  scale_param {
    bias_term: true
  }
}
layer {
  name: "res3c"
  type: "Eltwise"
  bottom: "res3b"
  bottom: "res3c_branch2c"
  top: "res3c"
}
layer {
  name: "res3c_relu"
  type: "ReLU"
  bottom: "res3c"
  top: "res3c"
}
layer {
  name: "res3d_branch2a"
  type: "Convolution"
  bottom: "res3c"
  top: "res3d_branch2a"
  convolution_param {
    num_output: 128
    bias_term: false
    pad: 0
    kernel_size: 1
    stride: 1
  }
}
layer {
  name: "bn3d_branch2a"
  type: "BatchNorm"
  bottom: "res3d_branch2a"
  top: "res3d_branch2a"
  batch_norm_param {
    use_global_stats: true
  }
}
layer {
  name: "scale3d_branch2a"
  type: "Scale"
  bottom: "res3d_branch2a"
  top: "res3d_branch2a"
  scale_param {
    bias_term: true
  }
}
layer {
  name: "res3d_branch2a_relu"
  type: "ReLU"
  bottom: "res3d_branch2a"
  top: "res3d_branch2a"
}
layer {
  name: "res3d_branch2b"
  type: "Convolution"
  bottom: "res3d_branch2a"
  top: "res3d_branch2b"
  convolution_param {
    num_output: 128
    bias_term: false
    pad: 1
    kernel_size: 3
    stride: 1
  }
}
layer {
  name: "bn3d_branch2b"
  type: "BatchNorm"
  bottom: "res3d_branch2b"
  top: "res3d_branch2b"
  batch_norm_param {
    use_global_stats: true
  }
}
layer {
  name: "scale3d_branch2b"
  type: "Scale"
  bottom: "res3d_branch2b"
  top: "res3d_branch2b"
  scale_param {
    bias_term: true
  }
}
layer {
  name: "res3d_branch2b_relu"
  type: "ReLU"
  bottom: "res3d_branch2b"
  top: "res3d_branch2b"
}
layer {
  name: "res3d_branch2c"
  type: "Convolution"
  bottom: "res3d_branch2b"
  top: "res3d_branch2c"
  convolution_param {
    num_output: 512
    bias_term: false
    pad: 0
    kernel_size: 1
    stride: 1
  }
}
layer {
  name: "bn3d_branch2c"
  type: "BatchNorm"
  bottom: "res3d_branch2c"
  top: "res3d_branch2c"
  batch_norm_param {
    use_global_stats: true
  }
}
layer {
  name: "scale3d_branch2c"
  type: "Scale"
  bottom: "res3d_branch2c"
  top: "res3d_branch2c"
  scale_param {
    bias_term: true
  }
}
layer {
  name: "res3d"
  type: "Eltwise"
  bottom: "res3c"
  bottom: "res3d_branch2c"
  top: "res3d"
}
layer {
  name: "res3d_relu"
  type: "ReLU"
  bottom: "res3d"
  top: "res3d"
}
layer {
  name: "res4a_branch1"
  type: "Convolution"
  bottom: "res3d"
  top: "res4a_branch1"
  convolution_param {
    num_output: 1024
    bias_term: false
    pad: 0
    kernel_size: 1
    stride: 2
  }
}
layer {
  name: "bn4a_branch1"
  type: "BatchNorm"
  bottom: "res4a_branch1"
  top: "res4a_branch1"
  batch_norm_param {
    use_global_stats: true
  }
}
layer {
  name: "scale4a_branch1"
  type: "Scale"
  bottom: "res4a_branch1"
  top: "res4a_branch1"
  scale_param {
    bias_term: true
  }
}
layer {
  name: "res4a_branch2a"
  type: "Convolution"
  bottom: "res3d"
  top: "res4a_branch2a"
  convolution_param {
    num_output: 256
    bias_term: false
    pad: 0
    kernel_size: 1
    stride: 2
  }
}
layer {
  name: "bn4a_branch2a"
  type: "BatchNorm"
  bottom: "res4a_branch2a"
  top: "res4a_branch2a"
  batch_norm_param {
    use_global_stats: true
  }
}
layer {
  name: "scale4a_branch2a"
  type: "Scale"
  bottom: "res4a_branch2a"
  top: "res4a_branch2a"
  scale_param {
    bias_term: true
  }
}
layer {
  name: "res4a_branch2a_relu"
  type: "ReLU"
  bottom: "res4a_branch2a"
  top: "res4a_branch2a"
}
layer {
  name: "res4a_branch2b"
  type: "Convolution"
  bottom: "res4a_branch2a"
  top: "res4a_branch2b"
  convolution_param {
    num_output: 256
    bias_term: false
    pad: 1
    kernel_size: 3
    stride: 1
  }
}
layer {
  name: "bn4a_branch2b"
  type: "BatchNorm"
  bottom: "res4a_branch2b"
  top: "res4a_branch2b"
  batch_norm_param {
    use_global_stats: true
  }
}
layer {
  name: "scale4a_branch2b"
  type: "Scale"
  bottom: "res4a_branch2b"
  top: "res4a_branch2b"
  scale_param {
    bias_term: true
  }
}
layer {
  name: "res4a_branch2b_relu"
  type: "ReLU"
  bottom: "res4a_branch2b"
  top: "res4a_branch2b"
}
layer {
  name: "res4a_branch2c"
  type: "Convolution"
  bottom: "res4a_branch2b"
  top: "res4a_branch2c"
  convolution_param {
    num_output: 1024
    bias_term: false
    pad: 0
    kernel_size: 1
    stride: 1
  }
}
layer {
  name: "bn4a_branch2c"
  type: "BatchNorm"
  bottom: "res4a_branch2c"
  top: "res4a_branch2c"
  batch_norm_param {
    use_global_stats: true
  }
}
layer {
  name: "scale4a_branch2c"
  type: "Scale"
  bottom: "res4a_branch2c"
  top: "res4a_branch2c"
  scale_param {
    bias_term: true
  }
}
layer {
  name: "res4a"
  type: "Eltwise"
  bottom: "res4a_branch1"
  bottom: "res4a_branch2c"
  top: "res4a"
}
layer {
  name: "res4a_relu"
  type: "ReLU"
  bottom: "res4a"
  top: "res4a"
}
layer {
  name: "res4b_branch2a"
  type: "Convolution"
  bottom: "res4a"
  top: "res4b_branch2a"
  convolution_param {
    num_output: 256
    bias_term: false
    pad: 0
    kernel_size: 1
    stride: 1
  }
}
layer {
  name: "bn4b_branch2a"
  type: "BatchNorm"
  bottom: "res4b_branch2a"
  top: "res4b_branch2a"
  batch_norm_param {
    use_global_stats: true
  }
}
layer {
  name: "scale4b_branch2a"
  type: "Scale"
  bottom: "res4b_branch2a"
  top: "res4b_branch2a"
  scale_param {
    bias_term: true
  }
}
layer {
  name: "res4b_branch2a_relu"
  type: "ReLU"
  bottom: "res4b_branch2a"
  top: "res4b_branch2a"
}
layer {
  name: "res4b_branch2b"
  type: "Convolution"
  bottom: "res4b_branch2a"
  top: "res4b_branch2b"
  convolution_param {
    num_output: 256
    bias_term: false
    pad: 1
    kernel_size: 3
    stride: 1
  }
}
layer {
  name: "bn4b_branch2b"
  type: "BatchNorm"
  bottom: "res4b_branch2b"
  top: "res4b_branch2b"
  batch_norm_param {
    use_global_stats: true
  }
}
layer {
  name: "scale4b_branch2b"
  type: "Scale"
  bottom: "res4b_branch2b"
  top: "res4b_branch2b"
  scale_param {
    bias_term: true
  }
}
layer {
  name: "res4b_branch2b_relu"
  type: "ReLU"
  bottom: "res4b_branch2b"
  top: "res4b_branch2b"
}
layer {
  name: "res4b_branch2c"
  type: "Convolution"
  bottom: "res4b_branch2b"
  top: "res4b_branch2c"
  convolution_param {
    num_output: 1024
    bias_term: false
    pad: 0
    kernel_size: 1
    stride: 1
  }
}
layer {
  name: "bn4b_branch2c"
  type: "BatchNorm"
  bottom: "res4b_branch2c"
  top: "res4b_branch2c"
  batch_norm_param {
    use_global_stats: true
  }
}
layer {
  name: "scale4b_branch2c"
  type: "Scale"
  bottom: "res4b_branch2c"
  top: "res4b_branch2c"
  scale_param {
    bias_term: true
  }
}
layer {
  name: "res4b"
  type: "Eltwise"
  bottom: "res4a"
  bottom: "res4b_branch2c"
  top: "res4b"
}
layer {
  name: "res4b_relu"
  type: "ReLU"
  bottom: "res4b"
  top: "res4b"
}
layer {
  name: "res4c_branch2a"
  type: "Convolution"
  bottom: "res4b"
  top: "res4c_branch2a"
  convolution_param {
    num_output: 256
    bias_term: false
    pad: 0
    kernel_size: 1
    stride: 1
  }
}
layer {
  name: "bn4c_branch2a"
  type: "BatchNorm"
  bottom: "res4c_branch2a"
  top: "res4c_branch2a"
  batch_norm_param {
    use_global_stats: true
  }
}
layer {
  name: "scale4c_branch2a"
  type: "Scale"
  bottom: "res4c_branch2a"
  top: "res4c_branch2a"
  scale_param {
    bias_term: true
  }
}
layer {
  name: "res4c_branch2a_relu"
  type: "ReLU"
  bottom: "res4c_branch2a"
  top: "res4c_branch2a"
}
layer {
  name: "res4c_branch2b"
  type: "Convolution"
  bottom: "res4c_branch2a"
  top: "res4c_branch2b"
  convolution_param {
    num_output: 256
    bias_term: false
    pad: 1
    kernel_size: 3
    stride: 1
  }
}
layer {
  name: "bn4c_branch2b"
  type: "BatchNorm"
  bottom: "res4c_branch2b"
  top: "res4c_branch2b"
  batch_norm_param {
    use_global_stats: true
  }
}
layer {
  name: "scale4c_branch2b"
  type: "Scale"
  bottom: "res4c_branch2b"
  top: "res4c_branch2b"
  scale_param {
    bias_term: true
  }
}
layer {
  name: "res4c_branch2b_relu"
  type: "ReLU"
  bottom: "res4c_branch2b"
  top: "res4c_branch2b"
}
layer {
  name: "res4c_branch2c"
  type: "Convolution"
  bottom: "res4c_branch2b"
  top: "res4c_branch2c"
  convolution_param {
    num_output: 1024
    bias_term: false
    pad: 0
    kernel_size: 1
    stride: 1
  }
}
layer {
  name: "bn4c_branch2c"
  type: "BatchNorm"
  bottom: "res4c_branch2c"
  top: "res4c_branch2c"
  batch_norm_param {
    use_global_stats: true
  }
}
layer {
  name: "scale4c_branch2c"
  type: "Scale"
  bottom: "res4c_branch2c"
  top: "res4c_branch2c"
  scale_param {
    bias_term: true
  }
}
layer {
  name: "res4c"
  type: "Eltwise"
  bottom: "res4b"
  bottom: "res4c_branch2c"
  top: "res4c"
}
layer {
  name: "res4c_relu"
  type: "ReLU"
  bottom: "res4c"
  top: "res4c"
}
layer {
  name: "res4d_branch2a"
  type: "Convolution"
  bottom: "res4c"
  top: "res4d_branch2a"
  convolution_param {
    num_output: 256
    bias_term: false
    pad: 0
    kernel_size: 1
    stride: 1
  }
}
layer {
  name: "bn4d_branch2a"
  type: "BatchNorm"
  bottom: "res4d_branch2a"
  top: "res4d_branch2a"
  batch_norm_param {
    use_global_stats: true
  }
}
layer {
  name: "scale4d_branch2a"
  type: "Scale"
  bottom: "res4d_branch2a"
  top: "res4d_branch2a"
  scale_param {
    bias_term: true
  }
}
layer {
  name: "res4d_branch2a_relu"
  type: "ReLU"
  bottom: "res4d_branch2a"
  top: "res4d_branch2a"
}
layer {
  name: "res4d_branch2b"
  type: "Convolution"
  bottom: "res4d_branch2a"
  top: "res4d_branch2b"
  convolution_param {
    num_output: 256
    bias_term: false
    pad: 1
    kernel_size: 3
    stride: 1
  }
}
layer {
  name: "bn4d_branch2b"
  type: "BatchNorm"
  bottom: "res4d_branch2b"
  top: "res4d_branch2b"
  batch_norm_param {
    use_global_stats: true
  }
}
layer {
  name: "scale4d_branch2b"
  type: "Scale"
  bottom: "res4d_branch2b"
  top: "res4d_branch2b"
  scale_param {
    bias_term: true
  }
}
layer {
  name: "res4d_branch2b_relu"
  type: "ReLU"
  bottom: "res4d_branch2b"
  top: "res4d_branch2b"
}
layer {
  name: "res4d_branch2c"
  type: "Convolution"
  bottom: "res4d_branch2b"
  top: "res4d_branch2c"
  convolution_param {
    num_output: 1024
    bias_term: false
    pad: 0
    kernel_size: 1
    stride: 1
  }
}
layer {
  name: "bn4d_branch2c"
  type: "BatchNorm"
  bottom: "res4d_branch2c"
  top: "res4d_branch2c"
  batch_norm_param {
    use_global_stats: true
  }
}
layer {
  name: "scale4d_branch2c"
  type: "Scale"
  bottom: "res4d_branch2c"
  top: "res4d_branch2c"
  scale_param {
    bias_term: true
  }
}
layer {
  name: "res4d"
  type: "Eltwise"
  bottom: "res4c"
  bottom: "res4d_branch2c"
  top: "res4d"
}
layer {
  name: "res4d_relu"
  type: "ReLU"
  bottom: "res4d"
  top: "res4d"
}
layer {
  name: "res4e_branch2a"
  type: "Convolution"
  bottom: "res4d"
  top: "res4e_branch2a"
  convolution_param {
    num_output: 256
    bias_term: false
    pad: 0
    kernel_size: 1
    stride: 1
  }
}
layer {
  name: "bn4e_branch2a"
  type: "BatchNorm"
  bottom: "res4e_branch2a"
  top: "res4e_branch2a"
  batch_norm_param {
    use_global_stats: true
  }
}
layer {
  name: "scale4e_branch2a"
  type: "Scale"
  bottom: "res4e_branch2a"
  top: "res4e_branch2a"
  scale_param {
    bias_term: true
  }
}
layer {
  name: "res4e_branch2a_relu"
  type: "ReLU"
  bottom: "res4e_branch2a"
  top: "res4e_branch2a"
}
layer {
  name: "res4e_branch2b"
  type: "Convolution"
  bottom: "res4e_branch2a"
  top: "res4e_branch2b"
  convolution_param {
    num_output: 256
    bias_term: false
    pad: 1
    kernel_size: 3
    stride: 1
  }
}
layer {
  name: "bn4e_branch2b"
  type: "BatchNorm"
  bottom: "res4e_branch2b"
  top: "res4e_branch2b"
  batch_norm_param {
    use_global_stats: true
  }
}
layer {
  name: "scale4e_branch2b"
  type: "Scale"
  bottom: "res4e_branch2b"
  top: "res4e_branch2b"
  scale_param {
    bias_term: true
  }
}
layer {
  name: "res4e_branch2b_relu"
  type: "ReLU"
  bottom: "res4e_branch2b"
  top: "res4e_branch2b"
}
layer {
  name: "res4e_branch2c"
  type: "Convolution"
  bottom: "res4e_branch2b"
  top: "res4e_branch2c"
  convolution_param {
    num_output: 1024
    bias_term: false
    pad: 0
    kernel_size: 1
    stride: 1
  }
}
layer {
  name: "bn4e_branch2c"
  type: "BatchNorm"
  bottom: "res4e_branch2c"
  top: "res4e_branch2c"
  batch_norm_param {
    use_global_stats: true
  }
}
layer {
  name: "scale4e_branch2c"
  type: "Scale"
  bottom: "res4e_branch2c"
  top: "res4e_branch2c"
  scale_param {
    bias_term: true
  }
}
layer {
  name: "res4e"
  type: "Eltwise"
  bottom: "res4d"
  bottom: "res4e_branch2c"
  top: "res4e"
}
layer {
  name: "res4e_relu"
  type: "ReLU"
  bottom: "res4e"
  top: "res4e"
}
layer {
  name: "res4f_branch2a"
  type: "Convolution"
  bottom: "res4e"
  top: "res4f_branch2a"
  convolution_param {
    num_output: 256
    bias_term: false
    pad: 0
    kernel_size: 1
    stride: 1
  }
}
layer {
  name: "bn4f_branch2a"
  type: "BatchNorm"
  bottom: "res4f_branch2a"
  top: "res4f_branch2a"
  batch_norm_param {
    use_global_stats: true
  }
}
layer {
  name: "scale4f_branch2a"
  type: "Scale"
  bottom: "res4f_branch2a"
  top: "res4f_branch2a"
  scale_param {
    bias_term: true
  }
}
layer {
  name: "res4f_branch2a_relu"
  type: "ReLU"
  bottom: "res4f_branch2a"
  top: "res4f_branch2a"
}
layer {
  name: "res4f_branch2b"
  type: "Convolution"
  bottom: "res4f_branch2a"
  top: "res4f_branch2b"
  convolution_param {
    num_output: 256
    bias_term: false
    pad: 1
    kernel_size: 3
    stride: 1
  }
}
layer {
  name: "bn4f_branch2b"
  type: "BatchNorm"
  bottom: "res4f_branch2b"
  top: "res4f_branch2b"
  batch_norm_param {
    use_global_stats: true
  }
}
layer {
  name: "scale4f_branch2b"
  type: "Scale"
  bottom: "res4f_branch2b"
  top: "res4f_branch2b"
  scale_param {
    bias_term: true
  }
}
layer {
  name: "res4f_branch2b_relu"
  type: "ReLU"
  bottom: "res4f_branch2b"
  top: "res4f_branch2b"
}
layer {
  name: "res4f_branch2c"
  type: "Convolution"
  bottom: "res4f_branch2b"
  top: "res4f_branch2c"
  convolution_param {
    num_output: 1024
    bias_term: false
    pad: 0
    kernel_size: 1
    stride: 1
  }
}
layer {
  name: "bn4f_branch2c"
  type: "BatchNorm"
  bottom: "res4f_branch2c"
  top: "res4f_branch2c"
  batch_norm_param {
    use_global_stats: true
  }
}
layer {
  name: "scale4f_branch2c"
  type: "Scale"
  bottom: "res4f_branch2c"
  top: "res4f_branch2c"
  scale_param {
    bias_term: true
  }
}
layer {
  name: "res4f"
  type: "Eltwise"
  bottom: "res4e"
  bottom: "res4f_branch2c"
  top: "res4f"
}
layer {
  name: "res4f_relu"
  type: "ReLU"
  bottom: "res4f"
  top: "res4f"
}
layer {
  name: "res5a_branch1"
  type: "Convolution"
  bottom: "res4f"
  top: "res5a_branch1"
  convolution_param {
    num_output: 2048
    bias_term: false
    pad: 0
    kernel_size: 1
    stride: 2
  }
}
layer {
  name: "bn5a_branch1"
  type: "BatchNorm"
  bottom: "res5a_branch1"
  top: "res5a_branch1"
  batch_norm_param {
    use_global_stats: true
  }
}
layer {
  name: "scale5a_branch1"
  type: "Scale"
  bottom: "res5a_branch1"
  top: "res5a_branch1"
  scale_param {
    bias_term: true
  }
}
layer {
  name: "res5a_branch2a"
  type: "Convolution"
  bottom: "res4f"
  top: "res5a_branch2a"
  convolution_param {
    num_output: 512
    bias_term: false
    pad: 0
    kernel_size: 1
    stride: 2
  }
}
layer {
  name: "bn5a_branch2a"
  type: "BatchNorm"
  bottom: "res5a_branch2a"
  top: "res5a_branch2a"
  batch_norm_param {
    use_global_stats: true
  }
}
layer {
  name: "scale5a_branch2a"
  type: "Scale"
  bottom: "res5a_branch2a"
  top: "res5a_branch2a"
  scale_param {
    bias_term: true
  }
}
layer {
  name: "res5a_branch2a_relu"
  type: "ReLU"
  bottom: "res5a_branch2a"
  top: "res5a_branch2a"
}
layer {
  name: "res5a_branch2b"
  type: "Convolution"
  bottom: "res5a_branch2a"
  top: "res5a_branch2b"
  convolution_param {
    num_output: 512
    bias_term: false
    pad: 1
    kernel_size: 3
    stride: 1
  }
}
layer {
  name: "bn5a_branch2b"
  type: "BatchNorm"
  bottom: "res5a_branch2b"
  top: "res5a_branch2b"
  batch_norm_param {
    use_global_stats: true
  }
}
layer {
  name: "scale5a_branch2b"
  type: "Scale"
  bottom: "res5a_branch2b"
  top: "res5a_branch2b"
  scale_param {
    bias_term: true
  }
}
layer {
  name: "res5a_branch2b_relu"
  type: "ReLU"
  bottom: "res5a_branch2b"
  top: "res5a_branch2b"
}
layer {
  name: "res5a_branch2c"
  type: "Convolution"
  bottom: "res5a_branch2b"
  top: "res5a_branch2c"
  convolution_param {
    num_output: 2048
    bias_term: false
    pad: 0
    kernel_size: 1
    stride: 1
  }
}
layer {
  name: "bn5a_branch2c"
  type: "Ba
I0920 17:20:22.874639 12587 layer_factory.hpp:77] Creating layer data
I0920 17:20:22.874661 12587 net.cpp:84] Creating Layer data
I0920 17:20:22.874666 12587 net.cpp:380] data -> data
I0920 17:20:22.874682 12587 net.cpp:380] data -> label
I0920 17:20:22.874691 12587 data_transformer.cpp:25] Loading mean file from: ../examples/Resnet/model/ResNet_mean.binaryproto
I0920 17:20:22.876085 12587 image_data_layer.cpp:38] Opening file ../examples/Resnet/tools/train.txt
I0920 17:20:22.876487 12587 image_data_layer.cpp:53] Shuffling data
I0920 17:20:22.876572 12587 image_data_layer.cpp:63] A total of 1320 images.
I0920 17:20:22.944905 12587 image_data_layer.cpp:90] output data size: 8,3,224,224
I0920 17:20:22.952204 12587 net.cpp:122] Setting up data
I0920 17:20:22.952239 12587 net.cpp:129] Top shape: 8 3 224 224 (1204224)
I0920 17:20:22.952242 12587 net.cpp:129] Top shape: 8 (8)
I0920 17:20:22.952244 12587 net.cpp:137] Memory required for data: 4816928
I0920 17:20:22.952250 12587 layer_factory.hpp:77] Creating layer conv1
I0920 17:20:22.952276 12587 net.cpp:84] Creating Layer conv1
I0920 17:20:22.952280 12587 net.cpp:406] conv1 <- data
I0920 17:20:22.952291 12587 net.cpp:380] conv1 -> conv1
I0920 17:20:23.060216 12587 net.cpp:122] Setting up conv1
I0920 17:20:23.060242 12587 net.cpp:129] Top shape: 8 64 112 112 (6422528)
I0920 17:20:23.060245 12587 net.cpp:137] Memory required for data: 30507040
I0920 17:20:23.060262 12587 layer_factory.hpp:77] Creating layer bn_conv1
I0920 17:20:23.060289 12587 net.cpp:84] Creating Layer bn_conv1
I0920 17:20:23.060292 12587 net.cpp:406] bn_conv1 <- conv1
I0920 17:20:23.060307 12587 net.cpp:367] bn_conv1 -> conv1 (in-place)
I0920 17:20:23.060444 12587 net.cpp:122] Setting up bn_conv1
I0920 17:20:23.060449 12587 net.cpp:129] Top shape: 8 64 112 112 (6422528)
I0920 17:20:23.060451 12587 net.cpp:137] Memory required for data: 56197152
I0920 17:20:23.060480 12587 layer_factory.hpp:77] Creating layer scale_conv1
I0920 17:20:23.060487 12587 net.cpp:84] Creating Layer scale_conv1
I0920 17:20:23.060501 12587 net.cpp:406] scale_conv1 <- conv1
I0920 17:20:23.060508 12587 net.cpp:367] scale_conv1 -> conv1 (in-place)
I0920 17:20:23.060559 12587 layer_factory.hpp:77] Creating layer scale_conv1
I0920 17:20:23.060658 12587 net.cpp:122] Setting up scale_conv1
I0920 17:20:23.060668 12587 net.cpp:129] Top shape: 8 64 112 112 (6422528)
I0920 17:20:23.060670 12587 net.cpp:137] Memory required for data: 81887264
I0920 17:20:23.060673 12587 layer_factory.hpp:77] Creating layer conv1_relu
I0920 17:20:23.060678 12587 net.cpp:84] Creating Layer conv1_relu
I0920 17:20:23.060680 12587 net.cpp:406] conv1_relu <- conv1
I0920 17:20:23.060683 12587 net.cpp:367] conv1_relu -> conv1 (in-place)
I0920 17:20:23.061004 12587 net.cpp:122] Setting up conv1_relu
I0920 17:20:23.061012 12587 net.cpp:129] Top shape: 8 64 112 112 (6422528)
I0920 17:20:23.061013 12587 net.cpp:137] Memory required for data: 107577376
I0920 17:20:23.061015 12587 layer_factory.hpp:77] Creating layer pool1
I0920 17:20:23.061019 12587 net.cpp:84] Creating Layer pool1
I0920 17:20:23.061022 12587 net.cpp:406] pool1 <- conv1
I0920 17:20:23.061025 12587 net.cpp:380] pool1 -> pool1
I0920 17:20:23.061079 12587 net.cpp:122] Setting up pool1
I0920 17:20:23.061084 12587 net.cpp:129] Top shape: 8 64 56 56 (1605632)
I0920 17:20:23.061086 12587 net.cpp:137] Memory required for data: 113999904
I0920 17:20:23.061087 12587 layer_factory.hpp:77] Creating layer pool1_pool1_0_split
I0920 17:20:23.061090 12587 net.cpp:84] Creating Layer pool1_pool1_0_split
I0920 17:20:23.061092 12587 net.cpp:406] pool1_pool1_0_split <- pool1
I0920 17:20:23.061095 12587 net.cpp:380] pool1_pool1_0_split -> pool1_pool1_0_split_0
I0920 17:20:23.061101 12587 net.cpp:380] pool1_pool1_0_split -> pool1_pool1_0_split_1
I0920 17:20:23.061142 12587 net.cpp:122] Setting up pool1_pool1_0_split
I0920 17:20:23.061146 12587 net.cpp:129] Top shape: 8 64 56 56 (1605632)
I0920 17:20:23.061161 12587 net.cpp:129] Top shape: 8 64 56 56 (1605632)
I0920 17:20:23.061162 12587 net.cpp:137] Memory required for data: 126844960
I0920 17:20:23.061164 12587 layer_factory.hpp:77] Creating layer res2a_branch1
I0920 17:20:23.061182 12587 net.cpp:84] Creating Layer res2a_branch1
I0920 17:20:23.061183 12587 net.cpp:406] res2a_branch1 <- pool1_pool1_0_split_0
I0920 17:20:23.061202 12587 net.cpp:380] res2a_branch1 -> res2a_branch1
I0920 17:20:23.062216 12587 net.cpp:122] Setting up res2a_branch1
I0920 17:20:23.062227 12587 net.cpp:129] Top shape: 8 256 56 56 (6422528)
I0920 17:20:23.062230 12587 net.cpp:137] Memory required for data: 152535072
I0920 17:20:23.062237 12587 layer_factory.hpp:77] Creating layer bn2a_branch1
I0920 17:20:23.062243 12587 net.cpp:84] Creating Layer bn2a_branch1
I0920 17:20:23.062247 12587 net.cpp:406] bn2a_branch1 <- res2a_branch1
I0920 17:20:23.062253 12587 net.cpp:367] bn2a_branch1 -> res2a_branch1 (in-place)
I0920 17:20:23.062624 12587 net.cpp:122] Setting up bn2a_branch1
I0920 17:20:23.062633 12587 net.cpp:129] Top shape: 8 256 56 56 (6422528)
I0920 17:20:23.062634 12587 net.cpp:137] Memory required for data: 178225184
I0920 17:20:23.062651 12587 layer_factory.hpp:77] Creating layer scale2a_branch1
I0920 17:20:23.062656 12587 net.cpp:84] Creating Layer scale2a_branch1
I0920 17:20:23.062659 12587 net.cpp:406] scale2a_branch1 <- res2a_branch1
I0920 17:20:23.062662 12587 net.cpp:367] scale2a_branch1 -> res2a_branch1 (in-place)
I0920 17:20:23.062695 12587 layer_factory.hpp:77] Creating layer scale2a_branch1
I0920 17:20:23.062777 12587 net.cpp:122] Setting up scale2a_branch1
I0920 17:20:23.062782 12587 net.cpp:129] Top shape: 8 256 56 56 (6422528)
I0920 17:20:23.062784 12587 net.cpp:137] Memory required for data: 203915296
I0920 17:20:23.062798 12587 layer_factory.hpp:77] Creating layer res2a_branch2a
I0920 17:20:23.062804 12587 net.cpp:84] Creating Layer res2a_branch2a
I0920 17:20:23.062808 12587 net.cpp:406] res2a_branch2a <- pool1_pool1_0_split_1
I0920 17:20:23.062830 12587 net.cpp:380] res2a_branch2a -> res2a_branch2a
I0920 17:20:23.063446 12587 net.cpp:122] Setting up res2a_branch2a
I0920 17:20:23.063454 12587 net.cpp:129] Top shape: 8 64 56 56 (1605632)
I0920 17:20:23.063458 12587 net.cpp:137] Memory required for data: 210337824
I0920 17:20:23.063464 12587 layer_factory.hpp:77] Creating layer bn2a_branch2a
I0920 17:20:23.063469 12587 net.cpp:84] Creating Layer bn2a_branch2a
I0920 17:20:23.063473 12587 net.cpp:406] bn2a_branch2a <- res2a_branch2a
I0920 17:20:23.063479 12587 net.cpp:367] bn2a_branch2a -> res2a_branch2a (in-place)
I0920 17:20:23.063609 12587 net.cpp:122] Setting up bn2a_branch2a
I0920 17:20:23.063614 12587 net.cpp:129] Top shape: 8 64 56 56 (1605632)
I0920 17:20:23.063617 12587 net.cpp:137] Memory required for data: 216760352
I0920 17:20:23.063627 12587 layer_factory.hpp:77] Creating layer scale2a_branch2a
I0920 17:20:23.063644 12587 net.cpp:84] Creating Layer scale2a_branch2a
I0920 17:20:23.063647 12587 net.cpp:406] scale2a_branch2a <- res2a_branch2a
I0920 17:20:23.063652 12587 net.cpp:367] scale2a_branch2a -> res2a_branch2a (in-place)
I0920 17:20:23.063688 12587 layer_factory.hpp:77] Creating layer scale2a_branch2a
I0920 17:20:23.063755 12587 net.cpp:122] Setting up scale2a_branch2a
I0920 17:20:23.063760 12587 net.cpp:129] Top shape: 8 64 56 56 (1605632)
I0920 17:20:23.063763 12587 net.cpp:137] Memory required for data: 223182880
I0920 17:20:23.063769 12587 layer_factory.hpp:77] Creating layer res2a_branch2a_relu
I0920 17:20:23.063776 12587 net.cpp:84] Creating Layer res2a_branch2a_relu
I0920 17:20:23.063779 12587 net.cpp:406] res2a_branch2a_relu <- res2a_branch2a
I0920 17:20:23.063793 12587 net.cpp:367] res2a_branch2a_relu -> res2a_branch2a (in-place)
I0920 17:20:23.064101 12587 net.cpp:122] Setting up res2a_branch2a_relu
I0920 17:20:23.064110 12587 net.cpp:129] Top shape: 8 64 56 56 (1605632)
I0920 17:20:23.064111 12587 net.cpp:137] Memory required for data: 229605408
I0920 17:20:23.064124 12587 layer_factory.hpp:77] Creating layer res2a_branch2b
I0920 17:20:23.064129 12587 net.cpp:84] Creating Layer res2a_branch2b
I0920 17:20:23.064134 12587 net.cpp:406] res2a_branch2b <- res2a_branch2a
I0920 17:20:23.064141 12587 net.cpp:380] res2a_branch2b -> res2a_branch2b
I0920 17:20:23.065389 12587 net.cpp:122] Setting up res2a_branch2b
I0920 17:20:23.065399 12587 net.cpp:129] Top shape: 8 64 56 56 (1605632)
I0920 17:20:23.065412 12587 net.cpp:137] Memory required for data: 236027936
I0920 17:20:23.065415 12587 layer_factory.hpp:77] Creating layer bn2a_branch2b
I0920 17:20:23.065420 12587 net.cpp:84] Creating Layer bn2a_branch2b
I0920 17:20:23.065423 12587 net.cpp:406] bn2a_branch2b <- res2a_branch2b
I0920 17:20:23.065426 12587 net.cpp:367] bn2a_branch2b -> res2a_branch2b (in-place)
I0920 17:20:23.065551 12587 net.cpp:122] Setting up bn2a_branch2b
I0920 17:20:23.065557 12587 net.cpp:129] Top shape: 8 64 56 56 (1605632)
I0920 17:20:23.065558 12587 net.cpp:137] Memory required for data: 242450464
I0920 17:20:23.065573 12587 layer_factory.hpp:77] Creating layer scale2a_branch2b
I0920 17:20:23.065578 12587 net.cpp:84] Creating Layer scale2a_branch2b
I0920 17:20:23.065583 12587 net.cpp:406] scale2a_branch2b <- res2a_branch2b
I0920 17:20:23.065587 12587 net.cpp:367] scale2a_branch2b -> res2a_branch2b (in-place)
I0920 17:20:23.065647 12587 layer_factory.hpp:77] Creating layer scale2a_branch2b
I0920 17:20:23.065764 12587 net.cpp:122] Setting up scale2a_branch2b
I0920 17:20:23.065769 12587 net.cpp:129] Top shape: 8 64 56 56 (1605632)
I0920 17:20:23.065771 12587 net.cpp:137] Memory required for data: 248872992
I0920 17:20:23.065785 12587 layer_factory.hpp:77] Creating layer res2a_branch2b_relu
I0920 17:20:23.065788 12587 net.cpp:84] Creating Layer res2a_branch2b_relu
I0920 17:20:23.065791 12587 net.cpp:406] res2a_branch2b_relu <- res2a_branch2b
I0920 17:20:23.065804 12587 net.cpp:367] res2a_branch2b_relu -> res2a_branch2b (in-place)
I0920 17:20:23.065915 12587 net.cpp:122] Setting up res2a_branch2b_relu
I0920 17:20:23.065922 12587 net.cpp:129] Top shape: 8 64 56 56 (1605632)
I0920 17:20:23.065930 12587 net.cpp:137] Memory required for data: 255295520
I0920 17:20:23.065933 12587 layer_factory.hpp:77] Creating layer res2a_branch2c
I0920 17:20:23.065937 12587 net.cpp:84] Creating Layer res2a_branch2c
I0920 17:20:23.065939 12587 net.cpp:406] res2a_branch2c <- res2a_branch2b
I0920 17:20:23.065944 12587 net.cpp:380] res2a_branch2c -> res2a_branch2c
I0920 17:20:23.066996 12587 net.cpp:122] Setting up res2a_branch2c
I0920 17:20:23.067005 12587 net.cpp:129] Top shape: 8 256 56 56 (6422528)
I0920 17:20:23.067009 12587 net.cpp:137] Memory required for data: 280985632
I0920 17:20:23.067015 12587 layer_factory.hpp:77] Creating layer bn2a_branch2c
I0920 17:20:23.067021 12587 net.cpp:84] Creating Layer bn2a_branch2c
I0920 17:20:23.067025 12587 net.cpp:406] bn2a_branch2c <- res2a_branch2c
I0920 17:20:23.067032 12587 net.cpp:367] bn2a_branch2c -> res2a_branch2c (in-place)
I0920 17:20:23.067152 12587 net.cpp:122] Setting up bn2a_branch2c
I0920 17:20:23.067157 12587 net.cpp:129] Top shape: 8 256 56 56 (6422528)
I0920 17:20:23.067160 12587 net.cpp:137] Memory required for data: 306675744
I0920 17:20:23.067167 12587 layer_factory.hpp:77] Creating layer scale2a_branch2c
I0920 17:20:23.067172 12587 net.cpp:84] Creating Layer scale2a_branch2c
I0920 17:20:23.067173 12587 net.cpp:406] scale2a_branch2c <- res2a_branch2c
I0920 17:20:23.067176 12587 net.cpp:367] scale2a_branch2c -> res2a_branch2c (in-place)
I0920 17:20:23.067203 12587 layer_factory.hpp:77] Creating layer scale2a_branch2c
I0920 17:20:23.067270 12587 net.cpp:122] Setting up scale2a_branch2c
I0920 17:20:23.067275 12587 net.cpp:129] Top shape: 8 256 56 56 (6422528)
I0920 17:20:23.067276 12587 net.cpp:137] Memory required for data: 332365856
I0920 17:20:23.067281 12587 layer_factory.hpp:77] Creating layer res2a
I0920 17:20:23.067286 12587 net.cpp:84] Creating Layer res2a
I0920 17:20:23.067289 12587 net.cpp:406] res2a <- res2a_branch1
I0920 17:20:23.067294 12587 net.cpp:406] res2a <- res2a_branch2c
I0920 17:20:23.067301 12587 net.cpp:380] res2a -> res2a
I0920 17:20:23.067319 12587 net.cpp:122] Setting up res2a
I0920 17:20:23.067324 12587 net.cpp:129] Top shape: 8 256 56 56 (6422528)
I0920 17:20:23.067327 12587 net.cpp:137] Memory required for data: 358055968
I0920 17:20:23.067330 12587 layer_factory.hpp:77] Creating layer res2a_relu
I0920 17:20:23.067337 12587 net.cpp:84] Creating Layer res2a_relu
I0920 17:20:23.067339 12587 net.cpp:406] res2a_relu <- res2a
I0920 17:20:23.067342 12587 net.cpp:367] res2a_relu -> res2a (in-place)
I0920 17:20:23.067656 12587 net.cpp:122] Setting up res2a_relu
I0920 17:20:23.067665 12587 net.cpp:129] Top shape: 8 256 56 56 (6422528)
I0920 17:20:23.067669 12587 net.cpp:137] Memory required for data: 383746080
I0920 17:20:23.067673 12587 layer_factory.hpp:77] Creating layer res2a_res2a_relu_0_split
I0920 17:20:23.067680 12587 net.cpp:84] Creating Layer res2a_res2a_relu_0_split
I0920 17:20:23.067684 12587 net.cpp:406] res2a_res2a_relu_0_split <- res2a
I0920 17:20:23.067688 12587 net.cpp:380] res2a_res2a_relu_0_split -> res2a_res2a_relu_0_split_0
I0920 17:20:23.067695 12587 net.cpp:380] res2a_res2a_relu_0_split -> res2a_res2a_relu_0_split_1
I0920 17:20:23.067724 12587 net.cpp:122] Setting up res2a_res2a_relu_0_split
I0920 17:20:23.067729 12587 net.cpp:129] Top shape: 8 256 56 56 (6422528)
I0920 17:20:23.067734 12587 net.cpp:129] Top shape: 8 256 56 56 (6422528)
I0920 17:20:23.067737 12587 net.cpp:137] Memory required for data: 435126304
I0920 17:20:23.067740 12587 layer_factory.hpp:77] Creating layer res2b_branch2a
I0920 17:20:23.067746 12587 net.cpp:84] Creating Layer res2b_branch2a
I0920 17:20:23.067749 12587 net.cpp:406] res2b_branch2a <- res2a_res2a_relu_0_split_0
I0920 17:20:23.067754 12587 net.cpp:380] res2b_branch2a -> res2b_branch2a
I0920 17:20:23.068393 12587 net.cpp:122] Setting up res2b_branch2a
I0920 17:20:23.068401 12587 net.cpp:129] Top shape: 8 64 56 56 (1605632)
I0920 17:20:23.068404 12587 net.cpp:137] Memory required for data: 441548832
I0920 17:20:23.068408 12587 layer_factory.hpp:77] Creating layer bn2b_branch2a
I0920 17:20:23.068420 12587 net.cpp:84] Creating Layer bn2b_branch2a
I0920 17:20:23.068424 12587 net.cpp:406] bn2b_branch2a <- res2b_branch2a
I0920 17:20:23.068431 12587 net.cpp:367] bn2b_branch2a -> res2b_branch2a (in-place)
I0920 17:20:23.068553 12587 net.cpp:122] Setting up bn2b_branch2a
I0920 17:20:23.068559 12587 net.cpp:129] Top shape: 8 64 56 56 (1605632)
I0920 17:20:23.068562 12587 net.cpp:137] Memory required for data: 447971360
I0920 17:20:23.068572 12587 layer_factory.hpp:77] Creating layer scale2b_branch2a
I0920 17:20:23.068578 12587 net.cpp:84] Creating Layer scale2b_branch2a
I0920 17:20:23.068579 12587 net.cpp:406] scale2b_branch2a <- res2b_branch2a
I0920 17:20:23.068583 12587 net.cpp:367] scale2b_branch2a -> res2b_branch2a (in-place)
I0920 17:20:23.068611 12587 layer_factory.hpp:77] Creating layer scale2b_branch2a
I0920 17:20:23.068687 12587 net.cpp:122] Setting up scale2b_branch2a
I0920 17:20:23.068694 12587 net.cpp:129] Top shape: 8 64 56 56 (1605632)
I0920 17:20:23.068698 12587 net.cpp:137] Memory required for data: 454393888
I0920 17:20:23.068703 12587 layer_factory.hpp:77] Creating layer res2b_branch2a_relu
I0920 17:20:23.068707 12587 net.cpp:84] Creating Layer res2b_branch2a_relu
I0920 17:20:23.068711 12587 net.cpp:406] res2b_branch2a_relu <- res2b_branch2a
I0920 17:20:23.068714 12587 net.cpp:367] res2b_branch2a_relu -> res2b_branch2a (in-place)
I0920 17:20:23.069026 12587 net.cpp:122] Setting up res2b_branch2a_relu
I0920 17:20:23.069034 12587 net.cpp:129] Top shape: 8 64 56 56 (1605632)
I0920 17:20:23.069038 12587 net.cpp:137] Memory required for data: 460816416
I0920 17:20:23.069042 12587 layer_factory.hpp:77] Creating layer res2b_branch2b
I0920 17:20:23.069051 12587 net.cpp:84] Creating Layer res2b_branch2b
I0920 17:20:23.069053 12587 net.cpp:406] res2b_branch2b <- res2b_branch2a
I0920 17:20:23.069058 12587 net.cpp:380] res2b_branch2b -> res2b_branch2b
I0920 17:20:23.069905 12587 net.cpp:122] Setting up res2b_branch2b
I0920 17:20:23.069912 12587 net.cpp:129] Top shape: 8 64 56 56 (1605632)
I0920 17:20:23.069914 12587 net.cpp:137] Memory required for data: 467238944
I0920 17:20:23.069927 12587 layer_factory.hpp:77] Creating layer bn2b_branch2b
I0920 17:20:23.069931 12587 net.cpp:84] Creating Layer bn2b_branch2b
I0920 17:20:23.069934 12587 net.cpp:406] bn2b_branch2b <- res2b_branch2b
I0920 17:20:23.069938 12587 net.cpp:367] bn2b_branch2b -> res2b_branch2b (in-place)
I0920 17:20:23.070066 12587 net.cpp:122] Setting up bn2b_branch2b
I0920 17:20:23.070071 12587 net.cpp:129] Top shape: 8 64 56 56 (1605632)
I0920 17:20:23.070075 12587 net.cpp:137] Memory required for data: 473661472
I0920 17:20:23.070081 12587 layer_factory.hpp:77] Creating layer scale2b_branch2b
I0920 17:20:23.070096 12587 net.cpp:84] Creating Layer scale2b_branch2b
I0920 17:20:23.070097 12587 net.cpp:406] scale2b_branch2b <- res2b_branch2b
I0920 17:20:23.070101 12587 net.cpp:367] scale2b_branch2b -> res2b_branch2b (in-place)
I0920 17:20:23.070135 12587 layer_factory.hpp:77] Creating layer scale2b_branch2b
I0920 17:20:23.070224 12587 net.cpp:122] Setting up scale2b_branch2b
I0920 17:20:23.070227 12587 net.cpp:129] Top shape: 8 64 56 56 (1605632)
I0920 17:20:23.070230 12587 net.cpp:137] Memory required for data: 480084000
I0920 17:20:23.070242 12587 layer_factory.hpp:77] Creating layer res2b_branch2b_relu
I0920 17:20:23.070246 12587 net.cpp:84] Creating Layer res2b_branch2b_relu
I0920 17:20:23.070248 12587 net.cpp:406] res2b_branch2b_relu <- res2b_branch2b
I0920 17:20:23.070252 12587 net.cpp:367] res2b_branch2b_relu -> res2b_branch2b (in-place)
I0920 17:20:23.070360 12587 net.cpp:122] Setting up res2b_branch2b_relu
I0920 17:20:23.070365 12587 net.cpp:129] Top shape: 8 64 56 56 (1605632)
I0920 17:20:23.070367 12587 net.cpp:137] Memory required for data: 486506528
I0920 17:20:23.070369 12587 layer_factory.hpp:77] Creating layer res2b_branch2c
I0920 17:20:23.070381 12587 net.cpp:84] Creating Layer res2b_branch2c
I0920 17:20:23.070384 12587 net.cpp:406] res2b_branch2c <- res2b_branch2b
I0920 17:20:23.070389 12587 net.cpp:380] res2b_branch2c -> res2b_branch2c
I0920 17:20:23.071456 12587 net.cpp:122] Setting up res2b_branch2c
I0920 17:20:23.071466 12587 net.cpp:129] Top shape: 8 256 56 56 (6422528)
I0920 17:20:23.071470 12587 net.cpp:137] Memory required for data: 512196640
I0920 17:20:23.071475 12587 layer_factory.hpp:77] Creating layer bn2b_branch2c
I0920 17:20:23.071481 12587 net.cpp:84] Creating Layer bn2b_branch2c
I0920 17:20:23.071485 12587 net.cpp:406] bn2b_branch2c <- res2b_branch2c
I0920 17:20:23.071491 12587 net.cpp:367] bn2b_branch2c -> res2b_branch2c (in-place)
I0920 17:20:23.071640 12587 net.cpp:122] Setting up bn2b_branch2c
I0920 17:20:23.071648 12587 net.cpp:129] Top shape: 8 256 56 56 (6422528)
I0920 17:20:23.071650 12587 net.cpp:137] Memory required for data: 537886752
I0920 17:20:23.071656 12587 layer_factory.hpp:77] Creating layer scale2b_branch2c
I0920 17:20:23.071665 12587 net.cpp:84] Creating Layer scale2b_branch2c
I0920 17:20:23.071668 12587 net.cpp:406] scale2b_branch2c <- res2b_branch2c
I0920 17:20:23.071672 12587 net.cpp:367] scale2b_branch2c -> res2b_branch2c (in-place)
I0920 17:20:23.071702 12587 layer_factory.hpp:77] Creating layer scale2b_branch2c
I0920 17:20:23.071780 12587 net.cpp:122] Setting up scale2b_branch2c
I0920 17:20:23.071789 12587 net.cpp:129] Top shape: 8 256 56 56 (6422528)
I0920 17:20:23.071790 12587 net.cpp:137] Memory required for data: 563576864
I0920 17:20:23.071795 12587 layer_factory.hpp:77] Creating layer res2b
I0920 17:20:23.071800 12587 net.cpp:84] Creating Layer res2b
I0920 17:20:23.071805 12587 net.cpp:406] res2b <- res2a_res2a_relu_0_split_1
I0920 17:20:23.071810 12587 net.cpp:406] res2b <- res2b_branch2c
I0920 17:20:23.071815 12587 net.cpp:380] res2b -> res2b
I0920 17:20:23.071841 12587 net.cpp:122] Setting up res2b
I0920 17:20:23.071846 12587 net.cpp:129] Top shape: 8 256 56 56 (6422528)
I0920 17:20:23.071847 12587 net.cpp:137] Memory required for data: 589266976
I0920 17:20:23.071849 12587 layer_factory.hpp:77] Creating layer res2b_relu
I0920 17:20:23.071852 12587 net.cpp:84] Creating Layer res2b_relu
I0920 17:20:23.071854 12587 net.cpp:406] res2b_relu <- res2b
I0920 17:20:23.071858 12587 net.cpp:367] res2b_relu -> res2b (in-place)
I0920 17:20:23.072402 12587 net.cpp:122] Setting up res2b_relu
I0920 17:20:23.072409 12587 net.cpp:129] Top shape: 8 256 56 56 (6422528)
I0920 17:20:23.072412 12587 net.cpp:137] Memory required for data: 614957088
I0920 17:20:23.072414 12587 layer_factory.hpp:77] Creating layer res2b_res2b_relu_0_split
I0920 17:20:23.072417 12587 net.cpp:84] Creating Layer res2b_res2b_relu_0_split
I0920 17:20:23.072419 12587 net.cpp:406] res2b_res2b_relu_0_split <- res2b
I0920 17:20:23.072423 12587 net.cpp:380] res2b_res2b_relu_0_split -> res2b_res2b_relu_0_split_0
I0920 17:20:23.072429 12587 net.cpp:380] res2b_res2b_relu_0_split -> res2b_res2b_relu_0_split_1
I0920 17:20:23.072455 12587 net.cpp:122] Setting up res2b_res2b_relu_0_split
I0920 17:20:23.072460 12587 net.cpp:129] Top shape: 8 256 56 56 (6422528)
I0920 17:20:23.072463 12587 net.cpp:129] Top shape: 8 256 56 56 (6422528)
I0920 17:20:23.072464 12587 net.cpp:137] Memory required for data: 666337312
I0920 17:20:23.072465 12587 layer_factory.hpp:77] Creating layer res2c_branch2a
I0920 17:20:23.072471 12587 net.cpp:84] Creating Layer res2c_branch2a
I0920 17:20:23.072474 12587 net.cpp:406] res2c_branch2a <- res2b_res2b_relu_0_split_0
I0920 17:20:23.072477 12587 net.cpp:380] res2c_branch2a -> res2c_branch2a
I0920 17:20:23.073237 12587 net.cpp:122] Setting up res2c_branch2a
I0920 17:20:23.073248 12587 net.cpp:129] Top shape: 8 64 56 56 (1605632)
I0920 17:20:23.073252 12587 net.cpp:137] Memory required for data: 672759840
I0920 17:20:23.073256 12587 layer_factory.hpp:77] Creating layer bn2c_branch2a
I0920 17:20:23.073261 12587 net.cpp:84] Creating Layer bn2c_branch2a
I0920 17:20:23.073266 12587 net.cpp:406] bn2c_branch2a <- res2c_branch2a
I0920 17:20:23.073271 12587 net.cpp:367] bn2c_branch2a -> res2c_branch2a (in-place)
I0920 17:20:23.073456 12587 net.cpp:122] Setting up bn2c_branch2a
I0920 17:20:23.073467 12587 net.cpp:129] Top shape: 8 64 56 56 (1605632)
I0920 17:20:23.073478 12587 net.cpp:137] Memory required for data: 679182368
I0920 17:20:23.073483 12587 layer_factory.hpp:77] Creating layer scale2c_branch2a
I0920 17:20:23.073489 12587 net.cpp:84] Creating Layer scale2c_branch2a
I0920 17:20:23.073493 12587 net.cpp:406] scale2c_branch2a <- res2c_branch2a
I0920 17:20:23.073495 12587 net.cpp:367] scale2c_branch2a -> res2c_branch2a (in-place)
I0920 17:20:23.073523 12587 layer_factory.hpp:77] Creating layer scale2c_branch2a
I0920 17:20:23.073599 12587 net.cpp:122] Setting up scale2c_branch2a
I0920 17:20:23.073603 12587 net.cpp:129] Top shape: 8 64 56 56 (1605632)
I0920 17:20:23.073606 12587 net.cpp:137] Memory required for data: 685604896
I0920 17:20:23.073608 12587 layer_factory.hpp:77] Creating layer res2c_branch2a_relu
I0920 17:20:23.073612 12587 net.cpp:84] Creating Layer res2c_branch2a_relu
I0920 17:20:23.073616 12587 net.cpp:406] res2c_branch2a_relu <- res2c_branch2a
I0920 17:20:23.073617 12587 net.cpp:367] res2c_branch2a_relu -> res2c_branch2a (in-place)
I0920 17:20:23.073930 12587 net.cpp:122] Setting up res2c_branch2a_relu
I0920 17:20:23.073940 12587 net.cpp:129] Top shape: 8 64 56 56 (1605632)
I0920 17:20:23.073942 12587 net.cpp:137] Memory required for data: 692027424
I0920 17:20:23.073945 12587 layer_factory.hpp:77] Creating layer res2c_branch2b
I0920 17:20:23.073948 12587 net.cpp:84] Creating Layer res2c_branch2b
I0920 17:20:23.073951 12587 net.cpp:406] res2c_branch2b <- res2c_branch2a
I0920 17:20:23.073956 12587 net.cpp:380] res2c_branch2b -> res2c_branch2b
I0920 17:20:23.074826 12587 net.cpp:122] Setting up res2c_branch2b
I0920 17:20:23.074833 12587 net.cpp:129] Top shape: 8 64 56 56 (1605632)
I0920 17:20:23.074836 12587 net.cpp:137] Memory required for data: 698449952
I0920 17:20:23.074839 12587 layer_factory.hpp:77] Creating layer bn2c_branch2b
I0920 17:20:23.074844 12587 net.cpp:84] Creating Layer bn2c_branch2b
I0920 17:20:23.074846 12587 net.cpp:406] bn2c_branch2b <- res2c_branch2b
I0920 17:20:23.074849 12587 net.cpp:367] bn2c_branch2b -> res2c_branch2b (in-place)
I0920 17:20:23.074972 12587 net.cpp:122] Setting up bn2c_branch2b
I0920 17:20:23.074976 12587 net.cpp:129] Top shape: 8 64 56 56 (1605632)
I0920 17:20:23.074978 12587 net.cpp:137] Memory required for data: 704872480
I0920 17:20:23.074982 12587 layer_factory.hpp:77] Creating layer scale2c_branch2b
I0920 17:20:23.074986 12587 net.cpp:84] Creating Layer scale2c_branch2b
I0920 17:20:23.074988 12587 net.cpp:406] scale2c_branch2b <- res2c_branch2b
I0920 17:20:23.074991 12587 net.cpp:367] scale2c_branch2b -> res2c_branch2b (in-place)
I0920 17:20:23.075016 12587 layer_factory.hpp:77] Creating layer scale2c_branch2b
I0920 17:20:23.075088 12587 net.cpp:122] Setting up scale2c_branch2b
I0920 17:20:23.075093 12587 net.cpp:129] Top shape: 8 64 56 56 (1605632)
I0920 17:20:23.075094 12587 net.cpp:137] Memory required for data: 711295008
I0920 17:20:23.075098 12587 layer_factory.hpp:77] Creating layer res2c_branch2b_relu
I0920 17:20:23.075101 12587 net.cpp:84] Creating Layer res2c_branch2b_relu
I0920 17:20:23.075104 12587 net.cpp:406] res2c_branch2b_relu <- res2c_branch2b
I0920 17:20:23.075107 12587 net.cpp:367] res2c_branch2b_relu -> res2c_branch2b (in-place)
I0920 17:20:23.075220 12587 net.cpp:122] Setting up res2c_branch2b_relu
I0920 17:20:23.075227 12587 net.cpp:129] Top shape: 8 64 56 56 (1605632)
I0920 17:20:23.075229 12587 net.cpp:137] Memory required for data: 717717536
I0920 17:20:23.075232 12587 layer_factory.hpp:77] Creating layer res2c_branch2c
I0920 17:20:23.075234 12587 net.cpp:84] Creating Layer res2c_branch2c
I0920 17:20:23.075237 12587 net.cpp:406] res2c_branch2c <- res2c_branch2b
I0920 17:20:23.075240 12587 net.cpp:380] res2c_branch2c -> res2c_branch2c
I0920 17:20:23.076253 12587 net.cpp:122] Setting up res2c_branch2c
I0920 17:20:23.076261 12587 net.cpp:129] Top shape: 8 256 56 56 (6422528)
I0920 17:20:23.076264 12587 net.cpp:137] Memory required for data: 743407648
I0920 17:20:23.076267 12587 layer_factory.hpp:77] Creating layer bn2c_branch2c
I0920 17:20:23.076272 12587 net.cpp:84] Creating Layer bn2c_branch2c
I0920 17:20:23.076290 12587 net.cpp:406] bn2c_branch2c <- res2c_branch2c
I0920 17:20:23.076294 12587 net.cpp:367] bn2c_branch2c -> res2c_branch2c (in-place)
I0920 17:20:23.076422 12587 net.cpp:122] Setting up bn2c_branch2c
I0920 17:20:23.076426 12587 net.cpp:129] Top shape: 8 256 56 56 (6422528)
I0920 17:20:23.076428 12587 net.cpp:137] Memory required for data: 769097760
I0920 17:20:23.076447 12587 layer_factory.hpp:77] Creating layer scale2c_branch2c
I0920 17:20:23.076452 12587 net.cpp:84] Creating Layer scale2c_branch2c
I0920 17:20:23.076465 12587 net.cpp:406] scale2c_branch2c <- res2c_branch2c
I0920 17:20:23.076468 12587 net.cpp:367] scale2c_branch2c -> res2c_branch2c (in-place)
I0920 17:20:23.076514 12587 layer_factory.hpp:77] Creating layer scale2c_branch2c
I0920 17:20:23.076601 12587 net.cpp:122] Setting up scale2c_branch2c
I0920 17:20:23.076604 12587 net.cpp:129] Top shape: 8 256 56 56 (6422528)
I0920 17:20:23.076607 12587 net.cpp:137] Memory required for data: 794787872
I0920 17:20:23.076620 12587 layer_factory.hpp:77] Creating layer res2c
I0920 17:20:23.076624 12587 net.cpp:84] Creating Layer res2c
I0920 17:20:23.076627 12587 net.cpp:406] res2c <- res2b_res2b_relu_0_split_1
I0920 17:20:23.076630 12587 net.cpp:406] res2c <- res2c_branch2c
I0920 17:20:23.076633 12587 net.cpp:380] res2c -> res2c
I0920 17:20:23.076649 12587 net.cpp:122] Setting up res2c
I0920 17:20:23.076653 12587 net.cpp:129] Top shape: 8 256 56 56 (6422528)
I0920 17:20:23.076655 12587 net.cpp:137] Memory required for data: 820477984
I0920 17:20:23.076658 12587 layer_factory.hpp:77] Creating layer res2c_relu
I0920 17:20:23.076664 12587 net.cpp:84] Creating Layer res2c_relu
I0920 17:20:23.076668 12587 net.cpp:406] res2c_relu <- res2c
I0920 17:20:23.076670 12587 net.cpp:367] res2c_relu -> res2c (in-place)
I0920 17:20:23.076985 12587 net.cpp:122] Setting up res2c_relu
I0920 17:20:23.076994 12587 net.cpp:129] Top shape: 8 256 56 56 (6422528)
I0920 17:20:23.076997 12587 net.cpp:137] Memory required for data: 846168096
I0920 17:20:23.076999 12587 layer_factory.hpp:77] Creating layer res2c_res2c_relu_0_split
I0920 17:20:23.077003 12587 net.cpp:84] Creating Layer res2c_res2c_relu_0_split
I0920 17:20:23.077004 12587 net.cpp:406] res2c_res2c_relu_0_split <- res2c
I0920 17:20:23.077008 12587 net.cpp:380] res2c_res2c_relu_0_split -> res2c_res2c_relu_0_split_0
I0920 17:20:23.077013 12587 net.cpp:380] res2c_res2c_relu_0_split -> res2c_res2c_relu_0_split_1
I0920 17:20:23.077041 12587 net.cpp:122] Setting up res2c_res2c_relu_0_split
I0920 17:20:23.077046 12587 net.cpp:129] Top shape: 8 256 56 56 (6422528)
I0920 17:20:23.077049 12587 net.cpp:129] Top shape: 8 256 56 56 (6422528)
I0920 17:20:23.077050 12587 net.cpp:137] Memory required for data: 897548320
I0920 17:20:23.077051 12587 layer_factory.hpp:77] Creating layer res3a_branch1
I0920 17:20:23.077056 12587 net.cpp:84] Creating Layer res3a_branch1
I0920 17:20:23.077059 12587 net.cpp:406] res3a_branch1 <- res2c_res2c_relu_0_split_0
I0920 17:20:23.077064 12587 net.cpp:380] res3a_branch1 -> res3a_branch1
I0920 17:20:23.078208 12587 net.cpp:122] Setting up res3a_branch1
I0920 17:20:23.078217 12587 net.cpp:129] Top shape: 8 512 28 28 (3211264)
I0920 17:20:23.078220 12587 net.cpp:137] Memory required for data: 910393376
I0920 17:20:23.078224 12587 layer_factory.hpp:77] Creating layer bn3a_branch1
I0920 17:20:23.078228 12587 net.cpp:84] Creating Layer bn3a_branch1
I0920 17:20:23.078230 12587 net.cpp:406] bn3a_branch1 <- res3a_branch1
I0920 17:20:23.078234 12587 net.cpp:367] bn3a_branch1 -> res3a_branch1 (in-place)
I0920 17:20:23.078590 12587 net.cpp:122] Setting up bn3a_branch1
I0920 17:20:23.078598 12587 net.cpp:129] Top shape: 8 512 28 28 (3211264)
I0920 17:20:23.078600 12587 net.cpp:137] Memory required for data: 923238432
I0920 17:20:23.078605 12587 layer_factory.hpp:77] Creating layer scale3a_branch1
I0920 17:20:23.078609 12587 net.cpp:84] Creating Layer scale3a_branch1
I0920 17:20:23.078613 12587 net.cpp:406] scale3a_branch1 <- res3a_branch1
I0920 17:20:23.078615 12587 net.cpp:367] scale3a_branch1 -> res3a_branch1 (in-place)
I0920 17:20:23.078650 12587 layer_factory.hpp:77] Creating layer scale3a_branch1
I0920 17:20:23.078716 12587 net.cpp:122] Setting up scale3a_branch1
I0920 17:20:23.078722 12587 net.cpp:129] Top shape: 8 512 28 28 (3211264)
I0920 17:20:23.078723 12587 net.cpp:137] Memory required for data: 936083488
I0920 17:20:23.078727 12587 layer_factory.hpp:77] Creating layer res3a_branch2a
I0920 17:20:23.078732 12587 net.cpp:84] Creating Layer res3a_branch2a
I0920 17:20:23.078735 12587 net.cpp:406] res3a_branch2a <- res2c_res2c_relu_0_split_1
I0920 17:20:23.078738 12587 net.cpp:380] res3a_branch2a -> res3a_branch2a
I0920 17:20:23.079584 12587 net.cpp:122] Setting up res3a_branch2a
I0920 17:20:23.079592 12587 net.cpp:129] Top shape: 8 128 28 28 (802816)
I0920 17:20:23.079596 12587 net.cpp:137] Memory required for data: 939294752
I0920 17:20:23.079598 12587 layer_factory.hpp:77] Creating layer bn3a_branch2a
I0920 17:20:23.079602 12587 net.cpp:84] Creating Layer bn3a_branch2a
I0920 17:20:23.079603 12587 net.cpp:406] bn3a_branch2a <- res3a_branch2a
I0920 17:20:23.079607 12587 net.cpp:367] bn3a_branch2a -> res3a_branch2a (in-place)
I0920 17:20:23.079722 12587 net.cpp:122] Setting up bn3a_branch2a
I0920 17:20:23.079726 12587 net.cpp:129] Top shape: 8 128 28 28 (802816)
I0920 17:20:23.079728 12587 net.cpp:137] Memory required for data: 942506016
I0920 17:20:23.079732 12587 layer_factory.hpp:77] Creating layer scale3a_branch2a
I0920 17:20:23.079736 12587 net.cpp:84] Creating Layer scale3a_branch2a
I0920 17:20:23.079738 12587 net.cpp:406] scale3a_branch2a <- res3a_branch2a
I0920 17:20:23.079741 12587 net.cpp:367] scale3a_branch2a -> res3a_branch2a (in-place)
I0920 17:20:23.079763 12587 layer_factory.hpp:77] Creating layer scale3a_branch2a
I0920 17:20:23.079826 12587 net.cpp:122] Setting up scale3a_branch2a
I0920 17:20:23.079830 12587 net.cpp:129] Top shape: 8 128 28 28 (802816)
I0920 17:20:23.079833 12587 net.cpp:137] Memory required for data: 945717280
I0920 17:20:23.079835 12587 layer_factory.hpp:77] Creating layer res3a_branch2a_relu
I0920 17:20:23.079838 12587 net.cpp:84] Creating Layer res3a_branch2a_relu
I0920 17:20:23.079840 12587 net.cpp:406] res3a_branch2a_relu <- res3a_branch2a
I0920 17:20:23.079843 12587 net.cpp:367] res3a_branch2a_relu -> res3a_branch2a (in-place)
I0920 17:20:23.080144 12587 net.cpp:122] Setting up res3a_branch2a_relu
I0920 17:20:23.080152 12587 net.cpp:129] Top shape: 8 128 28 28 (802816)
I0920 17:20:23.080154 12587 net.cpp:137] Memory required for data: 948928544
I0920 17:20:23.080157 12587 layer_factory.hpp:77] Creating layer res3a_branch2b
I0920 17:20:23.080162 12587 net.cpp:84] Creating Layer res3a_branch2b
I0920 17:20:23.080164 12587 net.cpp:406] res3a_branch2b <- res3a_branch2a
I0920 17:20:23.080168 12587 net.cpp:380] res3a_branch2b -> res3a_branch2b
I0920 17:20:23.081094 12587 net.cpp:122] Setting up res3a_branch2b
I0920 17:20:23.081102 12587 net.cpp:129] Top shape: 8 128 28 28 (802816)
I0920 17:20:23.081104 12587 net.cpp:137] Memory required for data: 952139808
I0920 17:20:23.081107 12587 layer_factory.hpp:77] Creating layer bn3a_branch2b
I0920 17:20:23.081111 12587 net.cpp:84] Creating Layer bn3a_branch2b
I0920 17:20:23.081115 12587 net.cpp:406] bn3a_branch2b <- res3a_branch2b
I0920 17:20:23.081117 12587 net.cpp:367] bn3a_branch2b -> res3a_branch2b (in-place)
I0920 17:20:23.081236 12587 net.cpp:122] Setting up bn3a_branch2b
I0920 17:20:23.081243 12587 net.cpp:129] Top shape: 8 128 28 28 (802816)
I0920 17:20:23.081245 12587 net.cpp:137] Memory required for data: 955351072
I0920 17:20:23.081249 12587 layer_factory.hpp:77] Creating layer scale3a_branch2b
I0920 17:20:23.081254 12587 net.cpp:84] Creating Layer scale3a_branch2b
I0920 17:20:23.081255 12587 net.cpp:406] scale3a_branch2b <- res3a_branch2b
I0920 17:20:23.081259 12587 net.cpp:367] scale3a_branch2b -> res3a_branch2b (in-place)
I0920 17:20:23.081282 12587 layer_factory.hpp:77] Creating layer scale3a_branch2b
I0920 17:20:23.081365 12587 net.cpp:122] Setting up scale3a_branch2b
I0920 17:20:23.081382 12587 net.cpp:129] Top shape: 8 128 28 28 (802816)
I0920 17:20:23.081383 12587 net.cpp:137] Memory required for data: 958562336
I0920 17:20:23.081387 12587 layer_factory.hpp:77] Creating layer res3a_branch2b_relu
I0920 17:20:23.081400 12587 net.cpp:84] Creating Layer res3a_branch2b_relu
I0920 17:20:23.081403 12587 net.cpp:406] res3a_branch2b_relu <- res3a_branch2b
I0920 17:20:23.081406 12587 net.cpp:367] res3a_branch2b_relu -> res3a_branch2b (in-place)
I0920 17:20:23.081719 12587 net.cpp:122] Setting up res3a_branch2b_relu
I0920 17:20:23.081727 12587 net.cpp:129] Top shape: 8 128 28 28 (802816)
I0920 17:20:23.081730 12587 net.cpp:137] Memory required for data: 961773600
I0920 17:20:23.081743 12587 layer_factory.hpp:77] Creating layer res3a_branch2c
I0920 17:20:23.081748 12587 net.cpp:84] Creating Layer res3a_branch2c
I0920 17:20:23.081750 12587 net.cpp:406] res3a_branch2c <- res3a_branch2b
I0920 17:20:23.081754 12587 net.cpp:380] res3a_branch2c -> res3a_branch2c
I0920 17:20:23.082617 12587 net.cpp:122] Setting up res3a_branch2c
I0920 17:20:23.082625 12587 net.cpp:129] Top shape: 8 512 28 28 (3211264)
I0920 17:20:23.082638 12587 net.cpp:137] Memory required for data: 974618656
I0920 17:20:23.082641 12587 layer_factory.hpp:77] Creating layer bn3a_branch2c
I0920 17:20:23.082662 12587 net.cpp:84] Creating Layer bn3a_branch2c
I0920 17:20:23.082665 12587 net.cpp:406] bn3a_branch2c <- res3a_branch2c
I0920 17:20:23.082679 12587 net.cpp:367] bn3a_branch2c -> res3a_branch2c (in-place)
I0920 17:20:23.082823 12587 net.cpp:122] Setting up bn3a_branch2c
I0920 17:20:23.082826 12587 net.cpp:129] Top shape: 8 512 28 28 (3211264)
I0920 17:20:23.082829 12587 net.cpp:137] Memory required for data: 987463712
I0920 17:20:23.082842 12587 layer_factory.hpp:77] Creating layer scale3a_branch2c
I0920 17:20:23.082846 12587 net.cpp:84] Creating Layer scale3a_branch2c
I0920 17:20:23.082859 12587 net.cpp:406] scale3a_branch2c <- res3a_branch2c
I0920 17:20:23.082862 12587 net.cpp:367] scale3a_branch2c -> res3a_branch2c (in-place)
I0920 17:20:23.082887 12587 layer_factory.hpp:77] Creating layer scale3a_branch2c
I0920 17:20:23.082980 12587 net.cpp:122] Setting up scale3a_branch2c
I0920 17:20:23.082984 12587 net.cpp:129] Top shape: 8 512 28 28 (3211264)
I0920 17:20:23.082986 12587 net.cpp:137] Memory required for data: 1000308768
I0920 17:20:23.082989 12587 layer_factory.hpp:77] Creating layer res3a
I0920 17:20:23.083003 12587 net.cpp:84] Creating Layer res3a
I0920 17:20:23.083006 12587 net.cpp:406] res3a <- res3a_branch1
I0920 17:20:23.083009 12587 net.cpp:406] res3a <- res3a_branch2c
I0920 17:20:23.083011 12587 net.cpp:380] res3a -> res3a
I0920 17:20:23.083027 12587 net.cpp:122] Setting up res3a
I0920 17:20:23.083041 12587 net.cpp:129] Top shape: 8 512 28 28 (3211264)
I0920 17:20:23.083043 12587 net.cpp:137] Memory required for data: 1013153824
I0920 17:20:23.083045 12587 layer_factory.hpp:77] Creating layer res3a_relu
I0920 17:20:23.083048 12587 net.cpp:84] Creating Layer res3a_relu
I0920 17:20:23.083050 12587 net.cpp:406] res3a_relu <- res3a
I0920 17:20:23.083063 12587 net.cpp:367] res3a_relu -> res3a (in-place)
I0920 17:20:23.083184 12587 net.cpp:122] Setting up res3a_relu
I0920 17:20:23.083190 12587 net.cpp:129] Top shape: 8 512 28 28 (3211264)
I0920 17:20:23.083194 12587 net.cpp:137] Memory required for data: 1025998880
I0920 17:20:23.083195 12587 layer_factory.hpp:77] Creating layer res3a_res3a_relu_0_split
I0920 17:20:23.083199 12587 net.cpp:84] Creating Layer res3a_res3a_relu_0_split
I0920 17:20:23.083200 12587 net.cpp:406] res3a_res3a_relu_0_split <- res3a
I0920 17:20:23.083204 12587 net.cpp:380] res3a_res3a_relu_0_split -> res3a_res3a_relu_0_split_0
I0920 17:20:23.083209 12587 net.cpp:380] res3a_res3a_relu_0_split -> res3a_res3a_relu_0_split_1
I0920 17:20:23.083235 12587 net.cpp:122] Setting up res3a_res3a_relu_0_split
I0920 17:20:23.083240 12587 net.cpp:129] Top shape: 8 512 28 28 (3211264)
I0920 17:20:23.083241 12587 net.cpp:129] Top shape: 8 512 28 28 (3211264)
I0920 17:20:23.083243 12587 net.cpp:137] Memory required for data: 1051688992
I0920 17:20:23.083252 12587 layer_factory.hpp:77] Creating layer res3b_branch2a
I0920 17:20:23.083257 12587 net.cpp:84] Creating Layer res3b_branch2a
I0920 17:20:23.083261 12587 net.cpp:406] res3b_branch2a <- res3a_res3a_relu_0_split_0
I0920 17:20:23.083263 12587 net.cpp:380] res3b_branch2a -> res3b_branch2a
I0920 17:20:23.084385 12587 net.cpp:122] Setting up res3b_branch2a
I0920 17:20:23.084394 12587 net.cpp:129] Top shape: 8 128 28 28 (802816)
I0920 17:20:23.084398 12587 net.cpp:137] Memory required for data: 1054900256
I0920 17:20:23.084400 12587 layer_factory.hpp:77] Creating layer bn3b_branch2a
I0920 17:20:23.084405 12587 net.cpp:84] Creating Layer bn3b_branch2a
I0920 17:20:23.084408 12587 net.cpp:406] bn3b_branch2a <- res3b_branch2a
I0920 17:20:23.084410 12587 net.cpp:367] bn3b_branch2a -> res3b_branch2a (in-place)
I0920 17:20:23.084533 12587 net.cpp:122] Setting up bn3b_branch2a
I0920 17:20:23.084538 12587 net.cpp:129] Top shape: 8 128 28 28 (802816)
I0920 17:20:23.084539 12587 net.cpp:137] Memory required for data: 1058111520
I0920 17:20:23.084543 12587 layer_factory.hpp:77] Creating layer scale3b_branch2a
I0920 17:20:23.084549 12587 net.cpp:84] Creating Layer scale3b_branch2a
I0920 17:20:23.084553 12587 net.cpp:406] scale3b_branch2a <- res3b_branch2a
I0920 17:20:23.084555 12587 net.cpp:367] scale3b_branch2a -> res3b_branch2a (in-place)
I0920 17:20:23.084579 12587 layer_factory.hpp:77] Creating layer scale3b_branch2a
I0920 17:20:23.084647 12587 net.cpp:122] Setting up scale3b_branch2a
I0920 17:20:23.084651 12587 net.cpp:129] Top shape: 8 128 28 28 (802816)
I0920 17:20:23.084653 12587 net.cpp:137] Memory required for data: 1061322784
I0920 17:20:23.084656 12587 layer_factory.hpp:77] Creating layer res3b_branch2a_relu
I0920 17:20:23.084666 12587 net.cpp:84] Creating Layer res3b_branch2a_relu
I0920 17:20:23.084669 12587 net.cpp:406] res3b_branch2a_relu <- res3b_branch2a
I0920 17:20:23.084674 12587 net.cpp:367] res3b_branch2a_relu -> res3b_branch2a (in-place)
I0920 17:20:23.084995 12587 net.cpp:122] Setting up res3b_branch2a_relu
I0920 17:20:23.085002 12587 net.cpp:129] Top shape: 8 128 28 28 (802816)
I0920 17:20:23.085005 12587 net.cpp:137] Memory required for data: 1064534048
I0920 17:20:23.085006 12587 layer_factory.hpp:77] Creating layer res3b_branch2b
I0920 17:20:23.085012 12587 net.cpp:84] Creating Layer res3b_branch2b
I0920 17:20:23.085016 12587 net.cpp:406] res3b_branch2b <- res3b_branch2a
I0920 17:20:23.085019 12587 net.cpp:380] res3b_branch2b -> res3b_branch2b
I0920 17:20:23.086180 12587 net.cpp:122] Setting up res3b_branch2b
I0920 17:20:23.086189 12587 net.cpp:129] Top shape: 8 128 28 28 (802816)
I0920 17:20:23.086191 12587 net.cpp:137] Memory required for data: 1067745312
I0920 17:20:23.086195 12587 layer_factory.hpp:77] Creating layer bn3b_branch2b
I0920 17:20:23.086200 12587 net.cpp:84] Creating Layer bn3b_branch2b
I0920 17:20:23.086203 12587 net.cpp:406] bn3b_branch2b <- res3b_branch2b
I0920 17:20:23.086206 12587 net.cpp:367] bn3b_branch2b -> res3b_branch2b (in-place)
I0920 17:20:23.086336 12587 net.cpp:122] Setting up bn3b_branch2b
I0920 17:20:23.086341 12587 net.cpp:129] Top shape: 8 128 28 28 (802816)
I0920 17:20:23.086344 12587 net.cpp:137] Memory required for data: 1070956576
I0920 17:20:23.086357 12587 layer_factory.hpp:77] Creating layer scale3b_branch2b
I0920 17:20:23.086362 12587 net.cpp:84] Creating Layer scale3b_branch2b
I0920 17:20:23.086364 12587 net.cpp:406] scale3b_branch2b <- res3b_branch2b
I0920 17:20:23.086367 12587 net.cpp:367] scale3b_branch2b -> res3b_branch2b (in-place)
I0920 17:20:23.086392 12587 layer_factory.hpp:77] Creating layer scale3b_branch2b
I0920 17:20:23.086464 12587 net.cpp:122] Setting up scale3b_branch2b
I0920 17:20:23.086468 12587 net.cpp:129] Top shape: 8 128 28 28 (802816)
I0920 17:20:23.086472 12587 net.cpp:137] Memory required for data: 1074167840
I0920 17:20:23.086474 12587 layer_factory.hpp:77] Creating layer res3b_branch2b_relu
I0920 17:20:23.086478 12587 net.cpp:84] Creating Layer res3b_branch2b_relu
I0920 17:20:23.086480 12587 net.cpp:406] res3b_branch2b_relu <- res3b_branch2b
I0920 17:20:23.086491 12587 net.cpp:367] res3b_branch2b_relu -> res3b_branch2b (in-place)
I0920 17:20:23.086807 12587 net.cpp:122] Setting up res3b_branch2b_relu
I0920 17:20:23.086814 12587 net.cpp:129] Top shape: 8 128 28 28 (802816)
I0920 17:20:23.086817 12587 net.cpp:137] Memory required for data: 1077379104
I0920 17:20:23.086819 12587 layer_factory.hpp:77] Creating layer res3b_branch2c
I0920 17:20:23.086824 12587 net.cpp:84] Creating Layer res3b_branch2c
I0920 17:20:23.086827 12587 net.cpp:406] res3b_branch2c <- res3b_branch2b
I0920 17:20:23.086830 12587 net.cpp:380] res3b_branch2c -> res3b_branch2c
I0920 17:20:23.087755 12587 net.cpp:122] Setting up res3b_branch2c
I0920 17:20:23.087766 12587 net.cpp:129] Top shape: 8 512 28 28 (3211264)
I0920 17:20:23.087770 12587 net.cpp:137] Memory required for data: 1090224160
I0920 17:20:23.087775 12587 layer_factory.hpp:77] Creating layer bn3b_branch2c
I0920 17:20:23.087783 12587 net.cpp:84] Creating Layer bn3b_branch2c
I0920 17:20:23.087788 12587 net.cpp:406] bn3b_branch2c <- res3b_branch2c
I0920 17:20:23.087795 12587 net.cpp:367] bn3b_branch2c -> res3b_branch2c (in-place)
I0920 17:20:23.087965 12587 net.cpp:122] Setting up bn3b_branch2c
I0920 17:20:23.087975 12587 net.cpp:129] Top shape: 8 512 28 28 (3211264)
I0920 17:20:23.087976 12587 net.cpp:137] Memory required for data: 1103069216
I0920 17:20:23.087980 12587 layer_factory.hpp:77] Creating layer scale3b_branch2c
I0920 17:20:23.087985 12587 net.cpp:84] Creating Layer scale3b_branch2c
I0920 17:20:23.087986 12587 net.cpp:406] scale3b_branch2c <- res3b_branch2c
I0920 17:20:23.087990 12587 net.cpp:367] scale3b_branch2c -> res3b_branch2c (in-place)
I0920 17:20:23.088017 12587 layer_factory.hpp:77] Creating layer scale3b_branch2c
I0920 17:20:23.088088 12587 net.cpp:122] Setting up scale3b_branch2c
I0920 17:20:23.088093 12587 net.cpp:129] Top shape: 8 512 28 28 (3211264)
I0920 17:20:23.088095 12587 net.cpp:137] Memory required for data: 1115914272
I0920 17:20:23.088099 12587 layer_factory.hpp:77] Creating layer res3b
I0920 17:20:23.088102 12587 net.cpp:84] Creating Layer res3b
I0920 17:20:23.088104 12587 net.cpp:406] res3b <- res3a_res3a_relu_0_split_1
I0920 17:20:23.088107 12587 net.cpp:406] res3b <- res3b_branch2c
I0920 17:20:23.088110 12587 net.cpp:380] res3b -> res3b
I0920 17:20:23.088126 12587 net.cpp:122] Setting up res3b
I0920 17:20:23.088140 12587 net.cpp:129] Top shape: 8 512 28 28 (3211264)
I0920 17:20:23.088142 12587 net.cpp:137] Memory required for data: 1128759328
I0920 17:20:23.088143 12587 layer_factory.hpp:77] Creating layer res3b_relu
I0920 17:20:23.088146 12587 net.cpp:84] Creating Layer res3b_relu
I0920 17:20:23.088158 12587 net.cpp:406] res3b_relu <- res3b
I0920 17:20:23.088162 12587 net.cpp:367] res3b_relu -> res3b (in-place)
I0920 17:20:23.088282 12587 net.cpp:122] Setting up res3b_relu
I0920 17:20:23.088289 12587 net.cpp:129] Top shape: 8 512 28 28 (3211264)
I0920 17:20:23.088289 12587 net.cpp:137] Memory required for data: 1141604384
I0920 17:20:23.088291 12587 layer_factory.hpp:77] Creating layer res3b_res3b_relu_0_split
I0920 17:20:23.088295 12587 net.cpp:84] Creating Layer res3b_res3b_relu_0_split
I0920 17:20:23.088297 12587 net.cpp:406] res3b_res3b_relu_0_split <- res3b
I0920 17:20:23.088300 12587 net.cpp:380] res3b_res3b_relu_0_split -> res3b_res3b_relu_0_split_0
I0920 17:20:23.088304 12587 net.cpp:380] res3b_res3b_relu_0_split -> res3b_res3b_relu_0_split_1
I0920 17:20:23.088332 12587 net.cpp:122] Setting up res3b_res3b_relu_0_split
I0920 17:20:23.088336 12587 net.cpp:129] Top shape: 8 512 28 28 (3211264)
I0920 17:20:23.088338 12587 net.cpp:129] Top shape: 8 512 28 28 (3211264)
I0920 17:20:23.088340 12587 net.cpp:137] Memory required for data: 1167294496
I0920 17:20:23.088341 12587 layer_factory.hpp:77] Creating layer res3c_branch2a
I0920 17:20:23.088346 12587 net.cpp:84] Creating Layer res3c_branch2a
I0920 17:20:23.088348 12587 net.cpp:406] res3c_branch2a <- res3b_res3b_relu_0_split_0
I0920 17:20:23.088352 12587 net.cpp:380] res3c_branch2a -> res3c_branch2a
I0920 17:20:23.089318 12587 net.cpp:122] Setting up res3c_branch2a
I0920 17:20:23.089328 12587 net.cpp:129] Top shape: 8 128 28 28 (802816)
I0920 17:20:23.089329 12587 net.cpp:137] Memory required for data: 1170505760
I0920 17:20:23.089332 12587 layer_factory.hpp:77] Creating layer bn3c_branch2a
I0920 17:20:23.089349 12587 net.cpp:84] Creating Layer bn3c_branch2a
I0920 17:20:23.089351 12587 net.cpp:406] bn3c_branch2a <- res3c_branch2a
I0920 17:20:23.089354 12587 net.cpp:367] bn3c_branch2a -> res3c_branch2a (in-place)
I0920 17:20:23.089500 12587 net.cpp:122] Setting up bn3c_branch2a
I0920 17:20:23.089505 12587 net.cpp:129] Top shape: 8 128 28 28 (802816)
I0920 17:20:23.089516 12587 net.cpp:137] Memory required for data: 1173717024
I0920 17:20:23.089520 12587 layer_factory.hpp:77] Creating layer scale3c_branch2a
I0920 17:20:23.089524 12587 net.cpp:84] Creating Layer scale3c_branch2a
I0920 17:20:23.089536 12587 net.cpp:406] scale3c_branch2a <- res3c_branch2a
I0920 17:20:23.089539 12587 net.cpp:367] scale3c_branch2a -> res3c_branch2a (in-place)
I0920 17:20:23.089574 12587 layer_factory.hpp:77] Creating layer scale3c_branch2a
I0920 17:20:23.089718 12587 net.cpp:122] Setting up scale3c_branch2a
I0920 17:20:23.089726 12587 net.cpp:129] Top shape: 8 128 28 28 (802816)
I0920 17:20:23.089738 12587 net.cpp:137] Memory required for data: 1176928288
I0920 17:20:23.089743 12587 layer_factory.hpp:77] Creating layer res3c_branch2a_relu
I0920 17:20:23.089751 12587 net.cpp:84] Creating Layer res3c_branch2a_relu
I0920 17:20:23.089754 12587 net.cpp:406] res3c_branch2a_relu <- res3c_branch2a
I0920 17:20:23.089759 12587 net.cpp:367] res3c_branch2a_relu -> res3c_branch2a (in-place)
I0920 17:20:23.090437 12587 net.cpp:122] Setting up res3c_branch2a_relu
I0920 17:20:23.090448 12587 net.cpp:129] Top shape: 8 128 28 28 (802816)
I0920 17:20:23.090466 12587 net.cpp:137] Memory required for data: 1180139552
I0920 17:20:23.090469 12587 layer_factory.hpp:77] Creating layer res3c_branch2b
I0920 17:20:23.090476 12587 net.cpp:84] Creating Layer res3c_branch2b
I0920 17:20:23.090479 12587 net.cpp:406] res3c_branch2b <- res3c_branch2a
I0920 17:20:23.090487 12587 net.cpp:380] res3c_branch2b -> res3c_branch2b
I0920 17:20:23.091493 12587 net.cpp:122] Setting up res3c_branch2b
I0920 17:20:23.091502 12587 net.cpp:129] Top shape: 8 128 28 28 (802816)
I0920 17:20:23.091506 12587 net.cpp:137] Memory required for data: 1183350816
I0920 17:20:23.091518 12587 layer_factory.hpp:77] Creating layer bn3c_branch2b
I0920 17:20:23.091522 12587 net.cpp:84] Creating Layer bn3c_branch2b
I0920 17:20:23.091526 12587 net.cpp:406] bn3c_branch2b <- res3c_branch2b
I0920 17:20:23.091528 12587 net.cpp:367] bn3c_branch2b -> res3c_branch2b (in-place)
I0920 17:20:23.091663 12587 net.cpp:122] Setting up bn3c_branch2b
I0920 17:20:23.091668 12587 net.cpp:129] Top shape: 8 128 28 28 (802816)
I0920 17:20:23.091670 12587 net.cpp:137] Memory required for data: 1186562080
I0920 17:20:23.091673 12587 layer_factory.hpp:77] Creating layer scale3c_branch2b
I0920 17:20:23.091688 12587 net.cpp:84] Creating Layer scale3c_branch2b
I0920 17:20:23.091691 12587 net.cpp:406] scale3c_branch2b <- res3c_branch2b
I0920 17:20:23.091693 12587 net.cpp:367] scale3c_branch2b -> res3c_branch2b (in-place)
I0920 17:20:23.091730 12587 layer_factory.hpp:77] Creating layer scale3c_branch2b
I0920 17:20:23.091820 12587 net.cpp:122] Setting up scale3c_branch2b
I0920 17:20:23.091825 12587 net.cpp:129] Top shape: 8 128 28 28 (802816)
I0920 17:20:23.091827 12587 net.cpp:137] Memory required for data: 1189773344
I0920 17:20:23.091840 12587 layer_factory.hpp:77] Creating layer res3c_branch2b_relu
I0920 17:20:23.091845 12587 net.cpp:84] Creating Layer res3c_branch2b_relu
I0920 17:20:23.091846 12587 net.cpp:406] res3c_branch2b_relu <- res3c_branch2b
I0920 17:20:23.091850 12587 net.cpp:367] res3c_branch2b_relu -> res3c_branch2b (in-place)
I0920 17:20:23.092164 12587 net.cpp:122] Setting up res3c_branch2b_relu
I0920 17:20:23.092172 12587 net.cpp:129] Top shape: 8 128 28 28 (802816)
I0920 17:20:23.092175 12587 net.cpp:137] Memory required for data: 1192984608
I0920 17:20:23.092195 12587 layer_factory.hpp:77] Creating layer res3c_branch2c
I0920 17:20:23.092200 12587 net.cpp:84] Creating Layer res3c_branch2c
I0920 17:20:23.092203 12587 net.cpp:406] res3c_branch2c <- res3c_branch2b
I0920 17:20:23.092206 12587 net.cpp:380] res3c_branch2c -> res3c_branch2c
I0920 17:20:23.093143 12587 net.cpp:122] Setting up res3c_branch2c
I0920 17:20:23.093152 12587 net.cpp:129] Top shape: 8 512 28 28 (3211264)
I0920 17:20:23.093155 12587 net.cpp:137] Memory required for data: 1205829664
I0920 17:20:23.093158 12587 layer_factory.hpp:77] Creating layer bn3c_branch2c
I0920 17:20:23.093163 12587 net.cpp:84] Creating Layer bn3c_branch2c
I0920 17:20:23.093166 12587 net.cpp:406] bn3c_branch2c <- res3c_branch2c
I0920 17:20:23.093169 12587 net.cpp:367] bn3c_branch2c -> res3c_branch2c (in-place)
I0920 17:20:23.093307 12587 net.cpp:122] Setting up bn3c_branch2c
I0920 17:20:23.093312 12587 net.cpp:129] Top shape: 8 512 28 28 (3211264)
I0920 17:20:23.093313 12587 net.cpp:137] Memory required for data: 1218674720
I0920 17:20:23.093317 12587 layer_factory.hpp:77] Creating layer scale3c_branch2c
I0920 17:20:23.093330 12587 net.cpp:84] Creating Layer scale3c_branch2c
I0920 17:20:23.093333 12587 net.cpp:406] scale3c_branch2c <- res3c_branch2c
I0920 17:20:23.093335 12587 net.cpp:367] scale3c_branch2c -> res3c_branch2c (in-place)
I0920 17:20:23.093364 12587 layer_factory.hpp:77] Creating layer scale3c_branch2c
I0920 17:20:23.093466 12587 net.cpp:122] Setting up scale3c_branch2c
I0920 17:20:23.093471 12587 net.cpp:129] Top shape: 8 512 28 28 (3211264)
I0920 17:20:23.093472 12587 net.cpp:137] Memory required for data: 1231519776
I0920 17:20:23.093474 12587 layer_factory.hpp:77] Creating layer res3c
I0920 17:20:23.093487 12587 net.cpp:84] Creating Layer res3c
I0920 17:20:23.093490 12587 net.cpp:406] res3c <- res3b_res3b_relu_0_split_1
I0920 17:20:23.093493 12587 net.cpp:406] res3c <- res3c_branch2c
I0920 17:20:23.093497 12587 net.cpp:380] res3c -> res3c
I0920 17:20:23.093513 12587 net.cpp:122] Setting up res3c
I0920 17:20:23.093518 12587 net.cpp:129] Top shape: 8 512 28 28 (3211264)
I0920 17:20:23.093518 12587 net.cpp:137] Memory required for data: 1244364832
I0920 17:20:23.093520 12587 layer_factory.hpp:77] Creating layer res3c_relu
I0920 17:20:23.093524 12587 net.cpp:84] Creating Layer res3c_relu
I0920 17:20:23.093526 12587 net.cpp:406] res3c_relu <- res3c
I0920 17:20:23.093529 12587 net.cpp:367] res3c_relu -> res3c (in-place)
I0920 17:20:23.093642 12587 net.cpp:122] Setting up res3c_relu
I0920 17:20:23.093648 12587 net.cpp:129] Top shape: 8 512 28 28 (3211264)
I0920 17:20:23.093649 12587 net.cpp:137] Memory required for data: 1257209888
I0920 17:20:23.093652 12587 layer_factory.hpp:77] Creating layer res3c_res3c_relu_0_split
I0920 17:20:23.093657 12587 net.cpp:84] Creating Layer res3c_res3c_relu_0_split
I0920 17:20:23.093658 12587 net.cpp:406] res3c_res3c_relu_0_split <- res3c
I0920 17:20:23.093662 12587 net.cpp:380] res3c_res3c_relu_0_split -> res3c_res3c_relu_0_split_0
I0920 17:20:23.093667 12587 net.cpp:380] res3c_res3c_relu_0_split -> res3c_res3c_relu_0_split_1
I0920 17:20:23.093694 12587 net.cpp:122] Setting up res3c_res3c_relu_0_split
I0920 17:20:23.093698 12587 net.cpp:129] Top shape: 8 512 28 28 (3211264)
I0920 17:20:23.093703 12587 net.cpp:129] Top shape: 8 512 28 28 (3211264)
I0920 17:20:23.093704 12587 net.cpp:137] Memory required for data: 1282900000
I0920 17:20:23.093705 12587 layer_factory.hpp:77] Creating layer res3d_branch2a
I0920 17:20:23.093709 12587 net.cpp:84] Creating Layer res3d_branch2a
I0920 17:20:23.093713 12587 net.cpp:406] res3d_branch2a <- res3c_res3c_relu_0_split_0
I0920 17:20:23.093715 12587 net.cpp:380] res3d_branch2a -> res3d_branch2a
I0920 17:20:23.094857 12587 net.cpp:122] Setting up res3d_branch2a
I0920 17:20:23.094866 12587 net.cpp:129] Top shape: 8 128 28 28 (802816)
I0920 17:20:23.094868 12587 net.cpp:137] Memory required for data: 1286111264
I0920 17:20:23.094872 12587 layer_factory.hpp:77] Creating layer bn3d_branch2a
I0920 17:20:23.094877 12587 net.cpp:84] Creating Layer bn3d_branch2a
I0920 17:20:23.094887 12587 net.cpp:406] bn3d_branch2a <- res3d_branch2a
I0920 17:20:23.094889 12587 net.cpp:367] bn3d_branch2a -> res3d_branch2a (in-place)
I0920 17:20:23.095026 12587 net.cpp:122] Setting up bn3d_branch2a
I0920 17:20:23.095031 12587 net.cpp:129] Top shape: 8 128 28 28 (802816)
I0920 17:20:23.095032 12587 net.cpp:137] Memory required for data: 1289322528
I0920 17:20:23.095048 12587 layer_factory.hpp:77] Creating layer scale3d_branch2a
I0920 17:20:23.095053 12587 net.cpp:84] Creating Layer scale3d_branch2a
I0920 17:20:23.095055 12587 net.cpp:406] scale3d_branch2a <- res3d_branch2a
I0920 17:20:23.095058 12587 net.cpp:367] scale3d_branch2a -> res3d_branch2a (in-place)
I0920 17:20:23.095086 12587 layer_factory.hpp:77] Creating layer scale3d_branch2a
I0920 17:20:23.095160 12587 net.cpp:122] Setting up scale3d_branch2a
I0920 17:20:23.095163 12587 net.cpp:129] Top shape: 8 128 28 28 (802816)
I0920 17:20:23.095165 12587 net.cpp:137] Memory required for data: 1292533792
I0920 17:20:23.095168 12587 layer_factory.hpp:77] Creating layer res3d_branch2a_relu
I0920 17:20:23.095171 12587 net.cpp:84] Creating Layer res3d_branch2a_relu
I0920 17:20:23.095173 12587 net.cpp:406] res3d_branch2a_relu <- res3d_branch2a
I0920 17:20:23.095176 12587 net.cpp:367] res3d_branch2a_relu -> res3d_branch2a (in-place)
I0920 17:20:23.095497 12587 net.cpp:122] Setting up res3d_branch2a_relu
I0920 17:20:23.095505 12587 net.cpp:129] Top shape: 8 128 28 28 (802816)
I0920 17:20:23.095508 12587 net.cpp:137] Memory required for data: 1295745056
I0920 17:20:23.095510 12587 layer_factory.hpp:77] Creating layer res3d_branch2b
I0920 17:20:23.095515 12587 net.cpp:84] Creating Layer res3d_branch2b
I0920 17:20:23.095518 12587 net.cpp:406] res3d_branch2b <- res3d_branch2a
I0920 17:20:23.095522 12587 net.cpp:380] res3d_branch2b -> res3d_branch2b
I0920 17:20:23.096506 12587 net.cpp:122] Setting up res3d_branch2b
I0920 17:20:23.096515 12587 net.cpp:129] Top shape: 8 128 28 28 (802816)
I0920 17:20:23.096518 12587 net.cpp:137] Memory required for data: 1298956320
I0920 17:20:23.096521 12587 layer_factory.hpp:77] Creating layer bn3d_branch2b
I0920 17:20:23.096525 12587 net.cpp:84] Creating Layer bn3d_branch2b
I0920 17:20:23.096527 12587 net.cpp:406] bn3d_branch2b <- res3d_branch2b
I0920 17:20:23.096531 12587 net.cpp:367] bn3d_branch2b -> res3d_branch2b (in-place)
I0920 17:20:23.096678 12587 net.cpp:122] Setting up bn3d_branch2b
I0920 17:20:23.096684 12587 net.cpp:129] Top shape: 8 128 28 28 (802816)
I0920 17:20:23.096686 12587 net.cpp:137] Memory required for data: 1302167584
I0920 17:20:23.096690 12587 layer_factory.hpp:77] Creating layer scale3d_branch2b
I0920 17:20:23.096694 12587 net.cpp:84] Creating Layer scale3d_branch2b
I0920 17:20:23.096696 12587 net.cpp:406] scale3d_branch2b <- res3d_branch2b
I0920 17:20:23.096699 12587 net.cpp:367] scale3d_branch2b -> res3d_branch2b (in-place)
I0920 17:20:23.096727 12587 layer_factory.hpp:77] Creating layer scale3d_branch2b
I0920 17:20:23.096802 12587 net.cpp:122] Setting up scale3d_branch2b
I0920 17:20:23.096807 12587 net.cpp:129] Top shape: 8 128 28 28 (802816)
I0920 17:20:23.096808 12587 net.cpp:137] Memory required for data: 1305378848
I0920 17:20:23.096812 12587 layer_factory.hpp:77] Creating layer res3d_branch2b_relu
I0920 17:20:23.096814 12587 net.cpp:84] Creating Layer res3d_branch2b_relu
I0920 17:20:23.096817 12587 net.cpp:406] res3d_branch2b_relu <- res3d_branch2b
I0920 17:20:23.096820 12587 net.cpp:367] res3d_branch2b_relu -> res3d_branch2b (in-place)
I0920 17:20:23.097141 12587 net.cpp:122] Setting up res3d_branch2b_relu
I0920 17:20:23.097148 12587 net.cpp:129] Top shape: 8 128 28 28 (802816)
I0920 17:20:23.097151 12587 net.cpp:137] Memory required for data: 1308590112
I0920 17:20:23.097153 12587 layer_factory.hpp:77] Creating layer res3d_branch2c
I0920 17:20:23.097159 12587 net.cpp:84] Creating Layer res3d_branch2c
I0920 17:20:23.097162 12587 net.cpp:406] res3d_branch2c <- res3d_branch2b
I0920 17:20:23.097167 12587 net.cpp:380] res3d_branch2c -> res3d_branch2c
I0920 17:20:23.098083 12587 net.cpp:122] Setting up res3d_branch2c
I0920 17:20:23.098098 12587 net.cpp:129] Top shape: 8 512 28 28 (3211264)
I0920 17:20:23.098101 12587 net.cpp:137] Memory required for data: 1321435168
I0920 17:20:23.098104 12587 layer_factory.hpp:77] Creating layer bn3d_branch2c
I0920 17:20:23.098109 12587 net.cpp:84] Creating Layer bn3d_branch2c
I0920 17:20:23.098112 12587 net.cpp:406] bn3d_branch2c <- res3d_branch2c
I0920 17:20:23.098115 12587 net.cpp:367] bn3d_branch2c -> res3d_branch2c (in-place)
I0920 17:20:23.098253 12587 net.cpp:122] Setting up bn3d_branch2c
I0920 17:20:23.098258 12587 net.cpp:129] Top shape: 8 512 28 28 (3211264)
I0920 17:20:23.098259 12587 net.cpp:137] Memory required for data: 1334280224
I0920 17:20:23.098263 12587 layer_factory.hpp:77] Creating layer scale3d_branch2c
I0920 17:20:23.098268 12587 net.cpp:84] Creating Layer scale3d_branch2c
I0920 17:20:23.098270 12587 net.cpp:406] scale3d_branch2c <- res3d_branch2c
I0920 17:20:23.098273 12587 net.cpp:367] scale3d_branch2c -> res3d_branch2c (in-place)
I0920 17:20:23.098300 12587 layer_factory.hpp:77] Creating layer scale3d_branch2c
I0920 17:20:23.098376 12587 net.cpp:122] Setting up scale3d_branch2c
I0920 17:20:23.098381 12587 net.cpp:129] Top shape: 8 512 28 28 (3211264)
I0920 17:20:23.098382 12587 net.cpp:137] Memory required for data: 1347125280
I0920 17:20:23.098386 12587 layer_factory.hpp:77] Creating layer res3d
I0920 17:20:23.098389 12587 net.cpp:84] Creating Layer res3d
I0920 17:20:23.098392 12587 net.cpp:406] res3d <- res3c_res3c_relu_0_split_1
I0920 17:20:23.098395 12587 net.cpp:406] res3d <- res3d_branch2c
I0920 17:20:23.098398 12587 net.cpp:380] res3d -> res3d
I0920 17:20:23.098415 12587 net.cpp:122] Setting up res3d
I0920 17:20:23.098419 12587 net.cpp:129] Top shape: 8 512 28 28 (3211264)
I0920 17:20:23.098422 12587 net.cpp:137] Memory required for data: 1359970336
I0920 17:20:23.098423 12587 layer_factory.hpp:77] Creating layer res3d_relu
I0920 17:20:23.098425 12587 net.cpp:84] Creating Layer res3d_relu
I0920 17:20:23.098428 12587 net.cpp:406] res3d_relu <- res3d
I0920 17:20:23.098431 12587 net.cpp:367] res3d_relu -> res3d (in-place)
I0920 17:20:23.098541 12587 net.cpp:122] Setting up res3d_relu
I0920 17:20:23.098547 12587 net.cpp:129] Top shape: 8 512 28 28 (3211264)
I0920 17:20:23.098549 12587 net.cpp:137] Memory required for data: 1372815392
I0920 17:20:23.098551 12587 layer_factory.hpp:77] Creating layer res3d_res3d_relu_0_split
I0920 17:20:23.098556 12587 net.cpp:84] Creating Layer res3d_res3d_relu_0_split
I0920 17:20:23.098557 12587 net.cpp:406] res3d_res3d_relu_0_split <- res3d
I0920 17:20:23.098562 12587 net.cpp:380] res3d_res3d_relu_0_split -> res3d_res3d_relu_0_split_0
I0920 17:20:23.098565 12587 net.cpp:380] res3d_res3d_relu_0_split -> res3d_res3d_relu_0_split_1
I0920 17:20:23.098593 12587 net.cpp:122] Setting up res3d_res3d_relu_0_split
I0920 17:20:23.098598 12587 net.cpp:129] Top shape: 8 512 28 28 (3211264)
I0920 17:20:23.098600 12587 net.cpp:129] Top shape: 8 512 28 28 (3211264)
I0920 17:20:23.098603 12587 net.cpp:137] Memory required for data: 1398505504
I0920 17:20:23.098604 12587 layer_factory.hpp:77] Creating layer res4a_branch1
I0920 17:20:23.098608 12587 net.cpp:84] Creating Layer res4a_branch1
I0920 17:20:23.098611 12587 net.cpp:406] res4a_branch1 <- res3d_res3d_relu_0_split_0
I0920 17:20:23.098614 12587 net.cpp:380] res4a_branch1 -> res4a_branch1
I0920 17:20:23.100298 12587 net.cpp:122] Setting up res4a_branch1
I0920 17:20:23.100307 12587 net.cpp:129] Top shape: 8 1024 14 14 (1605632)
I0920 17:20:23.100309 12587 net.cpp:137] Memory required for data: 1404928032
I0920 17:20:23.100312 12587 layer_factory.hpp:77] Creating layer bn4a_branch1
I0920 17:20:23.100317 12587 net.cpp:84] Creating Layer bn4a_branch1
I0920 17:20:23.100319 12587 net.cpp:406] bn4a_branch1 <- res4a_branch1
I0920 17:20:23.100323 12587 net.cpp:367] bn4a_branch1 -> res4a_branch1 (in-place)
I0920 17:20:23.100466 12587 net.cpp:122] Setting up bn4a_branch1
I0920 17:20:23.100471 12587 net.cpp:129] Top shape: 8 1024 14 14 (1605632)
I0920 17:20:23.100472 12587 net.cpp:137] Memory required for data: 1411350560
I0920 17:20:23.100483 12587 layer_factory.hpp:77] Creating layer scale4a_branch1
I0920 17:20:23.100487 12587 net.cpp:84] Creating Layer scale4a_branch1
I0920 17:20:23.100489 12587 net.cpp:406] scale4a_branch1 <- res4a_branch1
I0920 17:20:23.100492 12587 net.cpp:367] scale4a_branch1 -> res4a_branch1 (in-place)
I0920 17:20:23.100518 12587 layer_factory.hpp:77] Creating layer scale4a_branch1
I0920 17:20:23.100595 12587 net.cpp:122] Setting up scale4a_branch1
I0920 17:20:23.100600 12587 net.cpp:129] Top shape: 8 1024 14 14 (1605632)
I0920 17:20:23.100601 12587 net.cpp:137] Memory required for data: 1417773088
I0920 17:20:23.100605 12587 layer_factory.hpp:77] Creating layer res4a_branch2a
I0920 17:20:23.100610 12587 net.cpp:84] Creating Layer res4a_branch2a
I0920 17:20:23.100612 12587 net.cpp:406] res4a_branch2a <- res3d_res3d_relu_0_split_1
I0920 17:20:23.100615 12587 net.cpp:380] res4a_branch2a -> res4a_branch2a
I0920 17:20:23.101588 12587 net.cpp:122] Setting up res4a_branch2a
I0920 17:20:23.101598 12587 net.cpp:129] Top shape: 8 256 14 14 (401408)
I0920 17:20:23.101600 12587 net.cpp:137] Memory required for data: 1419378720
I0920 17:20:23.101603 12587 layer_factory.hpp:77] Creating layer bn4a_branch2a
I0920 17:20:23.101608 12587 net.cpp:84] Creating Layer bn4a_branch2a
I0920 17:20:23.101609 12587 net.cpp:406] bn4a_branch2a <- res4a_branch2a
I0920 17:20:23.101614 12587 net.cpp:367] bn4a_branch2a -> res4a_branch2a (in-place)
I0920 17:20:23.101757 12587 net.cpp:122] Setting up bn4a_branch2a
I0920 17:20:23.101761 12587 net.cpp:129] Top shape: 8 256 14 14 (401408)
I0920 17:20:23.101763 12587 net.cpp:137] Memory required for data: 1420984352
I0920 17:20:23.101778 12587 layer_factory.hpp:77] Creating layer scale4a_branch2a
I0920 17:20:23.101781 12587 net.cpp:84] Creating Layer scale4a_branch2a
I0920 17:20:23.101783 12587 net.cpp:406] scale4a_branch2a <- res4a_branch2a
I0920 17:20:23.101785 12587 net.cpp:367] scale4a_branch2a -> res4a_branch2a (in-place)
I0920 17:20:23.101824 12587 layer_factory.hpp:77] Creating layer scale4a_branch2a
I0920 17:20:23.101915 12587 net.cpp:122] Setting up scale4a_branch2a
I0920 17:20:23.101919 12587 net.cpp:129] Top shape: 8 256 14 14 (401408)
I0920 17:20:23.101922 12587 net.cpp:137] Memory required for data: 1422589984
I0920 17:20:23.101925 12587 layer_factory.hpp:77] Creating layer res4a_branch2a_relu
I0920 17:20:23.101938 12587 net.cpp:84] Creating Layer res4a_branch2a_relu
I0920 17:20:23.101940 12587 net.cpp:406] res4a_branch2a_relu <- res4a_branch2a
I0920 17:20:23.101944 12587 net.cpp:367] res4a_branch2a_relu -> res4a_branch2a (in-place)
I0920 17:20:23.102058 12587 net.cpp:122] Setting up res4a_branch2a_relu
I0920 17:20:23.102064 12587 net.cpp:129] Top shape: 8 256 14 14 (401408)
I0920 17:20:23.102067 12587 net.cpp:137] Memory required for data: 1424195616
I0920 17:20:23.102068 12587 layer_factory.hpp:77] Creating layer res4a_branch2b
I0920 17:20:23.102073 12587 net.cpp:84] Creating Layer res4a_branch2b
I0920 17:20:23.102077 12587 net.cpp:406] res4a_branch2b <- res4a_branch2a
I0920 17:20:23.102080 12587 net.cpp:380] res4a_branch2b -> res4a_branch2b
I0920 17:20:23.103631 12587 net.cpp:122] Setting up res4a_branch2b
I0920 17:20:23.103639 12587 net.cpp:129] Top shape: 8 256 14 14 (401408)
I0920 17:20:23.103642 12587 net.cpp:137] Memory required for data: 1425801248
I0920 17:20:23.103646 12587 layer_factory.hpp:77] Creating layer bn4a_branch2b
I0920 17:20:23.103649 12587 net.cpp:84] Creating Layer bn4a_branch2b
I0920 17:20:23.103652 12587 net.cpp:406] bn4a_branch2b <- res4a_branch2b
I0920 17:20:23.103655 12587 net.cpp:367] bn4a_branch2b -> res4a_branch2b (in-place)
I0920 17:20:23.103790 12587 net.cpp:122] Setting up bn4a_branch2b
I0920 17:20:23.103796 12587 net.cpp:129] Top shape: 8 256 14 14 (401408)
I0920 17:20:23.103797 12587 net.cpp:137] Memory required for data: 1427406880
I0920 17:20:23.103801 12587 layer_factory.hpp:77] Creating layer scale4a_branch2b
I0920 17:20:23.103806 12587 net.cpp:84] Creating Layer scale4a_branch2b
I0920 17:20:23.103816 12587 net.cpp:406] scale4a_branch2b <- res4a_branch2b
I0920 17:20:23.103819 12587 net.cpp:367] scale4a_branch2b -> res4a_branch2b (in-place)
I0920 17:20:23.103848 12587 layer_factory.hpp:77] Creating layer scale4a_branch2b
I0920 17:20:23.103922 12587 net.cpp:122] Setting up scale4a_branch2b
I0920 17:20:23.103927 12587 net.cpp:129] Top shape: 8 256 14 14 (401408)
I0920 17:20:23.103929 12587 net.cpp:137] Memory required for data: 1429012512
I0920 17:20:23.103932 12587 layer_factory.hpp:77] Creating layer res4a_branch2b_relu
I0920 17:20:23.103936 12587 net.cpp:84] Creating Layer res4a_branch2b_relu
I0920 17:20:23.103938 12587 net.cpp:406] res4a_branch2b_relu <- res4a_branch2b
I0920 17:20:23.103942 12587 net.cpp:367] res4a_branch2b_relu -> res4a_branch2b (in-place)
I0920 17:20:23.104264 12587 net.cpp:122] Setting up res4a_branch2b_relu
I0920 17:20:23.104271 12587 net.cpp:129] Top shape: 8 256 14 14 (401408)
I0920 17:20:23.104274 12587 net.cpp:137] Memory required for data: 1430618144
I0920 17:20:23.104275 12587 layer_factory.hpp:77] Creating layer res4a_branch2c
I0920 17:20:23.104281 12587 net.cpp:84] Creating Layer res4a_branch2c
I0920 17:20:23.104285 12587 net.cpp:406] res4a_branch2c <- res4a_branch2b
I0920 17:20:23.104287 12587 net.cpp:380] res4a_branch2c -> res4a_branch2c
I0920 17:20:23.105818 12587 net.cpp:122] Setting up res4a_branch2c
I0920 17:20:23.105828 12587 net.cpp:129] Top shape: 8 1024 14 14 (1605632)
I0920 17:20:23.105829 12587 net.cpp:137] Memory required for data: 1437040672
I0920 17:20:23.105834 12587 layer_factory.hpp:77] Creating layer bn4a_branch2c
I0920 17:20:23.105847 12587 net.cpp:84] Creating Layer bn4a_branch2c
I0920 17:20:23.105849 12587 net.cpp:406] bn4a_branch2c <- res4a_branch2c
I0920 17:20:23.105854 12587 net.cpp:367] bn4a_branch2c -> res4a_branch2c (in-place)
I0920 17:20:23.106020 12587 net.cpp:122] Setting up bn4a_branch2c
I0920 17:20:23.106025 12587 net.cpp:129] Top shape: 8 1024 14 14 (1605632)
I0920 17:20:23.106027 12587 net.cpp:137] Memory required for data: 1443463200
I0920 17:20:23.106045 12587 layer_factory.hpp:77] Creating layer scale4a_branch2c
I0920 17:20:23.106048 12587 net.cpp:84] Creating Layer scale4a_branch2c
I0920 17:20:23.106051 12587 net.cpp:406] scale4a_branch2c <- res4a_branch2c
I0920 17:20:23.106055 12587 net.cpp:367] scale4a_branch2c -> res4a_branch2c (in-place)
I0920 17:20:23.106079 12587 layer_factory.hpp:77] Creating layer scale4a_branch2c
I0920 17:20:23.106165 12587 net.cpp:122] Setting up scale4a_branch2c
I0920 17:20:23.106169 12587 net.cpp:129] Top shape: 8 1024 14 14 (1605632)
I0920 17:20:23.106171 12587 net.cpp:137] Memory required for data: 1449885728
I0920 17:20:23.106185 12587 layer_factory.hpp:77] Creating layer res4a
I0920 17:20:23.106189 12587 net.cpp:84] Creating Layer res4a
I0920 17:20:23.106192 12587 net.cpp:406] res4a <- res4a_branch1
I0920 17:20:23.106194 12587 net.cpp:406] res4a <- res4a_branch2c
I0920 17:20:23.106197 12587 net.cpp:380] res4a -> res4a
I0920 17:20:23.106215 12587 net.cpp:122] Setting up res4a
I0920 17:20:23.106220 12587 net.cpp:129] Top shape: 8 1024 14 14 (1605632)
I0920 17:20:23.106221 12587 net.cpp:137] Memory required for data: 1456308256
I0920 17:20:23.106232 12587 layer_factory.hpp:77] Creating layer res4a_relu
I0920 17:20:23.106237 12587 net.cpp:84] Creating Layer res4a_relu
I0920 17:20:23.106240 12587 net.cpp:406] res4a_relu <- res4a
I0920 17:20:23.106252 12587 net.cpp:367] res4a_relu -> res4a (in-place)
I0920 17:20:23.106369 12587 net.cpp:122] Setting up res4a_relu
I0920 17:20:23.106375 12587 net.cpp:129] Top shape: 8 1024 14 14 (1605632)
I0920 17:20:23.106377 12587 net.cpp:137] Memory required for data: 1462730784
I0920 17:20:23.106379 12587 layer_factory.hpp:77] Creating layer res4a_res4a_relu_0_split
I0920 17:20:23.106384 12587 net.cpp:84] Creating Layer res4a_res4a_relu_0_split
I0920 17:20:23.106385 12587 net.cpp:406] res4a_res4a_relu_0_split <- res4a
I0920 17:20:23.106389 12587 net.cpp:380] res4a_res4a_relu_0_split -> res4a_res4a_relu_0_split_0
I0920 17:20:23.106395 12587 net.cpp:380] res4a_res4a_relu_0_split -> res4a_res4a_relu_0_split_1
I0920 17:20:23.106431 12587 net.cpp:122] Setting up res4a_res4a_relu_0_split
I0920 17:20:23.106434 12587 net.cpp:129] Top shape: 8 1024 14 14 (1605632)
I0920 17:20:23.106438 12587 net.cpp:129] Top shape: 8 1024 14 14 (1605632)
I0920 17:20:23.106439 12587 net.cpp:137] Memory required for data: 1475575840
I0920 17:20:23.106441 12587 layer_factory.hpp:77] Creating layer res4b_branch2a
I0920 17:20:23.106462 12587 net.cpp:84] Creating Layer res4b_branch2a
I0920 17:20:23.106464 12587 net.cpp:406] res4b_branch2a <- res4a_res4a_relu_0_split_0
I0920 17:20:23.106467 12587 net.cpp:380] res4b_branch2a -> res4b_branch2a
I0920 17:20:23.107722 12587 net.cpp:122] Setting up res4b_branch2a
I0920 17:20:23.107730 12587 net.cpp:129] Top shape: 8 256 14 14 (401408)
I0920 17:20:23.107733 12587 net.cpp:137] Memory required for data: 1477181472
I0920 17:20:23.107738 12587 layer_factory.hpp:77] Creating layer bn4b_branch2a
I0920 17:20:23.107743 12587 net.cpp:84] Creating Layer bn4b_branch2a
I0920 17:20:23.107745 12587 net.cpp:406] bn4b_branch2a <- res4b_branch2a
I0920 17:20:23.107748 12587 net.cpp:367] bn4b_branch2a -> res4b_branch2a (in-place)
I0920 17:20:23.107890 12587 net.cpp:122] Setting up bn4b_branch2a
I0920 17:20:23.107897 12587 net.cpp:129] Top shape: 8 256 14 14 (401408)
I0920 17:20:23.107898 12587 net.cpp:137] Memory required for data: 1478787104
I0920 17:20:23.107903 12587 layer_factory.hpp:77] Creating layer scale4b_branch2a
I0920 17:20:23.107908 12587 net.cpp:84] Creating Layer scale4b_branch2a
I0920 17:20:23.107909 12587 net.cpp:406] scale4b_branch2a <- res4b_branch2a
I0920 17:20:23.107913 12587 net.cpp:367] scale4b_branch2a -> res4b_branch2a (in-place)
I0920 17:20:23.107940 12587 layer_factory.hpp:77] Creating layer scale4b_branch2a
I0920 17:20:23.108016 12587 net.cpp:122] Setting up scale4b_branch2a
I0920 17:20:23.108021 12587 net.cpp:129] Top shape: 8 256 14 14 (401408)
I0920 17:20:23.108023 12587 net.cpp:137] Memory required for data: 1480392736
I0920 17:20:23.108026 12587 layer_factory.hpp:77] Creating layer res4b_branch2a_relu
I0920 17:20:23.108031 12587 net.cpp:84] Creating Layer res4b_branch2a_relu
I0920 17:20:23.108033 12587 net.cpp:406] res4b_branch2a_relu <- res4b_branch2a
I0920 17:20:23.108036 12587 net.cpp:367] res4b_branch2a_relu -> res4b_branch2a (in-place)
I0920 17:20:23.108151 12587 net.cpp:122] Setting up res4b_branch2a_relu
I0920 17:20:23.108156 12587 net.cpp:129] Top shape: 8 256 14 14 (401408)
I0920 17:20:23.108160 12587 net.cpp:137] Memory required for data: 1481998368
I0920 17:20:23.108161 12587 layer_factory.hpp:77] Creating layer res4b_branch2b
I0920 17:20:23.108167 12587 net.cpp:84] Creating Layer res4b_branch2b
I0920 17:20:23.108170 12587 net.cpp:406] res4b_branch2b <- res4b_branch2a
I0920 17:20:23.108173 12587 net.cpp:380] res4b_branch2b -> res4b_branch2b
I0920 17:20:23.109757 12587 net.cpp:122] Setting up res4b_branch2b
I0920 17:20:23.109767 12587 net.cpp:129] Top shape: 8 256 14 14 (401408)
I0920 17:20:23.109771 12587 net.cpp:137] Memory required for data: 1483604000
I0920 17:20:23.109773 12587 layer_factory.hpp:77] Creating layer bn4b_branch2b
I0920 17:20:23.109778 12587 net.cpp:84] Creating Layer bn4b_branch2b
I0920 17:20:23.109781 12587 net.cpp:406] bn4b_branch2b <- res4b_branch2b
I0920 17:20:23.109784 12587 net.cpp:367] bn4b_branch2b -> res4b_branch2b (in-place)
I0920 17:20:23.109925 12587 net.cpp:122] Setting up bn4b_branch2b
I0920 17:20:23.109930 12587 net.cpp:129] Top shape: 8 256 14 14 (401408)
I0920 17:20:23.109932 12587 net.cpp:137] Memory required for data: 1485209632
I0920 17:20:23.109936 12587 layer_factory.hpp:77] Creating layer scale4b_branch2b
I0920 17:20:23.109941 12587 net.cpp:84] Creating Layer scale4b_branch2b
I0920 17:20:23.109943 12587 net.cpp:406] scale4b_branch2b <- res4b_branch2b
I0920 17:20:23.109958 12587 net.cpp:367] scale4b_branch2b -> res4b_branch2b (in-place)
I0920 17:20:23.109998 12587 layer_factory.hpp:77] Creating layer scale4b_branch2b
I0920 17:20:23.110091 12587 net.cpp:122] Setting up scale4b_branch2b
I0920 17:20:23.110095 12587 net.cpp:129] Top shape: 8 256 14 14 (401408)
I0920 17:20:23.110105 12587 net.cpp:137] Memory required for data: 1486815264
I0920 17:20:23.110110 12587 layer_factory.hpp:77] Creating layer res4b_branch2b_relu
I0920 17:20:23.110124 12587 net.cpp:84] Creating Layer res4b_branch2b_relu
I0920 17:20:23.110127 12587 net.cpp:406] res4b_branch2b_relu <- res4b_branch2b
I0920 17:20:23.110131 12587 net.cpp:367] res4b_branch2b_relu -> res4b_branch2b (in-place)
I0920 17:20:23.110452 12587 net.cpp:122] Setting up res4b_branch2b_relu
I0920 17:20:23.110460 12587 net.cpp:129] Top shape: 8 256 14 14 (401408)
I0920 17:20:23.110462 12587 net.cpp:137] Memory required for data: 1488420896
I0920 17:20:23.110465 12587 layer_factory.hpp:77] Creating layer res4b_branch2c
I0920 17:20:23.110469 12587 net.cpp:84] Creating Layer res4b_branch2c
I0920 17:20:23.110472 12587 net.cpp:406] res4b_branch2c <- res4b_branch2b
I0920 17:20:23.110476 12587 net.cpp:380] res4b_branch2c -> res4b_branch2c
I0920 17:20:23.111716 12587 net.cpp:122] Setting up res4b_branch2c
I0920 17:20:23.111726 12587 net.cpp:129] Top shape: 8 1024 14 14 (1605632)
I0920 17:20:23.111728 12587 net.cpp:137] Memory required for data: 1494843424
I0920 17:20:23.111732 12587 layer_factory.hpp:77] Creating layer bn4b_branch2c
I0920 17:20:23.111735 12587 net.cpp:84] Creating Layer bn4b_branch2c
I0920 17:20:23.111738 12587 net.cpp:406] bn4b_branch2c <- res4b_branch2c
I0920 17:20:23.111742 12587 net.cpp:367] bn4b_branch2c -> res4b_branch2c (in-place)
I0920 17:20:23.111884 12587 net.cpp:122] Setting up bn4b_branch2c
I0920 17:20:23.111889 12587 net.cpp:129] Top shape: 8 1024 14 14 (1605632)
I0920 17:20:23.111891 12587 net.cpp:137] Memory required for data: 1501265952
I0920 17:20:23.111896 12587 layer_factory.hpp:77] Creating layer scale4b_branch2c
I0920 17:20:23.111899 12587 net.cpp:84] Creating Layer scale4b_branch2c
I0920 17:20:23.111902 12587 net.cpp:406] scale4b_branch2c <- res4b_branch2c
I0920 17:20:23.111905 12587 net.cpp:367] scale4b_branch2c -> res4b_branch2c (in-place)
I0920 17:20:23.111940 12587 layer_factory.hpp:77] Creating layer scale4b_branch2c
I0920 17:20:23.112015 12587 net.cpp:122] Setting up scale4b_branch2c
I0920 17:20:23.112020 12587 net.cpp:129] Top shape: 8 1024 14 14 (1605632)
I0920 17:20:23.112022 12587 net.cpp:137] Memory required for data: 1507688480
I0920 17:20:23.112025 12587 layer_factory.hpp:77] Creating layer res4b
I0920 17:20:23.112030 12587 net.cpp:84] Creating Layer res4b
I0920 17:20:23.112041 12587 net.cpp:406] res4b <- res4a_res4a_relu_0_split_1
I0920 17:20:23.112043 12587 net.cpp:406] res4b <- res4b_branch2c
I0920 17:20:23.112049 12587 net.cpp:380] res4b -> res4b
I0920 17:20:23.112076 12587 net.cpp:122] Setting up res4b
I0920 17:20:23.112079 12587 net.cpp:129] Top shape: 8 1024 14 14 (1605632)
I0920 17:20:23.112082 12587 net.cpp:137] Memory required for data: 1514111008
I0920 17:20:23.112084 12587 layer_factory.hpp:77] Creating layer res4b_relu
I0920 17:20:23.112087 12587 net.cpp:84] Creating Layer res4b_relu
I0920 17:20:23.112090 12587 net.cpp:406] res4b_relu <- res4b
I0920 17:20:23.112102 12587 net.cpp:367] res4b_relu -> res4b (in-place)
I0920 17:20:23.112224 12587 net.cpp:122] Setting up res4b_relu
I0920 17:20:23.112231 12587 net.cpp:129] Top shape: 8 1024 14 14 (1605632)
I0920 17:20:23.112232 12587 net.cpp:137] Memory required for data: 1520533536
I0920 17:20:23.112234 12587 layer_factory.hpp:77] Creating layer res4b_res4b_relu_0_split
I0920 17:20:23.112237 12587 net.cpp:84] Creating Layer res4b_res4b_relu_0_split
I0920 17:20:23.112241 12587 net.cpp:406] res4b_res4b_relu_0_split <- res4b
I0920 17:20:23.112253 12587 net.cpp:380] res4b_res4b_relu_0_split -> res4b_res4b_relu_0_split_0
I0920 17:20:23.112258 12587 net.cpp:380] res4b_res4b_relu_0_split -> res4b_res4b_relu_0_split_1
I0920 17:20:23.112298 12587 net.cpp:122] Setting up res4b_res4b_relu_0_split
I0920 17:20:23.112301 12587 net.cpp:129] Top shape: 8 1024 14 14 (1605632)
I0920 17:20:23.112304 12587 net.cpp:129] Top shape: 8 1024 14 14 (1605632)
I0920 17:20:23.112306 12587 net.cpp:137] Memory required for data: 1533378592
I0920 17:20:23.112324 12587 layer_factory.hpp:77] Creating layer res4c_branch2a
I0920 17:20:23.112329 12587 net.cpp:84] Creating Layer res4c_branch2a
I0920 17:20:23.112331 12587 net.cpp:406] res4c_branch2a <- res4b_res4b_relu_0_split_0
I0920 17:20:23.112335 12587 net.cpp:380] res4c_branch2a -> res4c_branch2a
I0920 17:20:23.113579 12587 net.cpp:122] Setting up res4c_branch2a
I0920 17:20:23.113587 12587 net.cpp:129] Top shape: 8 256 14 14 (401408)
I0920 17:20:23.113590 12587 net.cpp:137] Memory required for data: 1534984224
I0920 17:20:23.113593 12587 layer_factory.hpp:77] Creating layer bn4c_branch2a
I0920 17:20:23.113597 12587 net.cpp:84] Creating Layer bn4c_branch2a
I0920 17:20:23.113600 12587 net.cpp:406] bn4c_branch2a <- res4c_branch2a
I0920 17:20:23.113605 12587 net.cpp:367] bn4c_branch2a -> res4c_branch2a (in-place)
I0920 17:20:23.113749 12587 net.cpp:122] Setting up bn4c_branch2a
I0920 17:20:23.113752 12587 net.cpp:129] Top shape: 8 256 14 14 (401408)
I0920 17:20:23.113754 12587 net.cpp:137] Memory required for data: 1536589856
I0920 17:20:23.113759 12587 layer_factory.hpp:77] Creating layer scale4c_branch2a
I0920 17:20:23.113764 12587 net.cpp:84] Creating Layer scale4c_branch2a
I0920 17:20:23.113765 12587 net.cpp:406] scale4c_branch2a <- res4c_branch2a
I0920 17:20:23.113768 12587 net.cpp:367] scale4c_branch2a -> res4c_branch2a (in-place)
I0920 17:20:23.113797 12587 layer_factory.hpp:77] Creating layer scale4c_branch2a
I0920 17:20:23.113875 12587 net.cpp:122] Setting up scale4c_branch2a
I0920 17:20:23.113879 12587 net.cpp:129] Top shape: 8 256 14 14 (401408)
I0920 17:20:23.113883 12587 net.cpp:137] Memory required for data: 1538195488
I0920 17:20:23.113885 12587 layer_factory.hpp:77] Creating layer res4c_branch2a_relu
I0920 17:20:23.113889 12587 net.cpp:84] Creating Layer res4c_branch2a_relu
I0920 17:20:23.113891 12587 net.cpp:406] res4c_branch2a_relu <- res4c_branch2a
I0920 17:20:23.113894 12587 net.cpp:367] res4c_branch2a_relu -> res4c_branch2a (in-place)
I0920 17:20:23.114012 12587 net.cpp:122] Setting up res4c_branch2a_relu
I0920 17:20:23.114017 12587 net.cpp:129] Top shape: 8 256 14 14 (401408)
I0920 17:20:23.114019 12587 net.cpp:137] Memory required for data: 1539801120
I0920 17:20:23.114022 12587 layer_factory.hpp:77] Creating layer res4c_branch2b
I0920 17:20:23.114027 12587 net.cpp:84] Creating Layer res4c_branch2b
I0920 17:20:23.114029 12587 net.cpp:406] res4c_branch2b <- res4c_branch2a
I0920 17:20:23.114032 12587 net.cpp:380] res4c_branch2b -> res4c_branch2b
I0920 17:20:23.115802 12587 net.cpp:122] Setting up res4c_branch2b
I0920 17:20:23.115810 12587 net.cpp:129] Top shape: 8 256 14 14 (401408)
I0920 17:20:23.115813 12587 net.cpp:137] Memory required for data: 1541406752
I0920 17:20:23.115816 12587 layer_factory.hpp:77] Creating layer bn4c_branch2b
I0920 17:20:23.115821 12587 net.cpp:84] Creating Layer bn4c_branch2b
I0920 17:20:23.115824 12587 net.cpp:406] bn4c_branch2b <- res4c_branch2b
I0920 17:20:23.115828 12587 net.cpp:367] bn4c_branch2b -> res4c_branch2b (in-place)
I0920 17:20:23.115975 12587 net.cpp:122] Setting up bn4c_branch2b
I0920 17:20:23.115980 12587 net.cpp:129] Top shape: 8 256 14 14 (401408)
I0920 17:20:23.115983 12587 net.cpp:137] Memory required for data: 1543012384
I0920 17:20:23.115986 12587 layer_factory.hpp:77] Creating layer scale4c_branch2b
I0920 17:20:23.115990 12587 net.cpp:84] Creating Layer scale4c_branch2b
I0920 17:20:23.116003 12587 net.cpp:406] scale4c_branch2b <- res4c_branch2b
I0920 17:20:23.116008 12587 net.cpp:367] scale4c_branch2b -> res4c_branch2b (in-place)
I0920 17:20:23.116047 12587 layer_factory.hpp:77] Creating layer scale4c_branch2b
I0920 17:20:23.116143 12587 net.cpp:122] Setting up scale4c_branch2b
I0920 17:20:23.116147 12587 net.cpp:129] Top shape: 8 256 14 14 (401408)
I0920 17:20:23.116149 12587 net.cpp:137] Memory required for data: 1544618016
I0920 17:20:23.116163 12587 layer_factory.hpp:77] Creating layer res4c_branch2b_relu
I0920 17:20:23.116166 12587 net.cpp:84] Creating Layer res4c_branch2b_relu
I0920 17:20:23.116168 12587 net.cpp:406] res4c_branch2b_relu <- res4c_branch2b
I0920 17:20:23.116179 12587 net.cpp:367] res4c_branch2b_relu -> res4c_branch2b (in-place)
I0920 17:20:23.116524 12587 net.cpp:122] Setting up res4c_branch2b_relu
I0920 17:20:23.116531 12587 net.cpp:129] Top shape: 8 256 14 14 (401408)
I0920 17:20:23.116533 12587 net.cpp:137] Memory required for data: 1546223648
I0920 17:20:23.116535 12587 layer_factory.hpp:77] Creating layer res4c_branch2c
I0920 17:20:23.116542 12587 net.cpp:84] Creating Layer res4c_branch2c
I0920 17:20:23.116545 12587 net.cpp:406] res4c_branch2c <- res4c_branch2b
I0920 17:20:23.116549 12587 net.cpp:380] res4c_branch2c -> res4c_branch2c
I0920 17:20:23.117772 12587 net.cpp:122] Setting up res4c_branch2c
I0920 17:20:23.117781 12587 net.cpp:129] Top shape: 8 1024 14 14 (1605632)
I0920 17:20:23.117784 12587 net.cpp:137] Memory required for data: 1552646176
I0920 17:20:23.117786 12587 layer_factory.hpp:77] Creating layer bn4c_branch2c
I0920 17:20:23.117790 12587 net.cpp:84] Creating Layer bn4c_branch2c
I0920 17:20:23.117792 12587 net.cpp:406] bn4c_branch2c <- res4c_branch2c
I0920 17:20:23.117795 12587 net.cpp:367] bn4c_branch2c -> res4c_branch2c (in-place)
I0920 17:20:23.117935 12587 net.cpp:122] Setting up bn4c_branch2c
I0920 17:20:23.117940 12587 net.cpp:129] Top shape: 8 1024 14 14 (1605632)
I0920 17:20:23.117941 12587 net.cpp:137] Memory required for data: 1559068704
I0920 17:20:23.117945 12587 layer_factory.hpp:77] Creating layer scale4c_branch2c
I0920 17:20:23.117949 12587 net.cpp:84] Creating Layer scale4c_branch2c
I0920 17:20:23.117951 12587 net.cpp:406] scale4c_branch2c <- res4c_branch2c
I0920 17:20:23.117954 12587 net.cpp:367] scale4c_branch2c -> res4c_branch2c (in-place)
I0920 17:20:23.117980 12587 layer_factory.hpp:77] Creating layer scale4c_branch2c
I0920 17:20:23.118057 12587 net.cpp:122] Setting up scale4c_branch2c
I0920 17:20:23.118062 12587 net.cpp:129] Top shape: 8 1024 14 14 (1605632)
I0920 17:20:23.118062 12587 net.cpp:137] Memory required for data: 1565491232
I0920 17:20:23.118065 12587 layer_factory.hpp:77] Creating layer res4c
I0920 17:20:23.118069 12587 net.cpp:84] Creating Layer res4c
I0920 17:20:23.118072 12587 net.cpp:406] res4c <- res4b_res4b_relu_0_split_1
I0920 17:20:23.118074 12587 net.cpp:406] res4c <- res4c_branch2c
I0920 17:20:23.118077 12587 net.cpp:380] res4c -> res4c
I0920 17:20:23.118094 12587 net.cpp:122] Setting up res4c
I0920 17:20:23.118098 12587 net.cpp:129] Top shape: 8 1024 14 14 (1605632)
I0920 17:20:23.118100 12587 net.cpp:137] Memory required for data: 1571913760
I0920 17:20:23.118103 12587 layer_factory.hpp:77] Creating layer res4c_relu
I0920 17:20:23.118105 12587 net.cpp:84] Creating Layer res4c_relu
I0920 17:20:23.118106 12587 net.cpp:406] res4c_relu <- res4c
I0920 17:20:23.118109 12587 net.cpp:367] res4c_relu -> res4c (in-place)
I0920 17:20:23.118243 12587 net.cpp:122] Setting up res4c_relu
I0920 17:20:23.118250 12587 net.cpp:129] Top shape: 8 1024 14 14 (1605632)
I0920 17:20:23.118252 12587 net.cpp:137] Memory required for data: 1578336288
I0920 17:20:23.118264 12587 layer_factory.hpp:77] Creating layer res4c_res4c_relu_0_split
I0920 17:20:23.118268 12587 net.cpp:84] Creating Layer res4c_res4c_relu_0_split
I0920 17:20:23.118270 12587 net.cpp:406] res4c_res4c_relu_0_split <- res4c
I0920 17:20:23.118273 12587 net.cpp:380] res4c_res4c_relu_0_split -> res4c_res4c_relu_0_split_0
I0920 17:20:23.118288 12587 net.cpp:380] res4c_res4c_relu_0_split -> res4c_res4c_relu_0_split_1
I0920 17:20:23.118316 12587 net.cpp:122] Setting up res4c_res4c_relu_0_split
I0920 17:20:23.118320 12587 net.cpp:129] Top shape: 8 1024 14 14 (1605632)
I0920 17:20:23.118324 12587 net.cpp:129] Top shape: 8 1024 14 14 (1605632)
I0920 17:20:23.118324 12587 net.cpp:137] Memory required for data: 1591181344
I0920 17:20:23.118326 12587 layer_factory.hpp:77] Creating layer res4d_branch2a
I0920 17:20:23.118331 12587 net.cpp:84] Creating Layer res4d_branch2a
I0920 17:20:23.118335 12587 net.cpp:406] res4d_branch2a <- res4c_res4c_relu_0_split_0
I0920 17:20:23.118338 12587 net.cpp:380] res4d_branch2a -> res4d_branch2a
I0920 17:20:23.119557 12587 net.cpp:122] Setting up res4d_branch2a
I0920 17:20:23.119565 12587 net.cpp:129] Top shape: 8 256 14 14 (401408)
I0920 17:20:23.119567 12587 net.cpp:137] Memory required for data: 1592786976
I0920 17:20:23.119571 12587 layer_factory.hpp:77] Creating layer bn4d_branch2a
I0920 17:20:23.119575 12587 net.cpp:84] Creating Layer bn4d_branch2a
I0920 17:20:23.119577 12587 net.cpp:406] bn4d_branch2a <- res4d_branch2a
I0920 17:20:23.119580 12587 net.cpp:367] bn4d_branch2a -> res4d_branch2a (in-place)
I0920 17:20:23.119716 12587 net.cpp:122] Setting up bn4d_branch2a
I0920 17:20:23.119720 12587 net.cpp:129] Top shape: 8 256 14 14 (401408)
I0920 17:20:23.119722 12587 net.cpp:137] Memory required for data: 1594392608
I0920 17:20:23.119726 12587 layer_factory.hpp:77] Creating layer scale4d_branch2a
I0920 17:20:23.119730 12587 net.cpp:84] Creating Layer scale4d_branch2a
I0920 17:20:23.119732 12587 net.cpp:406] scale4d_branch2a <- res4d_branch2a
I0920 17:20:23.119735 12587 net.cpp:367] scale4d_branch2a -> res4d_branch2a (in-place)
I0920 17:20:23.119762 12587 layer_factory.hpp:77] Creating layer scale4d_branch2a
I0920 17:20:23.119838 12587 net.cpp:122] Setting up scale4d_branch2a
I0920 17:20:23.119843 12587 net.cpp:129] Top shape: 8 256 14 14 (401408)
I0920 17:20:23.119844 12587 net.cpp:137] Memory required for data: 1595998240
I0920 17:20:23.119848 12587 layer_factory.hpp:77] Creating layer res4d_branch2a_relu
I0920 17:20:23.119850 12587 net.cpp:84] Creating Layer res4d_branch2a_relu
I0920 17:20:23.119853 12587 net.cpp:406] res4d_branch2a_relu <- res4d_branch2a
I0920 17:20:23.119854 12587 net.cpp:367] res4d_branch2a_relu -> res4d_branch2a (in-place)
I0920 17:20:23.119966 12587 net.cpp:122] Setting up res4d_branch2a_relu
I0920 17:20:23.119971 12587 net.cpp:129] Top shape: 8 256 14 14 (401408)
I0920 17:20:23.119972 12587 net.cpp:137] Memory required for data: 1597603872
I0920 17:20:23.119974 12587 layer_factory.hpp:77] Creating layer res4d_branch2b
I0920 17:20:23.119978 12587 net.cpp:84] Creating Layer res4d_branch2b
I0920 17:20:23.119981 12587 net.cpp:406] res4d_branch2b <- res4d_branch2a
I0920 17:20:23.119984 12587 net.cpp:380] res4d_branch2b -> res4d_branch2b
I0920 17:20:23.121536 12587 net.cpp:122] Setting up res4d_branch2b
I0920 17:20:23.121546 12587 net.cpp:129] Top shape: 8 256 14 14 (401408)
I0920 17:20:23.121548 12587 net.cpp:137] Memory required for data: 1599209504
I0920 17:20:23.121552 12587 layer_factory.hpp:77] Creating layer bn4d_branch2b
I0920 17:20:23.121556 12587 net.cpp:84] Creating Layer bn4d_branch2b
I0920 17:20:23.121557 12587 net.cpp:406] bn4d_branch2b <- res4d_branch2b
I0920 17:20:23.121562 12587 net.cpp:367] bn4d_branch2b -> res4d_branch2b (in-place)
I0920 17:20:23.121698 12587 net.cpp:122] Setting up bn4d_branch2b
I0920 17:20:23.121702 12587 net.cpp:129] Top shape: 8 256 14 14 (401408)
I0920 17:20:23.121704 12587 net.cpp:137] Memory required for data: 1600815136
I0920 17:20:23.121708 12587 layer_factory.hpp:77] Creating layer scale4d_branch2b
I0920 17:20:23.121712 12587 net.cpp:84] Creating Layer scale4d_branch2b
I0920 17:20:23.121714 12587 net.cpp:406] scale4d_branch2b <- res4d_branch2b
I0920 17:20:23.121717 12587 net.cpp:367] scale4d_branch2b -> res4d_branch2b (in-place)
I0920 17:20:23.121786 12587 layer_factory.hpp:77] Creating layer scale4d_branch2b
I0920 17:20:23.121892 12587 net.cpp:122] Setting up scale4d_branch2b
I0920 17:20:23.121898 12587 net.cpp:129] Top shape: 8 256 14 14 (401408)
I0920 17:20:23.121901 12587 net.cpp:137] Memory required for data: 1602420768
I0920 17:20:23.121906 12587 layer_factory.hpp:77] Creating layer res4d_branch2b_relu
I0920 17:20:23.121911 12587 net.cpp:84] Creating Layer res4d_branch2b_relu
I0920 17:20:23.121912 12587 net.cpp:406] res4d_branch2b_relu <- res4d_branch2b
I0920 17:20:23.121918 12587 net.cpp:367] res4d_branch2b_relu -> res4d_branch2b (in-place)
I0920 17:20:23.122318 12587 net.cpp:122] Setting up res4d_branch2b_relu
I0920 17:20:23.122328 12587 net.cpp:129] Top shape: 8 256 14 14 (401408)
I0920 17:20:23.122339 12587 net.cpp:137] Memory required for data: 1604026400
I0920 17:20:23.122350 12587 layer_factory.hpp:77] Creating layer res4d_branch2c
I0920 17:20:23.122357 12587 net.cpp:84] Creating Layer res4d_branch2c
I0920 17:20:23.122360 12587 net.cpp:406] res4d_branch2c <- res4d_branch2b
I0920 17:20:23.122364 12587 net.cpp:380] res4d_branch2c -> res4d_branch2c
I0920 17:20:23.123654 12587 net.cpp:122] Setting up res4d_branch2c
I0920 17:20:23.123662 12587 net.cpp:129] Top shape: 8 1024 14 14 (1605632)
I0920 17:20:23.123664 12587 net.cpp:137] Memory required for data: 1610448928
I0920 17:20:23.123667 12587 layer_factory.hpp:77] Creating layer bn4d_branch2c
I0920 17:20:23.123672 12587 net.cpp:84] Creating Layer bn4d_branch2c
I0920 17:20:23.123674 12587 net.cpp:406] bn4d_branch2c <- res4d_branch2c
I0920 17:20:23.123688 12587 net.cpp:367] bn4d_branch2c -> res4d_branch2c (in-place)
I0920 17:20:23.123859 12587 net.cpp:122] Setting up bn4d_branch2c
I0920 17:20:23.123867 12587 net.cpp:129] Top shape: 8 1024 14 14 (1605632)
I0920 17:20:23.123869 12587 net.cpp:137] Memory required for data: 1616871456
I0920 17:20:23.123875 12587 layer_factory.hpp:77] Creating layer scale4d_branch2c
I0920 17:20:23.123896 12587 net.cpp:84] Creating Layer scale4d_branch2c
I0920 17:20:23.123901 12587 net.cpp:406] scale4d_branch2c <- res4d_branch2c
I0920 17:20:23.123915 12587 net.cpp:367] scale4d_branch2c -> res4d_branch2c (in-place)
I0920 17:20:23.123958 12587 layer_factory.hpp:77] Creating layer scale4d_branch2c
I0920 17:20:23.124079 12587 net.cpp:122] Setting up scale4d_branch2c
I0920 17:20:23.124086 12587 net.cpp:129] Top shape: 8 1024 14 14 (1605632)
I0920 17:20:23.124099 12587 net.cpp:137] Memory required for data: 1623293984
I0920 17:20:23.124104 12587 layer_factory.hpp:77] Creating layer res4d
I0920 17:20:23.124110 12587 net.cpp:84] Creating Layer res4d
I0920 17:20:23.124114 12587 net.cpp:406] res4d <- res4c_res4c_relu_0_split_1
I0920 17:20:23.124119 12587 net.cpp:406] res4d <- res4d_branch2c
I0920 17:20:23.124124 12587 net.cpp:380] res4d -> res4d
I0920 17:20:23.124152 12587 net.cpp:122] Setting up res4d
I0920 17:20:23.124159 12587 net.cpp:129] Top shape: 8 1024 14 14 (1605632)
I0920 17:20:23.124162 12587 net.cpp:137] Memory required for data: 1629716512
I0920 17:20:23.124166 12587 layer_factory.hpp:77] Creating layer res4d_relu
I0920 17:20:23.124169 12587 net.cpp:84] Creating Layer res4d_relu
I0920 17:20:23.124173 12587 net.cpp:406] res4d_relu <- res4d
I0920 17:20:23.124177 12587 net.cpp:367] res4d_relu -> res4d (in-place)
I0920 17:20:23.124339 12587 net.cpp:122] Setting up res4d_relu
I0920 17:20:23.124349 12587 net.cpp:129] Top shape: 8 1024 14 14 (1605632)
I0920 17:20:23.124352 12587 net.cpp:137] Memory required for data: 1636139040
I0920 17:20:23.124356 12587 layer_factory.hpp:77] Creating layer res4d_res4d_relu_0_split
I0920 17:20:23.124361 12587 net.cpp:84] Creating Layer res4d_res4d_relu_0_split
I0920 17:20:23.124366 12587 net.cpp:406] res4d_res4d_relu_0_split <- res4d
I0920 17:20:23.124372 12587 net.cpp:380] res4d_res4d_relu_0_split -> res4d_res4d_relu_0_split_0
I0920 17:20:23.124379 12587 net.cpp:380] res4d_res4d_relu_0_split -> res4d_res4d_relu_0_split_1
I0920 17:20:23.124425 12587 net.cpp:122] Setting up res4d_res4d_relu_0_split
I0920 17:20:23.124433 12587 net.cpp:129] Top shape: 8 1024 14 14 (1605632)
I0920 17:20:23.124439 12587 net.cpp:129] Top shape: 8 1024 14 14 (1605632)
I0920 17:20:23.124441 12587 net.cpp:137] Memory required for data: 1648984096
I0920 17:20:23.124445 12587 layer_factory.hpp:77] Creating layer res4e_branch2a
I0920 17:20:23.124455 12587 net.cpp:84] Creating Layer res4e_branch2a
I0920 17:20:23.124461 12587 net.cpp:406] res4e_branch2a <- res4d_res4d_relu_0_split_0
I0920 17:20:23.124467 12587 net.cpp:380] res4e_branch2a -> res4e_branch2a
I0920 17:20:23.125751 12587 net.cpp:122] Setting up res4e_branch2a
I0920 17:20:23.125761 12587 net.cpp:129] Top shape: 8 256 14 14 (401408)
I0920 17:20:23.125762 12587 net.cpp:137] Memory required for data: 1650589728
I0920 17:20:23.125766 12587 layer_factory.hpp:77] Creating layer bn4e_branch2a
I0920 17:20:23.125772 12587 net.cpp:84] Creating Layer bn4e_branch2a
I0920 17:20:23.125783 12587 net.cpp:406] bn4e_branch2a <- res4e_branch2a
I0920 17:20:23.125787 12587 net.cpp:367] bn4e_branch2a -> res4e_branch2a (in-place)
I0920 17:20:23.125934 12587 net.cpp:122] Setting up bn4e_branch2a
I0920 17:20:23.125939 12587 net.cpp:129] Top shape: 8 256 14 14 (401408)
I0920 17:20:23.125942 12587 net.cpp:137] Memory required for data: 1652195360
I0920 17:20:23.125946 12587 layer_factory.hpp:77] Creating layer scale4e_branch2a
I0920 17:20:23.125950 12587 net.cpp:84] Creating Layer scale4e_branch2a
I0920 17:20:23.125953 12587 net.cpp:406] scale4e_branch2a <- res4e_branch2a
I0920 17:20:23.125957 12587 net.cpp:367] scale4e_branch2a -> res4e_branch2a (in-place)
I0920 17:20:23.125986 12587 layer_factory.hpp:77] Creating layer scale4e_branch2a
I0920 17:20:23.126067 12587 net.cpp:122] Setting up scale4e_branch2a
I0920 17:20:23.126072 12587 net.cpp:129] Top shape: 8 256 14 14 (401408)
I0920 17:20:23.126075 12587 net.cpp:137] Memory required for data: 1653800992
I0920 17:20:23.126077 12587 layer_factory.hpp:77] Creating layer res4e_branch2a_relu
I0920 17:20:23.126081 12587 net.cpp:84] Creating Layer res4e_branch2a_relu
I0920 17:20:23.126085 12587 net.cpp:406] res4e_branch2a_relu <- res4e_branch2a
I0920 17:20:23.126086 12587 net.cpp:367] res4e_branch2a_relu -> res4e_branch2a (in-place)
I0920 17:20:23.126205 12587 net.cpp:122] Setting up res4e_branch2a_relu
I0920 17:20:23.126211 12587 net.cpp:129] Top shape: 8 256 14 14 (401408)
I0920 17:20:23.126214 12587 net.cpp:137] Memory required for data: 1655406624
I0920 17:20:23.126216 12587 layer_factory.hpp:77] Creating layer res4e_branch2b
I0920 17:20:23.126220 12587 net.cpp:84] Creating Layer res4e_branch2b
I0920 17:20:23.126222 12587 net.cpp:406] res4e_branch2b <- res4e_branch2a
I0920 17:20:23.126227 12587 net.cpp:380] res4e_branch2b -> res4e_branch2b
I0920 17:20:23.127787 12587 net.cpp:122] Setting up res4e_branch2b
I0920 17:20:23.127796 12587 net.cpp:129] Top shape: 8 256 14 14 (401408)
I0920 17:20:23.127799 12587 net.cpp:137] Memory required for data: 1657012256
I0920 17:20:23.127802 12587 layer_factory.hpp:77] Creating layer bn4e_branch2b
I0920 17:20:23.127807 12587 net.cpp:84] Creating Layer bn4e_branch2b
I0920 17:20:23.127810 12587 net.cpp:406] bn4e_branch2b <- res4e_branch2b
I0920 17:20:23.127813 12587 net.cpp:367] bn4e_branch2b -> res4e_branch2b (in-place)
I0920 17:20:23.127979 12587 net.cpp:122] Setting up bn4e_branch2b
I0920 17:20:23.127985 12587 net.cpp:129] Top shape: 8 256 14 14 (401408)
I0920 17:20:23.127987 12587 net.cpp:137] Memory required for data: 1658617888
I0920 17:20:23.127991 12587 layer_factory.hpp:77] Creating layer scale4e_branch2b
I0920 17:20:23.127995 12587 net.cpp:84] Creating Layer scale4e_branch2b
I0920 17:20:23.127997 12587 net.cpp:406] scale4e_branch2b <- res4e_branch2b
I0920 17:20:23.128000 12587 net.cpp:367] scale4e_branch2b -> res4e_branch2b (in-place)
I0920 17:20:23.128031 12587 layer_factory.hpp:77] Creating layer scale4e_branch2b
I0920 17:20:23.128113 12587 net.cpp:122] Setting up scale4e_branch2b
I0920 17:20:23.128118 12587 net.cpp:129] Top shape: 8 256 14 14 (401408)
I0920 17:20:23.128120 12587 net.cpp:137] Memory required for data: 1660223520
I0920 17:20:23.128124 12587 layer_factory.hpp:77] Creating layer res4e_branch2b_relu
I0920 17:20:23.128129 12587 net.cpp:84] Creating Layer res4e_branch2b_relu
I0920 17:20:23.128130 12587 net.cpp:406] res4e_branch2b_relu <- res4e_branch2b
I0920 17:20:23.128134 12587 net.cpp:367] res4e_branch2b_relu -> res4e_branch2b (in-place)
I0920 17:20:23.128458 12587 net.cpp:122] Setting up res4e_branch2b_relu
I0920 17:20:23.128466 12587 net.cpp:129] Top shape: 8 256 14 14 (401408)
I0920 17:20:23.128469 12587 net.cpp:137] Memory required for data: 1661829152
I0920 17:20:23.128471 12587 layer_factory.hpp:77] Creating layer res4e_branch2c
I0920 17:20:23.128476 12587 net.cpp:84] Creating Layer res4e_branch2c
I0920 17:20:23.128479 12587 net.cpp:406] res4e_branch2c <- res4e_branch2b
I0920 17:20:23.128484 12587 net.cpp:380] res4e_branch2c -> res4e_branch2c
I0920 17:20:23.129758 12587 net.cpp:122] Setting up res4e_branch2c
I0920 17:20:23.129767 12587 net.cpp:129] Top shape: 8 1024 14 14 (1605632)
I0920 17:20:23.129770 12587 net.cpp:137] Memory required for data: 1668251680
I0920 17:20:23.129772 12587 layer_factory.hpp:77] Creating layer bn4e_branch2c
I0920 17:20:23.129778 12587 net.cpp:84] Creating Layer bn4e_branch2c
I0920 17:20:23.129781 12587 net.cpp:406] bn4e_branch2c <- res4e_branch2c
I0920 17:20:23.129784 12587 net.cpp:367] bn4e_branch2c -> res4e_branch2c (in-place)
I0920 17:20:23.129936 12587 net.cpp:122] Setting up bn4e_branch2c
I0920 17:20:23.129942 12587 net.cpp:129] Top shape: 8 1024 14 14 (1605632)
I0920 17:20:23.129945 12587 net.cpp:137] Memory required for data: 1674674208
I0920 17:20:23.129948 12587 layer_factory.hpp:77] Creating layer scale4e_branch2c
I0920 17:20:23.129952 12587 net.cpp:84] Creating Layer scale4e_branch2c
I0920 17:20:23.129956 12587 net.cpp:406] scale4e_branch2c <- res4e_branch2c
I0920 17:20:23.129958 12587 net.cpp:367] scale4e_branch2c -> res4e_branch2c (in-place)
I0920 17:20:23.129987 12587 layer_factory.hpp:77] Creating layer scale4e_branch2c
I0920 17:20:23.130071 12587 net.cpp:122] Setting up scale4e_branch2c
I0920 17:20:23.130076 12587 net.cpp:129] Top shape: 8 1024 14 14 (1605632)
I0920 17:20:23.130079 12587 net.cpp:137] Memory required for data: 1681096736
I0920 17:20:23.130081 12587 layer_factory.hpp:77] Creating layer res4e
I0920 17:20:23.130086 12587 net.cpp:84] Creating Layer res4e
I0920 17:20:23.130089 12587 net.cpp:406] res4e <- res4d_res4d_relu_0_split_1
I0920 17:20:23.130092 12587 net.cpp:406] res4e <- res4e_branch2c
I0920 17:20:23.130095 12587 net.cpp:380] res4e -> res4e
I0920 17:20:23.130115 12587 net.cpp:122] Setting up res4e
I0920 17:20:23.130118 12587 net.cpp:129] Top shape: 8 1024 14 14 (1605632)
I0920 17:20:23.130120 12587 net.cpp:137] Memory required for data: 1687519264
I0920 17:20:23.130122 12587 layer_factory.hpp:77] Creating layer res4e_relu
I0920 17:20:23.130125 12587 net.cpp:84] Creating Layer res4e_relu
I0920 17:20:23.130127 12587 net.cpp:406] res4e_relu <- res4e
I0920 17:20:23.130131 12587 net.cpp:367] res4e_relu -> res4e (in-place)
I0920 17:20:23.130250 12587 net.cpp:122] Setting up res4e_relu
I0920 17:20:23.130256 12587 net.cpp:129] Top shape: 8 1024 14 14 (1605632)
I0920 17:20:23.130259 12587 net.cpp:137] Memory required for data: 1693941792
I0920 17:20:23.130260 12587 layer_factory.hpp:77] Creating layer res4e_res4e_relu_0_split
I0920 17:20:23.130264 12587 net.cpp:84] Creating Layer res4e_res4e_relu_0_split
I0920 17:20:23.130266 12587 net.cpp:406] res4e_res4e_relu_0_split <- res4e
I0920 17:20:23.130270 12587 net.cpp:380] res4e_res4e_relu_0_split -> res4e_res4e_relu_0_split_0
I0920 17:20:23.130275 12587 net.cpp:380] res4e_res4e_relu_0_split -> res4e_res4e_relu_0_split_1
I0920 17:20:23.130306 12587 net.cpp:122] Setting up res4e_res4e_relu_0_split
I0920 17:20:23.130311 12587 net.cpp:129] Top shape: 8 1024 14 14 (1605632)
I0920 17:20:23.130313 12587 net.cpp:129] Top shape: 8 1024 14 14 (1605632)
I0920 17:20:23.130316 12587 net.cpp:137] Memory required for data: 1706786848
I0920 17:20:23.130316 12587 layer_factory.hpp:77] Creating layer res4f_branch2a
I0920 17:20:23.130321 12587 net.cpp:84] Creating Layer res4f_branch2a
I0920 17:20:23.130324 12587 net.cpp:406] res4f_branch2a <- res4e_res4e_relu_0_split_0
I0920 17:20:23.130327 12587 net.cpp:380] res4f_branch2a -> res4f_branch2a
I0920 17:20:23.131783 12587 net.cpp:122] Setting up res4f_branch2a
I0920 17:20:23.131790 12587 net.cpp:129] Top shape: 8 256 14 14 (401408)
I0920 17:20:23.131793 12587 net.cpp:137] Memory required for data: 1708392480
I0920 17:20:23.131798 12587 layer_factory.hpp:77] Creating layer bn4f_branch2a
I0920 17:20:23.131801 12587 net.cpp:84] Creating Layer bn4f_branch2a
I0920 17:20:23.131804 12587 net.cpp:406] bn4f_branch2a <- res4f_branch2a
I0920 17:20:23.131808 12587 net.cpp:367] bn4f_branch2a -> res4f_branch2a (in-place)
I0920 17:20:23.131958 12587 net.cpp:122] Setting up bn4f_branch2a
I0920 17:20:23.131963 12587 net.cpp:129] Top shape: 8 256 14 14 (401408)
I0920 17:20:23.131971 12587 net.cpp:137] Memory required for data: 1709998112
I0920 17:20:23.131976 12587 layer_factory.hpp:77] Creating layer scale4f_branch2a
I0920 17:20:23.131980 12587 net.cpp:84] Creating Layer scale4f_branch2a
I0920 17:20:23.131983 12587 net.cpp:406] scale4f_branch2a <- res4f_branch2a
I0920 17:20:23.131986 12587 net.cpp:367] scale4f_branch2a -> res4f_branch2a (in-place)
I0920 17:20:23.132019 12587 layer_factory.hpp:77] Creating layer scale4f_branch2a
I0920 17:20:23.132100 12587 net.cpp:122] Setting up scale4f_branch2a
I0920 17:20:23.132104 12587 net.cpp:129] Top shape: 8 256 14 14 (401408)
I0920 17:20:23.132107 12587 net.cpp:137] Memory required for data: 1711603744
I0920 17:20:23.132109 12587 layer_factory.hpp:77] Creating layer res4f_branch2a_relu
I0920 17:20:23.132114 12587 net.cpp:84] Creating Layer res4f_branch2a_relu
I0920 17:20:23.132117 12587 net.cpp:406] res4f_branch2a_relu <- res4f_branch2a
I0920 17:20:23.132119 12587 net.cpp:367] res4f_branch2a_relu -> res4f_branch2a (in-place)
I0920 17:20:23.132236 12587 net.cpp:122] Setting up res4f_branch2a_relu
I0920 17:20:23.132242 12587 net.cpp:129] Top shape: 8 256 14 14 (401408)
I0920 17:20:23.132244 12587 net.cpp:137] Memory required for data: 1713209376
I0920 17:20:23.132246 12587 layer_factory.hpp:77] Creating layer res4f_branch2b
I0920 17:20:23.132251 12587 net.cpp:84] Creating Layer res4f_branch2b
I0920 17:20:23.132254 12587 net.cpp:406] res4f_branch2b <- res4f_branch2a
I0920 17:20:23.132257 12587 net.cpp:380] res4f_branch2b -> res4f_branch2b
I0920 17:20:23.133846 12587 net.cpp:122] Setting up res4f_branch2b
I0920 17:20:23.133857 12587 net.cpp:129] Top shape: 8 256 14 14 (401408)
I0920 17:20:23.133858 12587 net.cpp:137] Memory required for data: 1714815008
I0920 17:20:23.133862 12587 layer_factory.hpp:77] Creating layer bn4f_branch2b
I0920 17:20:23.133867 12587 net.cpp:84] Creating Layer bn4f_branch2b
I0920 17:20:23.133869 12587 net.cpp:406] bn4f_branch2b <- res4f_branch2b
I0920 17:20:23.133872 12587 net.cpp:367] bn4f_branch2b -> res4f_branch2b (in-place)
I0920 17:20:23.134024 12587 net.cpp:122] Setting up bn4f_branch2b
I0920 17:20:23.134028 12587 net.cpp:129] Top shape: 8 256 14 14 (401408)
I0920 17:20:23.134030 12587 net.cpp:137] Memory required for data: 1716420640
I0920 17:20:23.134034 12587 layer_factory.hpp:77] Creating layer scale4f_branch2b
I0920 17:20:23.134038 12587 net.cpp:84] Creating Layer scale4f_branch2b
I0920 17:20:23.134040 12587 net.cpp:406] scale4f_branch2b <- res4f_branch2b
I0920 17:20:23.134044 12587 net.cpp:367] scale4f_branch2b -> res4f_branch2b (in-place)
I0920 17:20:23.134074 12587 layer_factory.hpp:77] Creating layer scale4f_branch2b
I0920 17:20:23.134160 12587 net.cpp:122] Setting up scale4f_branch2b
I0920 17:20:23.134165 12587 net.cpp:129] Top shape: 8 256 14 14 (401408)
I0920 17:20:23.134166 12587 net.cpp:137] Memory required for data: 1718026272
I0920 17:20:23.134169 12587 layer_factory.hpp:77] Creating layer res4f_branch2b_relu
I0920 17:20:23.134172 12587 net.cpp:84] Creating Layer res4f_branch2b_relu
I0920 17:20:23.134176 12587 net.cpp:406] res4f_branch2b_relu <- res4f_branch2b
I0920 17:20:23.134177 12587 net.cpp:367] res4f_branch2b_relu -> res4f_branch2b (in-place)
I0920 17:20:23.134502 12587 net.cpp:122] Setting up res4f_branch2b_relu
I0920 17:20:23.134510 12587 net.cpp:129] Top shape: 8 256 14 14 (401408)
I0920 17:20:23.134511 12587 net.cpp:137] Memory required for data: 1719631904
I0920 17:20:23.134513 12587 layer_factory.hpp:77] Creating layer res4f_branch2c
I0920 17:20:23.134518 12587 net.cpp:84] Creating Layer res4f_branch2c
I0920 17:20:23.134531 12587 net.cpp:406] res4f_branch2c <- res4f_branch2b
I0920 17:20:23.134536 12587 net.cpp:380] res4f_branch2c -> res4f_branch2c
I0920 17:20:23.135766 12587 net.cpp:122] Setting up res4f_branch2c
I0920 17:20:23.135773 12587 net.cpp:129] Top shape: 8 1024 14 14 (1605632)
I0920 17:20:23.135776 12587 net.cpp:137] Memory required for data: 1726054432
I0920 17:20:23.135778 12587 layer_factory.hpp:77] Creating layer bn4f_branch2c
I0920 17:20:23.135783 12587 net.cpp:84] Creating Layer bn4f_branch2c
I0920 17:20:23.135793 12587 net.cpp:406] bn4f_branch2c <- res4f_branch2c
I0920 17:20:23.135797 12587 net.cpp:367] bn4f_branch2c -> res4f_branch2c (in-place)
I0920 17:20:23.135946 12587 net.cpp:122] Setting up bn4f_branch2c
I0920 17:20:23.135951 12587 net.cpp:129] Top shape: 8 1024 14 14 (1605632)
I0920 17:20:23.135952 12587 net.cpp:137] Memory required for data: 1732476960
I0920 17:20:23.135998 12587 layer_factory.hpp:77] Creating layer scale4f_branch2c
I0920 17:20:23.136001 12587 net.cpp:84] Creating Layer scale4f_branch2c
I0920 17:20:23.136004 12587 net.cpp:406] scale4f_branch2c <- res4f_branch2c
I0920 17:20:23.136018 12587 net.cpp:367] scale4f_branch2c -> res4f_branch2c (in-place)
I0920 17:20:23.136056 12587 layer_factory.hpp:77] Creating layer scale4f_branch2c
I0920 17:20:23.136153 12587 net.cpp:122] Setting up scale4f_branch2c
I0920 17:20:23.136158 12587 net.cpp:129] Top shape: 8 1024 14 14 (1605632)
I0920 17:20:23.136162 12587 net.cpp:137] Memory required for data: 1738899488
I0920 17:20:23.136164 12587 layer_factory.hpp:77] Creating layer res4f
I0920 17:20:23.136168 12587 net.cpp:84] Creating Layer res4f
I0920 17:20:23.136170 12587 net.cpp:406] res4f <- res4e_res4e_relu_0_split_1
I0920 17:20:23.136173 12587 net.cpp:406] res4f <- res4f_branch2c
I0920 17:20:23.136175 12587 net.cpp:380] res4f -> res4f
I0920 17:20:23.136195 12587 net.cpp:122] Setting up res4f
I0920 17:20:23.136199 12587 net.cpp:129] Top shape: 8 1024 14 14 (1605632)
I0920 17:20:23.136201 12587 net.cpp:137] Memory required for data: 1745322016
I0920 17:20:23.136204 12587 layer_factory.hpp:77] Creating layer res4f_relu
I0920 17:20:23.136206 12587 net.cpp:84] Creating Layer res4f_relu
I0920 17:20:23.136209 12587 net.cpp:406] res4f_relu <- res4f
I0920 17:20:23.136211 12587 net.cpp:367] res4f_relu -> res4f (in-place)
I0920 17:20:23.136332 12587 net.cpp:122] Setting up res4f_relu
I0920 17:20:23.136338 12587 net.cpp:129] Top shape: 8 1024 14 14 (1605632)
I0920 17:20:23.136340 12587 net.cpp:137] Memory required for data: 1751744544
I0920 17:20:23.136343 12587 layer_factory.hpp:77] Creating layer res4f_res4f_relu_0_split
I0920 17:20:23.136348 12587 net.cpp:84] Creating Layer res4f_res4f_relu_0_split
I0920 17:20:23.136349 12587 net.cpp:406] res4f_res4f_relu_0_split <- res4f
I0920 17:20:23.136353 12587 net.cpp:380] res4f_res4f_relu_0_split -> res4f_res4f_relu_0_split_0
I0920 17:20:23.136358 12587 net.cpp:380] res4f_res4f_relu_0_split -> res4f_res4f_relu_0_split_1
I0920 17:20:23.136389 12587 net.cpp:122] Setting up res4f_res4f_relu_0_split
I0920 17:20:23.136394 12587 net.cpp:129] Top shape: 8 1024 14 14 (1605632)
I0920 17:20:23.136397 12587 net.cpp:129] Top shape: 8 1024 14 14 (1605632)
I0920 17:20:23.136399 12587 net.cpp:137] Memory required for data: 1764589600
I0920 17:20:23.136400 12587 layer_factory.hpp:77] Creating layer res5a_branch1
I0920 17:20:23.136405 12587 net.cpp:84] Creating Layer res5a_branch1
I0920 17:20:23.136407 12587 net.cpp:406] res5a_branch1 <- res4f_res4f_relu_0_split_0
I0920 17:20:23.136411 12587 net.cpp:380] res5a_branch1 -> res5a_branch1
I0920 17:20:23.140658 12587 net.cpp:122] Setting up res5a_branch1
I0920 17:20:23.140712 12587 net.cpp:129] Top shape: 8 2048 7 7 (802816)
I0920 17:20:23.140714 12587 net.cpp:137] Memory required for data: 1767800864
I0920 17:20:23.140725 12587 layer_factory.hpp:77] Creating layer bn5a_branch1
I0920 17:20:23.140736 12587 net.cpp:84] Creating Layer bn5a_branch1
I0920 17:20:23.140741 12587 net.cpp:406] bn5a_branch1 <- res5a_branch1
I0920 17:20:23.140748 12587 net.cpp:367] bn5a_branch1 -> res5a_branch1 (in-place)
I0920 17:20:23.140928 12587 net.cpp:122] Setting up bn5a_branch1
I0920 17:20:23.140933 12587 net.cpp:129] Top shape: 8 2048 7 7 (802816)
I0920 17:20:23.140934 12587 net.cpp:137] Memory required for data: 1771012128
I0920 17:20:23.140938 12587 layer_factory.hpp:77] Creating layer scale5a_branch1
I0920 17:20:23.140944 12587 net.cpp:84] Creating Layer scale5a_branch1
I0920 17:20:23.140946 12587 net.cpp:406] scale5a_branch1 <- res5a_branch1
I0920 17:20:23.140949 12587 net.cpp:367] scale5a_branch1 -> res5a_branch1 (in-place)
I0920 17:20:23.141007 12587 layer_factory.hpp:77] Creating layer scale5a_branch1
I0920 17:20:23.141096 12587 net.cpp:122] Setting up scale5a_branch1
I0920 17:20:23.141100 12587 net.cpp:129] Top shape: 8 2048 7 7 (802816)
I0920 17:20:23.141103 12587 net.cpp:137] Memory required for data: 1774223392
I0920 17:20:23.141105 12587 layer_factory.hpp:77] Creating layer res5a_branch2a
I0920 17:20:23.141113 12587 net.cpp:84] Creating Layer res5a_branch2a
I0920 17:20:23.141115 12587 net.cpp:406] res5a_branch2a <- res4f_res4f_relu_0_split_1
I0920 17:20:23.141119 12587 net.cpp:380] res5a_branch2a -> res5a_branch2a
I0920 17:20:23.142633 12587 net.cpp:122] Setting up res5a_branch2a
I0920 17:20:23.142642 12587 net.cpp:129] Top shape: 8 512 7 7 (200704)
I0920 17:20:23.142643 12587 net.cpp:137] Memory required for data: 1775026208
I0920 17:20:23.142647 12587 layer_factory.hpp:77] Creating layer bn5a_branch2a
I0920 17:20:23.142663 12587 net.cpp:84] Creating Layer bn5a_branch2a
I0920 17:20:23.142665 12587 net.cpp:406] bn5a_branch2a <- res5a_branch2a
I0920 17:20:23.142668 12587 net.cpp:367] bn5a_branch2a -> res5a_branch2a (in-place)
I0920 17:20:23.142830 12587 net.cpp:122] Setting up bn5a_branch2a
I0920 17:20:23.142835 12587 net.cpp:129] Top shape: 8 512 7 7 (200704)
I0920 17:20:23.142838 12587 net.cpp:137] Memory required for data: 1775829024
I0920 17:20:23.142841 12587 layer_factory.hpp:77] Creating layer scale5a_branch2a
I0920 17:20:23.142855 12587 net.cpp:84] Creating Layer scale5a_branch2a
I0920 17:20:23.142858 12587 net.cpp:406] scale5a_branch2a <- res5a_branch2a
I0920 17:20:23.142860 12587 net.cpp:367] scale5a_branch2a -> res5a_branch2a (in-place)
I0920 17:20:23.142899 12587 layer_factory.hpp:77] Creating layer scale5a_branch2a
I0920 17:20:23.143002 12587 net.cpp:122] Setting up scale5a_branch2a
I0920 17:20:23.143007 12587 net.cpp:129] Top shape: 8 512 7 7 (200704)
I0920 17:20:23.143008 12587 net.cpp:137] Memory required for data: 1776631840
I0920 17:20:23.143023 12587 layer_factory.hpp:77] Creating layer res5a_branch2a_relu
I0920 17:20:23.143026 12587 net.cpp:84] Creating Layer res5a_branch2a_relu
I0920 17:20:23.143028 12587 net.cpp:406] res5a_branch2a_relu <- res5a_branch2a
I0920 17:20:23.143031 12587 net.cpp:367] res5a_branch2a_relu -> res5a_branch2a (in-place)
I0920 17:20:23.143157 12587 net.cpp:122] Setting up res5a_branch2a_relu
I0920 17:20:23.143162 12587 net.cpp:129] Top shape: 8 512 7 7 (200704)
I0920 17:20:23.143164 12587 net.cpp:137] Memory required for data: 1777434656
I0920 17:20:23.143167 12587 layer_factory.hpp:77] Creating layer res5a_branch2b
I0920 17:20:23.143180 12587 net.cpp:84] Creating Layer res5a_branch2b
I0920 17:20:23.143183 12587 net.cpp:406] res5a_branch2b <- res5a_branch2a
I0920 17:20:23.143187 12587 net.cpp:380] res5a_branch2b -> res5a_branch2b
I0920 17:20:23.148108 12587 net.cpp:122] Setting up res5a_branch2b
I0920 17:20:23.148141 12587 net.cpp:129] Top shape: 8 512 7 7 (200704)
I0920 17:20:23.148144 12587 net.cpp:137] Memory required for data: 1778237472
I0920 17:20:23.148162 12587 layer_factory.hpp:77] Creating layer bn5a_branch2b
I0920 17:20:23.148178 12587 net.cpp:84] Creating Layer bn5a_branch2b
I0920 17:20:23.148183 12587 net.cpp:406] bn5a_branch2b <- res5a_branch2b
I0920 17:20:23.148191 12587 net.cpp:367] bn5a_branch2b -> res5a_branch2b (in-place)
I0920 17:20:23.148376 12587 net.cpp:122] Setting up bn5a_branch2b
I0920 17:20:23.148381 12587 net.cpp:129] Top shape: 8 512 7 7 (200704)
I0920 17:20:23.148382 12587 net.cpp:137] Memory required for data: 1779040288
I0920 17:20:23.148397 12587 layer_factory.hpp:77] Creating layer scale5a_branch2b
I0920 17:20:23.148402 12587 net.cpp:84] Creating Layer scale5a_branch2b
I0920 17:20:23.148404 12587 net.cpp:406] scale5a_branch2b <- res5a_branch2b
I0920 17:20:23.148421 12587 net.cpp:367] scale5a_branch2b -> res5a_branch2b (in-place)
I0920 17:20:23.148474 12587 layer_factory.hpp:77] Creating layer scale5a_branch2b
I0920 17:20:23.148618 12587 net.cpp:122] Setting up scale5a_branch2b
I0920 17:20:23.148623 12587 net.cpp:129] Top shape: 8 512 7 7 (200704)
I0920 17:20:23.148646 12587 net.cpp:137] Memory required for data: 1779843104
I0920 17:20:23.148684 12587 layer_factory.hpp:77] Creating layer res5a_branch2b_relu
I0920 17:20:23.148699 12587 net.cpp:84] Creating Layer res5a_branch2b_relu
I0920 17:20:23.148700 12587 net.cpp:406] res5a_branch2b_relu <- res5a_branch2b
I0920 17:20:23.148703 12587 net.cpp:367] res5a_branch2b_relu -> res5a_branch2b (in-place)
I0920 17:20:23.149039 12587 net.cpp:122] Setting up res5a_branch2b_relu
I0920 17:20:23.149045 12587 net.cpp:129] Top shape: 8 512 7 7 (200704)
I0920 17:20:23.149057 12587 net.cpp:137] Memory required for data: 1780645920
I0920 17:20:23.149060 12587 layer_factory.hpp:77] Creating layer res5a_branch2c
I0920 17:20:23.149075 12587 net.cpp:84] Creating Layer res5a_branch2c
I0920 17:20:23.149078 12587 net.cpp:406] res5a_branch2c <- res5a_branch2b
I0920 17:20:23.149082 12587 net.cpp:380] res5a_branch2c -> res5a_branch2c
I0920 17:20:23.150905 12587 net.cpp:122] Setting up res5a_branch2c
I0920 17:20:23.150913 12587 net.cpp:129] Top shape: 8 2048 7 7 (802816)
I0920 17:20:23.150925 12587 net.cpp:137] Memory required for data: 1783857184
I0920 17:20:23.150929 12587 layer_factory.hpp:77] Creating layer bn5a_branch2c
I0920 17:20:23.150934 12587 net.cpp:84] Creating Layer bn5a_branch2c
I0920 17:20:23.150938 12587 net.cpp:406] bn5a_branch2c <- res5a_branch2c
I0920 17:20:23.150940 12587 net.cpp:367] bn5a_branch2c -> res5a_branch2c (in-place)
I0920 17:20:23.151109 12587 net.cpp:122] Setting up bn5a_branch2c
I0920 17:20:23.151114 12587 net.cpp:129] Top shape: 8 2048 7 7 (802816)
I0920 17:20:23.151116 12587 net.cpp:137] Memory required for data: 1787068448
I0920 17:20:23.151130 12587 layer_factory.hpp:77] Creating layer scale5a_branch2c
I0920 17:20:23.151134 12587 net.cpp:84] Creating Layer scale5a_branch2c
I0920 17:20:23.151135 12587 net.cpp:406] scale5a_branch2c <- res5a_branch2c
I0920 17:20:23.151139 12587 net.cpp:367] scale5a_branch2c -> res5a_branch2c (in-place)
I0920 17:20:23.151180 12587 layer_factory.hpp:77] Creating layer scale5a_branch2c
I0920 17:20:23.151289 12587 net.cpp:122] Setting up scale5a_branch2c
I0920 17:20:23.151293 12587 net.cpp:129] Top shape: 8 2048 7 7 (802816)
I0920 17:20:23.151295 12587 net.cpp:137] Memory required for data: 1790279712
I0920 17:20:23.151309 12587 layer_factory.hpp:77] Creating layer res5a
I0920 17:20:23.151312 12587 net.cpp:84] Creating Layer res5a
I0920 17:20:23.151314 12587 net.cpp:406] res5a <- res5a_branch1
I0920 17:20:23.151317 12587 net.cpp:406] res5a <- res5a_branch2c
I0920 17:20:23.151320 12587 net.cpp:380] res5a -> res5a
I0920 17:20:23.151340 12587 net.cpp:122] Setting up res5a
I0920 17:20:23.151353 12587 net.cpp:129] Top shape: 8 2048 7 7 (802816)
I0920 17:20:23.151355 12587 net.cpp:137] Memory required for data: 1793490976
I0920 17:20:23.151357 12587 layer_factory.hpp:77] Creating layer res5a_relu
I0920 17:20:23.151360 12587 net.cpp:84] Creating Layer res5a_relu
I0920 17:20:23.151371 12587 net.cpp:406] res5a_relu <- res5a
I0920 17:20:23.151374 12587 net.cpp:367] res5a_relu -> res5a (in-place)
I0920 17:20:23.151700 12587 net.cpp:122] Setting up res5a_relu
I0920 17:20:23.151707 12587 net.cpp:129] Top shape: 8 2048 7 7 (802816)
…
I0920 17:20:23.258308 12587 net.cpp:367] bn4d_branch2a -> res4d_branch2a (in-place)
I0920 17:20:23.258453 12587 net.cpp:122] Setting up bn4d_branch2a
I0920 17:20:23.258460 12587 net.cpp:129] Top shape: 8 256 14 14 (401408)
I0920 17:20:23.258461 12587 net.cpp:137] Memory required for data: 1594392672
I0920 17:20:23.258466 12587 layer_factory.hpp:77] Creating layer scale4d_branch2a
I0920 17:20:23.258469 12587 net.cpp:84] Creating Layer scale4d_branch2a
I0920 17:20:23.258472 12587 net.cpp:406] scale4d_branch2a <- res4d_branch2a
I0920 17:20:23.258476 12587 net.cpp:367] scale4d_branch2a -> res4d_branch2a (in-place)
I0920 17:20:23.258508 12587 layer_factory.hpp:77] Creating layer scale4d_branch2a
I0920 17:20:23.258589 12587 net.cpp:122] Setting up scale4d_branch2a
I0920 17:20:23.258592 12587 net.cpp:129] Top shape: 8 256 14 14 (401408)
I0920 17:20:23.258594 12587 net.cpp:137] Memory required for data: 1595998304
I0920 17:20:23.258597 12587 layer_factory.hpp:77] Creating layer res4d_branch2a_relu
I0920 17:20:23.258601 12587 net.cpp:84] Creating Layer res4d_branch2a_relu
I0920 17:20:23.258604 12587 net.cpp:406] res4d_branch2a_relu <- res4d_branch2a
I0920 17:20:23.258606 12587 net.cpp:367] res4d_branch2a_relu -> res4d_branch2a (in-place)
I0920 17:20:23.258739 12587 net.cpp:122] Setting up res4d_branch2a_relu
I0920 17:20:23.258755 12587 net.cpp:129] Top shape: 8 256 14 14 (401408)
I0920 17:20:23.258756 12587 net.cpp:137] Memory required for data: 1597603936
I0920 17:20:23.258759 12587 layer_factory.hpp:77] Creating layer res4d_branch2b
I0920 17:20:23.258774 12587 net.cpp:84] Creating Layer res4d_branch2b
I0920 17:20:23.258775 12587 net.cpp:406] res4d_branch2b <- res4d_branch2a
I0920 17:20:23.258780 12587 net.cpp:380] res4d_branch2b -> res4d_branch2b
I0920 17:20:23.260715 12587 net.cpp:122] Setting up res4d_branch2b
I0920 17:20:23.260741 12587 net.cpp:129] Top shape: 8 256 14 14 (401408)
I0920 17:20:23.260745 12587 net.cpp:137] Memory required for data: 1599209568
I0920 17:20:23.260751 12587 layer_factory.hpp:77] Creating layer bn4d_branch2b
I0920 17:20:23.260764 12587 net.cpp:84] Creating Layer bn4d_branch2b
I0920 17:20:23.260769 12587 net.cpp:406] bn4d_branch2b <- res4d_branch2b
I0920 17:20:23.260792 12587 net.cpp:367] bn4d_branch2b -> res4d_branch2b (in-place)
I0920 17:20:23.261049 12587 net.cpp:122] Setting up bn4d_branch2b
I0920 17:20:23.261059 12587 net.cpp:129] Top shape: 8 256 14 14 (401408)
I0920 17:20:23.261061 12587 net.cpp:137] Memory required for data: 1600815200
I0920 17:20:23.261067 12587 layer_factory.hpp:77] Creating layer scale4d_branch2b
I0920 17:20:23.261085 12587 net.cpp:84] Creating Layer scale4d_branch2b
I0920 17:20:23.261087 12587 net.cpp:406] scale4d_branch2b <- res4d_branch2b
I0920 17:20:23.261092 12587 net.cpp:367] scale4d_branch2b -> res4d_branch2b (in-place)
I0920 17:20:23.261173 12587 layer_factory.hpp:77] Creating layer scale4d_branch2b
I0920 17:20:23.261337 12587 net.cpp:122] Setting up scale4d_branch2b
I0920 17:20:23.261345 12587 net.cpp:129] Top shape: 8 256 14 14 (401408)
I0920 17:20:23.261349 12587 net.cpp:137] Memory required for data: 1602420832
I0920 17:20:23.261354 12587 layer_factory.hpp:77] Creating layer res4d_branch2b_relu
I0920 17:20:23.261371 12587 net.cpp:84] Creating Layer res4d_branch2b_relu
I0920 17:20:23.261375 12587 net.cpp:406] res4d_branch2b_relu <- res4d_branch2b
I0920 17:20:23.261391 12587 net.cpp:367] res4d_branch2b_relu -> res4d_branch2b (in-place)
I0920 17:20:23.261589 12587 net.cpp:122] Setting up res4d_branch2b_relu
I0920 17:20:23.261596 12587 net.cpp:129] Top shape: 8 256 14 14 (401408)
I0920 17:20:23.261598 12587 net.cpp:137] Memory required for data: 1604026464
I0920 17:20:23.261600 12587 layer_factory.hpp:77] Creating layer res4d_branch2c
I0920 17:20:23.261606 12587 net.cpp:84] Creating Layer res4d_branch2c
I0920 17:20:23.261608 12587 net.cpp:406] res4d_branch2c <- res4d_branch2b
I0920 17:20:23.261623 12587 net.cpp:380] res4d_branch2c -> res4d_branch2c
I0920 17:20:23.262992 12587 net.cpp:122] Setting up res4d_branch2c
I0920 17:20:23.263002 12587 net.cpp:129] Top shape: 8 1024 14 14 (1605632)
I0920 17:20:23.263015 12587 net.cpp:137] Memory required for data: 1610448992
I0920 17:20:23.263018 12587 layer_factory.hpp:77] Creating layer bn4d_branch2c
I0920 17:20:23.263023 12587 net.cpp:84] Creating Layer bn4d_branch2c
I0920 17:20:23.263026 12587 net.cpp:406] bn4d_branch2c <- res4d_branch2c
I0920 17:20:23.263029 12587 net.cpp:367] bn4d_branch2c -> res4d_branch2c (in-place)
I0920 17:20:23.263200 12587 net.cpp:122] Setting up bn4d_branch2c
I0920 17:20:23.263204 12587 net.cpp:129] Top shape: 8 1024 14 14 (1605632)
I0920 17:20:23.263206 12587 net.cpp:137] Memory required for data: 1616871520
I0920 17:20:23.263221 12587 layer_factory.hpp:77] Creating layer scale4d_branch2c
I0920 17:20:23.263224 12587 net.cpp:84] Creating Layer scale4d_branch2c
I0920 17:20:23.263227 12587 net.cpp:406] scale4d_branch2c <- res4d_branch2c
I0920 17:20:23.263231 12587 net.cpp:367] scale4d_branch2c -> res4d_branch2c (in-place)
I0920 17:20:23.263274 12587 layer_factory.hpp:77] Creating layer scale4d_branch2c
I0920 17:20:23.263377 12587 net.cpp:122] Setting up scale4d_branch2c
I0920 17:20:23.263382 12587 net.cpp:129] Top shape: 8 1024 14 14 (1605632)
I0920 17:20:23.263383 12587 net.cpp:137] Memory required for data: 1623294048
I0920 17:20:23.263387 12587 layer_factory.hpp:77] Creating layer res4d
I0920 17:20:23.263391 12587 net.cpp:84] Creating Layer res4d
I0920 17:20:23.263393 12587 net.cpp:406] res4d <- res4c_res4c_relu_0_split_1
I0920 17:20:23.263396 12587 net.cpp:406] res4d <- res4d_branch2c
I0920 17:20:23.263399 12587 net.cpp:380] res4d -> res4d
I0920 17:20:23.263419 12587 net.cpp:122] Setting up res4d
I0920 17:20:23.263423 12587 net.cpp:129] Top shape: 8 1024 14 14 (1605632)
I0920 17:20:23.263424 12587 net.cpp:137] Memory required for data: 1629716576
I0920 17:20:23.263427 12587 layer_factory.hpp:77] Creating layer res4d_relu
I0920 17:20:23.263429 12587 net.cpp:84] Creating Layer res4d_relu
I0920 17:20:23.263432 12587 net.cpp:406] res4d_relu <- res4d
I0920 17:20:23.263434 12587 net.cpp:367] res4d_relu -> res4d (in-place)
I0920 17:20:23.263789 12587 net.cpp:122] Setting up res4d_relu
I0920 17:20:23.263797 12587 net.cpp:129] Top shape: 8 1024 14 14 (1605632)
I0920 17:20:23.263808 12587 net.cpp:137] Memory required for data: 1636139104
I0920 17:20:23.263809 12587 layer_factory.hpp:77] Creating layer res4d_res4d_relu_0_split
I0920 17:20:23.263814 12587 net.cpp:84] Creating Layer res4d_res4d_relu_0_split
I0920 17:20:23.263818 12587 net.cpp:406] res4d_res4d_relu_0_split <- res4d
I0920 17:20:23.263821 12587 net.cpp:380] res4d_res4d_relu_0_split -> res4d_res4d_relu_0_split_0
I0920 17:20:23.263825 12587 net.cpp:380] res4d_res4d_relu_0_split -> res4d_res4d_relu_0_split_1
I0920 17:20:23.263859 12587 net.cpp:122] Setting up res4d_res4d_relu_0_split
I0920 17:20:23.263864 12587 net.cpp:129] Top shape: 8 1024 14 14 (1605632)
I0920 17:20:23.263865 12587 net.cpp:129] Top shape: 8 1024 14 14 (1605632)
I0920 17:20:23.263867 12587 net.cpp:137] Memory required for data: 1648984160
I0920 17:20:23.263869 12587 layer_factory.hpp:77] Creating layer res4e_branch2a
I0920 17:20:23.263873 12587 net.cpp:84] Creating Layer res4e_branch2a
I0920 17:20:23.263876 12587 net.cpp:406] res4e_branch2a <- res4d_res4d_relu_0_split_0
I0920 17:20:23.263880 12587 net.cpp:380] res4e_branch2a -> res4e_branch2a
I0920 17:20:23.265305 12587 net.cpp:122] Setting up res4e_branch2a
I0920 17:20:23.265314 12587 net.cpp:129] Top shape: 8 256 14 14 (401408)
I0920 17:20:23.265316 12587 net.cpp:137] Memory required for data: 1650589792
I0920 17:20:23.265319 12587 layer_factory.hpp:77] Creating layer bn4e_branch2a
I0920 17:20:23.265324 12587 net.cpp:84] Creating Layer bn4e_branch2a
I0920 17:20:23.265326 12587 net.cpp:406] bn4e_branch2a <- res4e_branch2a
I0920 17:20:23.265329 12587 net.cpp:367] bn4e_branch2a -> res4e_branch2a (in-place)
I0920 17:20:23.265478 12587 net.cpp:122] Setting up bn4e_branch2a
I0920 17:20:23.265485 12587 net.cpp:129] Top shape: 8 256 14 14 (401408)
I0920 17:20:23.265486 12587 net.cpp:137] Memory required for data: 1652195424
I0920 17:20:23.265491 12587 layer_factory.hpp:77] Creating layer scale4e_branch2a
I0920 17:20:23.265496 12587 net.cpp:84] Creating Layer scale4e_branch2a
I0920 17:20:23.265497 12587 net.cpp:406] scale4e_branch2a <- res4e_branch2a
I0920 17:20:23.265501 12587 net.cpp:367] scale4e_branch2a -> res4e_branch2a (in-place)
I0920 17:20:23.265540 12587 layer_factory.hpp:77] Creating layer scale4e_branch2a
I0920 17:20:23.265640 12587 net.cpp:122] Setting up scale4e_branch2a
I0920 17:20:23.265645 12587 net.cpp:129] Top shape: 8 256 14 14 (401408)
I0920 17:20:23.265646 12587 net.cpp:137] Memory required for data: 1653801056
I0920 17:20:23.265658 12587 layer_factory.hpp:77] Creating layer res4e_branch2a_relu
I0920 17:20:23.265663 12587 net.cpp:84] Creating Layer res4e_branch2a_relu
I0920 17:20:23.265666 12587 net.cpp:406] res4e_branch2a_relu <- res4e_branch2a
I0920 17:20:23.265668 12587 net.cpp:367] res4e_branch2a_relu -> res4e_branch2a (in-place)
I0920 17:20:23.265807 12587 net.cpp:122] Setting up res4e_branch2a_relu
I0920 17:20:23.265813 12587 net.cpp:129] Top shape: 8 256 14 14 (401408)
I0920 17:20:23.265815 12587 net.cpp:137] Memory required for data: 1655406688
I0920 17:20:23.265826 12587 layer_factory.hpp:77] Creating layer res4e_branch2b
I0920 17:20:23.265831 12587 net.cpp:84] Creating Layer res4e_branch2b
I0920 17:20:23.265835 12587 net.cpp:406] res4e_branch2b <- res4e_branch2a
I0920 17:20:23.265838 12587 net.cpp:380] res4e_branch2b -> res4e_branch2b
I0920 17:20:23.267551 12587 net.cpp:122] Setting up res4e_branch2b
I0920 17:20:23.267560 12587 net.cpp:129] Top shape: 8 256 14 14 (401408)
I0920 17:20:23.267571 12587 net.cpp:137] Memory required for data: 1657012320
I0920 17:20:23.267575 12587 layer_factory.hpp:77] Creating layer bn4e_branch2b
I0920 17:20:23.267580 12587 net.cpp:84] Creating Layer bn4e_branch2b
I0920 17:20:23.267582 12587 net.cpp:406] bn4e_branch2b <- res4e_branch2b
I0920 17:20:23.267585 12587 net.cpp:367] bn4e_branch2b -> res4e_branch2b (in-place)
I0920 17:20:23.267750 12587 net.cpp:122] Setting up bn4e_branch2b
I0920 17:20:23.267753 12587 net.cpp:129] Top shape: 8 256 14 14 (401408)
I0920 17:20:23.267755 12587 net.cpp:137] Memory required for data: 1658617952
I0920 17:20:23.267779 12587 layer_factory.hpp:77] Creating layer scale4e_branch2b
I0920 17:20:23.267783 12587 net.cpp:84] Creating Layer scale4e_branch2b
I0920 17:20:23.267786 12587 net.cpp:406] scale4e_branch2b <- res4e_branch2b
I0920 17:20:23.267791 12587 net.cpp:367] scale4e_branch2b -> res4e_branch2b (in-place)
I0920 17:20:23.267830 12587 layer_factory.hpp:77] Creating layer scale4e_branch2b
I0920 17:20:23.267931 12587 net.cpp:122] Setting up scale4e_branch2b
I0920 17:20:23.267935 12587 net.cpp:129] Top shape: 8 256 14 14 (401408)
I0920 17:20:23.267936 12587 net.cpp:137] Memory required for data: 1660223584
I0920 17:20:23.267949 12587 layer_factory.hpp:77] Creating layer res4e_branch2b_relu
I0920 17:20:23.267953 12587 net.cpp:84] Creating Layer res4e_branch2b_relu
I0920 17:20:23.267956 12587 net.cpp:406] res4e_branch2b_relu <- res4e_branch2b
I0920 17:20:23.267958 12587 net.cpp:367] res4e_branch2b_relu -> res4e_branch2b (in-place)
I0920 17:20:23.268100 12587 net.cpp:122] Setting up res4e_branch2b_relu
I0920 17:20:23.268106 12587 net.cpp:129] Top shape: 8 256 14 14 (401408)
I0920 17:20:23.268118 12587 net.cpp:137] Memory required for data: 1661829216
I0920 17:20:23.268121 12587 layer_factory.hpp:77] Creating layer res4e_branch2c
I0920 17:20:23.268124 12587 net.cpp:84] Creating Layer res4e_branch2c
I0920 17:20:23.268126 12587 net.cpp:406] res4e_branch2c <- res4e_branch2b
I0920 17:20:23.268131 12587 net.cpp:380] res4e_branch2c -> res4e_branch2c
I0920 17:20:23.269460 12587 net.cpp:122] Setting up res4e_branch2c
I0920 17:20:23.269469 12587 net.cpp:129] Top shape: 8 1024 14 14 (1605632)
I0920 17:20:23.269480 12587 net.cpp:137] Memory required for data: 1668251744
I0920 17:20:23.269484 12587 layer_factory.hpp:77] Creating layer bn4e_branch2c
I0920 17:20:23.269489 12587 net.cpp:84] Creating Layer bn4e_branch2c
I0920 17:20:23.269491 12587 net.cpp:406] bn4e_branch2c <- res4e_branch2c
I0920 17:20:23.269495 12587 net.cpp:367] bn4e_branch2c -> res4e_branch2c (in-place)
I0920 17:20:23.269664 12587 net.cpp:122] Setting up bn4e_branch2c
I0920 17:20:23.269668 12587 net.cpp:129] Top shape: 8 1024 14 14 (1605632)
I0920 17:20:23.269670 12587 net.cpp:137] Memory required for data: 1674674272
I0920 17:20:23.269683 12587 layer_factory.hpp:77] Creating layer scale4e_branch2c
I0920 17:20:23.269686 12587 net.cpp:84] Creating Layer scale4e_branch2c
I0920 17:20:23.269688 12587 net.cpp:406] scale4e_branch2c <- res4e_branch2c
I0920 17:20:23.269691 12587 net.cpp:367] scale4e_branch2c -> res4e_branch2c (in-place)
I0920 17:20:23.269734 12587 layer_factory.hpp:77] Creating layer scale4e_branch2c
I0920 17:20:23.269847 12587 net.cpp:122] Setting up scale4e_branch2c
I0920 17:20:23.269851 12587 net.cpp:129] Top shape: 8 1024 14 14 (1605632)
I0920 17:20:23.269853 12587 net.cpp:137] Memory required for data: 1681096800
I0920 17:20:23.269856 12587 layer_factory.hpp:77] Creating layer res4e
I0920 17:20:23.269860 12587 net.cpp:84] Creating Layer res4e
I0920 17:20:23.269863 12587 net.cpp:406] res4e <- res4d_res4d_relu_0_split_1
I0920 17:20:23.269865 12587 net.cpp:406] res4e <- res4e_branch2c
I0920 17:20:23.269877 12587 net.cpp:380] res4e -> res4e
I0920 17:20:23.269897 12587 net.cpp:122] Setting up res4e
I0920 17:20:23.269902 12587 net.cpp:129] Top shape: 8 1024 14 14 (1605632)
I0920 17:20:23.269903 12587 net.cpp:137] Memory required for data: 1687519328
I0920 17:20:23.269906 12587 layer_factory.hpp:77] Creating layer res4e_relu
I0920 17:20:23.269908 12587 net.cpp:84] Creating Layer res4e_relu
I0920 17:20:23.269911 12587 net.cpp:406] res4e_relu <- res4e
I0920 17:20:23.269913 12587 net.cpp:367] res4e_relu -> res4e (in-place)
I0920 17:20:23.270264 12587 net.cpp:122] Setting up res4e_relu
I0920 17:20:23.270272 12587 net.cpp:129] Top shape: 8 1024 14 14 (1605632)
I0920 17:20:23.270274 12587 net.cpp:137] Memory required for data: 1693941856
I0920 17:20:23.270277 12587 layer_factory.hpp:77] Creating layer res4e_res4e_relu_0_split
I0920 17:20:23.270280 12587 net.cpp:84] Creating Layer res4e_res4e_relu_0_split
I0920 17:20:23.270282 12587 net.cpp:406] res4e_res4e_relu_0_split <- res4e
I0920 17:20:23.270293 12587 net.cpp:380] res4e_res4e_relu_0_split -> res4e_res4e_relu_0_split_0
I0920 17:20:23.270298 12587 net.cpp:380] res4e_res4e_relu_0_split -> res4e_res4e_relu_0_split_1
I0920 17:20:23.270334 12587 net.cpp:122] Setting up res4e_res4e_relu_0_split
I0920 17:20:23.270337 12587 net.cpp:129] Top shape: 8 1024 14 14 (1605632)
I0920 17:20:23.270339 12587 net.cpp:129] Top shape: 8 1024 14 14 (1605632)
I0920 17:20:23.270341 12587 net.cpp:137] Memory required for data: 1706786912
I0920 17:20:23.270344 12587 layer_factory.hpp:77] Creating layer res4f_branch2a
I0920 17:20:23.270349 12587 net.cpp:84] Creating Layer res4f_branch2a
I0920 17:20:23.270351 12587 net.cpp:406] res4f_branch2a <- res4e_res4e_relu_0_split_0
I0920 17:20:23.270354 12587 net.cpp:380] res4f_branch2a -> res4f_branch2a
I0920 17:20:23.271705 12587 net.cpp:122] Setting up res4f_branch2a
I0920 17:20:23.271713 12587 net.cpp:129] Top shape: 8 256 14 14 (401408)
I0920 17:20:23.271716 12587 net.cpp:137] Memory required for data: 1708392544
I0920 17:20:23.271719 12587 layer_factory.hpp:77] Creating layer bn4f_branch2a
I0920 17:20:23.271724 12587 net.cpp:84] Creating Layer bn4f_branch2a
I0920 17:20:23.271728 12587 net.cpp:406] bn4f_branch2a <- res4f_branch2a
I0920 17:20:23.271730 12587 net.cpp:367] bn4f_branch2a -> res4f_branch2a (in-place)
I0920 17:20:23.271880 12587 net.cpp:122] Setting up bn4f_branch2a
I0920 17:20:23.271886 12587 net.cpp:129] Top shape: 8 256 14 14 (401408)
I0920 17:20:23.271888 12587 net.cpp:137] Memory required for data: 1709998176
I0920 17:20:23.271893 12587 layer_factory.hpp:77] Creating layer scale4f_branch2a
I0920 17:20:23.271895 12587 net.cpp:84] Creating Layer scale4f_branch2a
I0920 17:20:23.271898 12587 net.cpp:406] scale4f_branch2a <- res4f_branch2a
I0920 17:20:23.271900 12587 net.cpp:367] scale4f_branch2a -> res4f_branch2a (in-place)
I0920 17:20:23.271939 12587 layer_factory.hpp:77] Creating layer scale4f_branch2a
I0920 17:20:23.272034 12587 net.cpp:122] Setting up scale4f_branch2a
I0920 17:20:23.272038 12587 net.cpp:129] Top shape: 8 256 14 14 (401408)
I0920 17:20:23.272040 12587 net.cpp:137] Memory required for data: 1711603808
I0920 17:20:23.272043 12587 layer_factory.hpp:77] Creating layer res4f_branch2a_relu
I0920 17:20:23.272047 12587 net.cpp:84] Creating Layer res4f_branch2a_relu
I0920 17:20:23.272048 12587 net.cpp:406] res4f_branch2a_relu <- res4f_branch2a
I0920 17:20:23.272052 12587 net.cpp:367] res4f_branch2a_relu -> res4f_branch2a (in-place)
I0920 17:20:23.272390 12587 net.cpp:122] Setting up res4f_branch2a_relu
I0920 17:20:23.272397 12587 net.cpp:129] Top shape: 8 256 14 14 (401408)
I0920 17:20:23.272409 12587 net.cpp:137] Memory required for data: 1713209440
I0920 17:20:23.272411 12587 layer_factory.hpp:77] Creating layer res4f_branch2b
I0920 17:20:23.272415 12587 net.cpp:84] Creating Layer res4f_branch2b
I0920 17:20:23.272418 12587 net.cpp:406] res4f_branch2b <- res4f_branch2a
I0920 17:20:23.272423 12587 net.cpp:380] res4f_branch2b -> res4f_branch2b
I0920 17:20:23.274055 12587 net.cpp:122] Setting up res4f_branch2b
I0920 17:20:23.274065 12587 net.cpp:129] Top shape: 8 256 14 14 (401408)
I0920 17:20:23.274066 12587 net.cpp:137] Memory required for data: 1714815072
I0920 17:20:23.274070 12587 layer_factory.hpp:77] Creating layer bn4f_branch2b
I0920 17:20:23.274073 12587 net.cpp:84] Creating Layer bn4f_branch2b
I0920 17:20:23.274075 12587 net.cpp:406] bn4f_branch2b <- res4f_branch2b
I0920 17:20:23.274080 12587 net.cpp:367] bn4f_branch2b -> res4f_branch2b (in-place)
I0920 17:20:23.274225 12587 net.cpp:122] Setting up bn4f_branch2b
I0920 17:20:23.274230 12587 net.cpp:129] Top shape: 8 256 14 14 (401408)
I0920 17:20:23.274232 12587 net.cpp:137] Memory required for data: 1716420704
I0920 17:20:23.274236 12587 layer_factory.hpp:77] Creating layer scale4f_branch2b
I0920 17:20:23.274240 12587 net.cpp:84] Creating Layer scale4f_branch2b
I0920 17:20:23.274241 12587 net.cpp:406] scale4f_branch2b <- res4f_branch2b
I0920 17:20:23.274243 12587 net.cpp:367] scale4f_branch2b -> res4f_branch2b (in-place)
I0920 17:20:23.274283 12587 layer_factory.hpp:77] Creating layer scale4f_branch2b
I0920 17:20:23.274364 12587 net.cpp:122] Setting up scale4f_branch2b
I0920 17:20:23.274369 12587 net.cpp:129] Top shape: 8 256 14 14 (401408)
I0920 17:20:23.274370 12587 net.cpp:137] Memory required for data: 1718026336
I0920 17:20:23.274374 12587 layer_factory.hpp:77] Creating layer res4f_branch2b_relu
I0920 17:20:23.274377 12587 net.cpp:84] Creating Layer res4f_branch2b_relu
I0920 17:20:23.274379 12587 net.cpp:406] res4f_branch2b_relu <- res4f_branch2b
I0920 17:20:23.274381 12587 net.cpp:367] res4f_branch2b_relu -> res4f_branch2b (in-place)
I0920 17:20:23.274508 12587 net.cpp:122] Setting up res4f_branch2b_relu
I0920 17:20:23.274513 12587 net.cpp:129] Top shape: 8 256 14 14 (401408)
I0920 17:20:23.274515 12587 net.cpp:137] Memory required for data: 1719631968
I0920 17:20:23.274518 12587 layer_factory.hpp:77] Creating layer res4f_branch2c
I0920 17:20:23.274521 12587 net.cpp:84] Creating Layer res4f_branch2c
I0920 17:20:23.274523 12587 net.cpp:406] res4f_branch2c <- res4f_branch2b
I0920 17:20:23.274528 12587 net.cpp:380] res4f_branch2c -> res4f_branch2c
I0920 17:20:23.275838 12587 net.cpp:122] Setting up res4f_branch2c
I0920 17:20:23.275846 12587 net.cpp:129] Top shape: 8 1024 14 14 (1605632)
I0920 17:20:23.275848 12587 net.cpp:137] Memory required for data: 1726054496
I0920 17:20:23.275851 12587 layer_factory.hpp:77] Creating layer bn4f_branch2c
I0920 17:20:23.275856 12587 net.cpp:84] Creating Layer bn4f_branch2c
I0920 17:20:23.275858 12587 net.cpp:406] bn4f_branch2c <- res4f_branch2c
I0920 17:20:23.275862 12587 net.cpp:367] bn4f_branch2c -> res4f_branch2c (in-place)
I0920 17:20:23.276022 12587 net.cpp:122] Setting up bn4f_branch2c
I0920 17:20:23.276027 12587 net.cpp:129] Top shape: 8 1024 14 14 (1605632)
I0920 17:20:23.276029 12587 net.cpp:137] Memory required for data: 1732477024
I0920 17:20:23.276057 12587 layer_factory.hpp:77] Creating layer scale4f_branch2c
I0920 17:20:23.276060 12587 net.cpp:84] Creating Layer scale4f_branch2c
I0920 17:20:23.276062 12587 net.cpp:406] scale4f_branch2c <- res4f_branch2c
I0920 17:20:23.276065 12587 net.cpp:367] scale4f_branch2c -> res4f_branch2c (in-place)
I0920 17:20:23.276099 12587 layer_factory.hpp:77] Creating layer scale4f_branch2c
I0920 17:20:23.276188 12587 net.cpp:122] Setting up scale4f_branch2c
I0920 17:20:23.276193 12587 net.cpp:129] Top shape: 8 1024 14 14 (1605632)
I0920 17:20:23.276196 12587 net.cpp:137] Memory required for data: 1738899552
I0920 17:20:23.276198 12587 layer_factory.hpp:77] Creating layer res4f
I0920 17:20:23.276202 12587 net.cpp:84] Creating Layer res4f
I0920 17:20:23.276204 12587 net.cpp:406] res4f <- res4e_res4e_relu_0_split_1
I0920 17:20:23.276206 12587 net.cpp:406] res4f <- res4f_branch2c
I0920 17:20:23.276211 12587 net.cpp:380] res4f -> res4f
I0920 17:20:23.276229 12587 net.cpp:122] Setting up res4f
I0920 17:20:23.276233 12587 net.cpp:129] Top shape: 8 1024 14 14 (1605632)
I0920 17:20:23.276234 12587 net.cpp:137] Memory required for data: 1745322080
I0920 17:20:23.276237 12587 layer_factory.hpp:77] Creating layer res4f_relu
I0920 17:20:23.276240 12587 net.cpp:84] Creating Layer res4f_relu
I0920 17:20:23.276242 12587 net.cpp:406] res4f_relu <- res4f
I0920 17:20:23.276244 12587 net.cpp:367] res4f_relu -> res4f (in-place)
I0920 17:20:23.276587 12587 net.cpp:122] Setting up res4f_relu
I0920 17:20:23.276593 12587 net.cpp:129] Top shape: 8 1024 14 14 (1605632)
I0920 17:20:23.276597 12587 net.cpp:137] Memory required for data: 1751744608
I0920 17:20:23.276597 12587 layer_factory.hpp:77] Creating layer res4f_res4f_relu_0_split
I0920 17:20:23.276602 12587 net.cpp:84] Creating Layer res4f_res4f_relu_0_split
I0920 17:20:23.276604 12587 net.cpp:406] res4f_res4f_relu_0_split <- res4f
I0920 17:20:23.276608 12587 net.cpp:380] res4f_res4f_relu_0_split -> res4f_res4f_relu_0_split_0
I0920 17:20:23.276612 12587 net.cpp:380] res4f_res4f_relu_0_split -> res4f_res4f_relu_0_split_1
I0920 17:20:23.276645 12587 net.cpp:122] Setting up res4f_res4f_relu_0_split
I0920 17:20:23.276655 12587 net.cpp:129] Top shape: 8 1024 14 14 (1605632)
I0920 17:20:23.276659 12587 net.cpp:129] Top shape: 8 1024 14 14 (1605632)
I0920 17:20:23.276679 12587 net.cpp:137] Memory required for data: 1764589664
I0920 17:20:23.276681 12587 layer_factory.hpp:77] Creating layer res5a_branch1
I0920 17:20:23.276688 12587 net.cpp:84] Creating Layer res5a_branch1
I0920 17:20:23.276691 12587 net.cpp:406] res5a_branch1 <- res4f_res4f_relu_0_split_0
I0920 17:20:23.276695 12587 net.cpp:380] res5a_branch1 -> res5a_branch1
I0920 17:20:23.280433 12587 net.cpp:122] Setting up res5a_branch1
I0920 17:20:23.280465 12587 net.cpp:129] Top shape: 8 2048 7 7 (802816)
I0920 17:20:23.280468 12587 net.cpp:137] Memory required for data: 1767800928
I0920 17:20:23.280479 12587 layer_factory.hpp:77] Creating layer bn5a_branch1
I0920 17:20:23.280490 12587 net.cpp:84] Creating Layer bn5a_branch1
I0920 17:20:23.280496 12587 net.cpp:406] bn5a_branch1 <- res5a_branch1
I0920 17:20:23.280503 12587 net.cpp:367] bn5a_branch1 -> res5a_branch1 (in-place)
I0920 17:20:23.280735 12587 net.cpp:122] Setting up bn5a_branch1
I0920 17:20:23.280740 12587 net.cpp:129] Top shape: 8 2048 7 7 (802816)
I0920 17:20:23.280742 12587 net.cpp:137] Memory required for data: 1771012192
I0920 17:20:23.280746 12587 layer_factory.hpp:77] Creating layer scale5a_branch1
I0920 17:20:23.280751 12587 net.cpp:84] Creating Layer scale5a_branch1
I0920 17:20:23.280755 12587 net.cpp:406] scale5a_branch1 <- res5a_branch1
I0920 17:20:23.280757 12587 net.cpp:367] scale5a_branch1 -> res5a_branch1 (in-place)
I0920 17:20:23.280798 12587 layer_factory.hpp:77] Creating layer scale5a_branch1
I0920 17:20:23.280894 12587 net.cpp:122] Setting up scale5a_branch1
I0920 17:20:23.280900 12587 net.cpp:129] Top shape: 8 2048 7 7 (802816)
I0920 17:20:23.280900 12587 net.cpp:137] Memory required for data: 1774223456
I0920 17:20:23.280903 12587 layer_factory.hpp:77] Creating layer res5a_branch2a
I0920 17:20:23.280910 12587 net.cpp:84] Creating Layer res5a_branch2a
I0920 17:20:23.280911 12587 net.cpp:406] res5a_branch2a <- res4f_res4f_relu_0_split_1
I0920 17:20:23.280915 12587 net.cpp:380] res5a_branch2a -> res5a_branch2a
I0920 17:20:23.282302 12587 net.cpp:122] Setting up res5a_branch2a
I0920 17:20:23.282310 12587 net.cpp:129] Top shape: 8 512 7 7 (200704)
I0920 17:20:23.282312 12587 net.cpp:137] Memory required for data: 1775026272
I0920 17:20:23.282315 12587 layer_factory.hpp:77] Creating layer bn5a_branch2a
I0920 17:20:23.282320 12587 net.cpp:84] Creating Layer bn5a_branch2a
I0920 17:20:23.282322 12587 net.cpp:406] bn5a_branch2a <- res5a_branch2a
I0920 17:20:23.282325 12587 net.cpp:367] bn5a_branch2a -> res5a_branch2a (in-place)
I0920 17:20:23.282491 12587 net.cpp:122] Setting up bn5a_branch2a
I0920 17:20:23.282497 12587 net.cpp:129] Top shape: 8 512 7 7 (200704)
I0920 17:20:23.282498 12587 net.cpp:137] Memory required for data: 1775829088
I0920 17:20:23.282502 12587 layer_factory.hpp:77] Creating layer scale5a_branch2a
I0920 17:20:23.282505 12587 net.cpp:84] Creating Layer scale5a_branch2a
I0920 17:20:23.282507 12587 net.cpp:406] scale5a_branch2a <- res5a_branch2a
I0920 17:20:23.282510 12587 net.cpp:367] scale5a_branch2a -> res5a_branch2a (in-place)
I0920 17:20:23.282543 12587 layer_factory.hpp:77] Creating layer scale5a_branch2a
I0920 17:20:23.282635 12587 net.cpp:122] Setting up scale5a_branch2a
I0920 17:20:23.282639 12587 net.cpp:129] Top shape: 8 512 7 7 (200704)
I0920 17:20:23.282641 12587 net.cpp:137] Memory required for data: 1776631904
I0920 17:20:23.282644 12587 layer_factory.hpp:77] Creating layer res5a_branch2a_relu
I0920 17:20:23.282649 12587 net.cpp:84] Creating Layer res5a_branch2a_relu
I0920 17:20:23.282650 12587 net.cpp:406] res5a_branch2a_relu <- res5a_branch2a
I0920 17:20:23.282654 12587 net.cpp:367] res5a_branch2a_relu -> res5a_branch2a (in-place)
I0920 17:20:23.282994 12587 net.cpp:122] Setting up res5a_branch2a_relu
I0920 17:20:23.283002 12587 net.cpp:129] Top shape: 8 512 7 7 (200704)
I0920 17:20:23.283004 12587 net.cpp:137] Memory required for data: 1777434720
I0920 17:20:23.283005 12587 layer_factory.hpp:77] Creating layer res5a_branch2b
I0920 17:20:23.283025 12587 net.cpp:84] Creating Layer res5a_branch2b
I0920 17:20:23.283027 12587 net.cpp:406] res5a_branch2b <- res5a_branch2a
I0920 17:20:23.283031 12587 net.cpp:380] res5a_branch2b -> res5a_branch2b
I0920 17:20:23.288030 12587 net.cpp:122] Setting up res5a_branch2b
I0920 17:20:23.288059 12587 net.cpp:129] Top shape: 8 512 7 7 (200704)
I0920 17:20:23.288061 12587 net.cpp:137] Memory required for data: 1778237536
I0920 17:20:23.288069 12587 layer_factory.hpp:77] Creating layer bn5a_branch2b
I0920 17:20:23.288079 12587 net.cpp:84] Creating Layer bn5a_branch2b
I0920 17:20:23.288084 12587 net.cpp:406] bn5a_branch2b <- res5a_branch2b
I0920 17:20:23.288089 12587 net.cpp:367] bn5a_branch2b -> res5a_branch2b (in-place)
I0920 17:20:23.288278 12587 net.cpp:122] Setting up bn5a_branch2b
I0920 17:20:23.288283 12587 net.cpp:129] Top shape: 8 512 7 7 (200704)
I0920 17:20:23.288285 12587 net.cpp:137] Memory required for data: 1779040352
I0920 17:20:23.288290 12587 layer_factory.hpp:77] Creating layer scale5a_branch2b
I0920 17:20:23.288295 12587 net.cpp:84] Creating Layer scale5a_branch2b
I0920 17:20:23.288296 12587 net.cpp:406] scale5a_branch2b <- res5a_branch2b
I0920 17:20:23.288298 12587 net.cpp:367] scale5a_branch2b -> res5a_branch2b (in-place)
I0920 17:20:23.288342 12587 layer_factory.hpp:77] Creating layer scale5a_branch2b
I0920 17:20:23.288440 12587 net.cpp:122] Setting up scale5a_branch2b
I0920 17:20:23.288444 12587 net.cpp:129] Top shape: 8 512 7 7 (200704)
I0920 17:20:23.288446 12587 net.cpp:137] Memory required for data: 1779843168
I0920 17:20:23.288450 12587 layer_factory.hpp:77] Creating layer res5a_branch2b_relu
I0920 17:20:23.288452 12587 net.cpp:84] Creating Layer res5a_branch2b_relu
I0920 17:20:23.288455 12587 net.cpp:406] res5a_branch2b_relu <- res5a_branch2b
I0920 17:20:23.288458 12587 net.cpp:367] res5a_branch2b_relu -> res5a_branch2b (in-place)
I0920 17:20:23.288592 12587 net.cpp:122] Setting up res5a_branch2b_relu
I0920 17:20:23.288597 12587 net.cpp:129] Top shape: 8 512 7 7 (200704)
I0920 17:20:23.288599 12587 net.cpp:137] Memory required for data: 1780645984
I0920 17:20:23.288601 12587 layer_factory.hpp:77] Creating layer res5a_branch2c
I0920 17:20:23.288606 12587 net.cpp:84] Creating Layer res5a_branch2c
I0920 17:20:23.288609 12587 net.cpp:406] res5a_branch2c <- res5a_branch2b
I0920 17:20:23.288612 12587 net.cpp:380] res5a_branch2c -> res5a_branch2c
I0920 17:20:23.290727 12587 net.cpp:122] Setting up res5a_branch2c
I0920 17:20:23.290737 12587 net.cpp:129] Top shape: 8 2048 7 7 (802816)
I0920 17:20:23.290740 12587 net.cpp:137] Memory required for data: 1783857248
I0920 17:20:23.290743 12587 layer_factory.hpp:77] Creating layer bn5a_branch2c
I0920 17:20:23.290758 12587 net.cpp:84] Creating Layer bn5a_branch2c
I0920 17:20:23.290761 12587 net.cpp:406] bn5a_branch2c <- res5a_branch2c
I0920 17:20:23.290765 12587 net.cpp:367] bn5a_branch2c -> res5a_branch2c (in-place)
I0920 17:20:23.290944 12587 net.cpp:122] Setting up bn5a_branch2c
I0920 17:20:23.290948 12587 net.cpp:129] Top shape: 8 2048 7 7 (802816)
I0920 17:20:23.290951 12587 net.cpp:137] Memory required for data: 1787068512
I0920 17:20:23.290964 12587 layer_factory.hpp:77] Creating layer scale5a_branch2c
I0920 17:20:23.290968 12587 net.cpp:84] Creating Layer scale5a_branch2c
I0920 17:20:23.290971 12587 net.cpp:406] scale5a_branch2c <- res5a_branch2c
I0920 17:20:23.290974 12587 net.cpp:367] scale5a_branch2c -> res5a_branch2c (in-place)
I0920 17:20:23.291020 12587 layer_factory.hpp:77] Creating layer scale5a_branch2c
I0920 17:20:23.291134 12587 net.cpp:122] Setting up scale5a_branch2c
I0920 17:20:23.291138 12587 net.cpp:129] Top shape: 8 2048 7 7 (802816)
I0920 17:20:23.291141 12587 net.cpp:137] Memory required for data: 1790279776
I0920 17:20:23.291153 12587 layer_factory.hpp:77] Creating layer res5a
I0920 17:20:23.291157 12587 net.cpp:84] Creating Layer res5a
I0920 17:20:23.291160 12587 net.cpp:406] res5a <- res5a_branch1
I0920 17:20:23.291162 12587 net.cpp:406] res5a <- res5a_branch2c
I0920 17:20:23.291178 12587 net.cpp:380] res5a -> res5a
I0920 17:20:23.291218 12587 net.cpp:122] Setting up res5a
I0920 17:20:23.291232 12587 net.cpp:129] Top shape: 8 2048 7 7 (802816)
I0920 17:20:23.291234 12587 net.cpp:137] Memory required for data: 1793491040
I0920 17:20:23.291235 12587 layer_factory.hpp:77] Creating layer res5a_relu
I0920 17:20:23.291247 12587 net.cpp:84] Creating Layer res5a_relu
I0920 17:20:23.291249 12587 net.cpp:406] res5a_relu <- res5a
I0920 17:20:23.291254 12587 net.cpp:367] res5a_relu -> res5a (in-place)
I0920 17:20:23.291599 12587 net.cpp:122] Setting up res5a_relu
I0920 17:20:23.291606 12587 net.cpp:129] Top shape: 8 2048 7 7 (802816)
I0920 17:20:23.291609 12587 net.cpp:137] Memory required for data: 1796702304
I0920 17:20:23.291610 12587 layer_factory.hpp:77] Creating layer res5a_res5a_relu_0_split
I0920 17:20:23.291613 12587 net.cpp:84] Creating Layer res5a_res5a_relu_0_split
I0920 17:20:23.291616 12587 net.cpp:406] res5a_res5a_relu_0_split <- res5a
I0920 17:20:23.291620 12587 net.cpp:380] res5a_res5a_relu_0_split -> res5a_res5a_relu_0_split_0
I0920 17:20:23.291625 12587 net.cpp:380] res5a_res5a_relu_0_split -> res5a_res5a_relu_0_split_1
I0920 17:20:23.291658 12587 net.cpp:122] Setting up res5a_res5a_relu_0_split
I0920 17:20:23.291662 12587 net.cpp:129] Top shape: 8 2048 7 7 (802816)
I0920 17:20:23.291664 12587 net.cpp:129] Top shape: 8 2048 7 7 (802816)
I0920 17:20:23.291666 12587 net.cpp:137] Memory required for data: 1803124832
I0920 17:20:23.291667 12587 layer_factory.hpp:77] Creating layer res5b_branch2a
I0920 17:20:23.291672 12587 net.cpp:84] Creating Layer res5b_branch2a
I0920 17:20:23.291674 12587 net.cpp:406] res5b_branch2a <- res5a_res5a_relu_0_split_0
I0920 17:20:23.291677 12587 net.cpp:380] res5b_branch2a -> res5b_branch2a
I0920 17:20:23.294066 12587 net.cpp:122] Setting up res5b_branch2a
I0920 17:20:23.294096 12587 net.cpp:129] Top shape: 8 512 7 7 (200704)
I0920 17:20:23.294098 12587 net.cpp:137] Memory required for data: 1803927648
I0920 17:20:23.294106 12587 layer_factory.hpp:77] Creating layer bn5b_branch2a
I0920 17:20:23.294114 12587 net.cpp:84] Creating Layer bn5b_branch2a
I0920 17:20:23.294117 12587 net.cpp:406] bn5b_branch2a <- res5b_branch2a
I0920 17:20:23.294131 12587 net.cpp:367] bn5b_branch2a -> res5b_branch2a (in-place)
I0920 17:20:23.294332 12587 net.cpp:122] Setting up bn5b_branch2a
I0920 17:20:23.294337 12587 net.cpp:129] Top shape: 8 512 7 7 (200704)
I0920 17:20:23.294339 12587 net.cpp:137] Memory required for data: 1804730464
I0920 17:20:23.294343 12587 layer_factory.hpp:77] Creating layer scale5b_branch2a
I0920 17:20:23.294348 12587 net.cpp:84] Creating Layer scale5b_branch2a
I0920 17:20:23.294349 12587 net.cpp:406] scale5b_branch2a <- res5b_branch2a
I0920 17:20:23.294363 12587 net.cpp:367] scale5b_branch2a -> res5b_branch2a (in-place)
I0920 17:20:23.294419 12587 layer_factory.hpp:77] Creating layer scale5b_branch2a
I0920 17:20:23.294538 12587 net.cpp:122] Setting up scale5b_branch2a
I0920 17:20:23.294541 12587 net.cpp:129] Top shape: 8 512 7 7 (200704)
I0920 17:20:23.294543 12587 net.cpp:137] Memory required for data: 1805533280
I0920 17:20:23.294546 12587 layer_factory.hpp:77] Creating layer res5b_branch2a_relu
I0920 17:20:23.294549 12587 net.cpp:84] Creating Layer res5b_branch2a_relu
I0920 17:20:23.294551 12587 net.cpp:406] res5b_branch2a_relu <- res5b_branch2a
I0920 17:20:23.294555 12587 net.cpp:367] res5b_branch2a_relu -> res5b_branch2a (in-place)
I0920 17:20:23.295260 12587 net.cpp:122] Setting up res5b_branch2a_relu
I0920 17:20:23.295269 12587 net.cpp:129] Top shape: 8 512 7 7 (200704)
I0920 17:20:23.295281 12587 net.cpp:137] Memory required for data: 1806336096
I0920 17:20:23.295285 12587 layer_factory.hpp:77] Creating layer res5b_branch2b
I0920 17:20:23.295295 12587 net.cpp:84] Creating Layer res5b_branch2b
I0920 17:20:23.295300 12587 net.cpp:406] res5b_branch2b <- res5b_branch2a
I0920 17:20:23.295305 12587 net.cpp:380] res5b_branch2b -> res5b_branch2b
I0920 17:20:23.300822 12587 net.cpp:122] Setting up res5b_branch2b
I0920 17:20:23.300848 12587 net.cpp:129] Top shape: 8 512 7 7 (200704)
I0920 17:20:23.300886 12587 net.cpp:137] Memory required for data: 1807138912
I0920 17:20:23.300894 12587 layer_factory.hpp:77] Creating layer bn5b_branch2b
I0920 17:20:23.300904 12587 net.cpp:84] Creating Layer bn5b_branch2b
I0920 17:20:23.300917 12587 net.cpp:406] bn5b_branch2b <- res5b_branch2b
I0920 17:20:23.300923 12587 net.cpp:367] bn5b_branch2b -> res5b_branch2b (in-place)
I0920 17:20:23.301126 12587 net.cpp:122] Setting up bn5b_branch2b
I0920 17:20:23.301131 12587 net.cpp:129] Top shape: 8 512 7 7 (200704)
I0920 17:20:23.301133 12587 net.cpp:137] Memory required for data: 1807941728
I0920 17:20:23.301147 12587 layer_factory.hpp:77] Creating layer scale5b_branch2b
I0920 17:20:23.301154 12587 net.cpp:84] Creating Layer scale5b_branch2b
I0920 17:20:23.301156 12587 net.cpp:406] scale5b_branch2b <- res5b_branch2b
I0920 17:20:23.301159 12587 net.cpp:367] scale5b_branch2b -> res5b_branch2b (in-place)
I0920 17:20:23.301209 12587 layer_factory.hpp:77] Creating layer scale5b_branch2b
I0920 17:20:23.301319 12587 net.cpp:122] Setting up scale5b_branch2b
I0920 17:20:23.301324 12587 net.cpp:129] Top shape: 8 512 7 7 (200704)
I0920 17:20:23.301326 12587 net.cpp:137] Memory required for data: 1808744544
I0920 17:20:23.301329 12587 layer_factory.hpp:77] Creating layer res5b_branch2b_relu
I0920 17:20:23.301333 12587 net.cpp:84] Creating Layer res5b_branch2b_relu
I0920 17:20:23.301336 12587 net.cpp:406] res5b_branch2b_relu <- res5b_branch2b
I0920 17:20:23.301339 12587 net.cpp:367] res5b_branch2b_relu -> res5b_branch2b (in-place)
I0920 17:20:23.301473 12587 net.cpp:122] Setting up res5b_branch2b_relu
I0920 17:20:23.301478 12587 net.cpp:129] Top shape: 8 512 7 7 (200704)
I0920 17:20:23.301481 12587 net.cpp:137] Memory required for data: 1809547360
I0920 17:20:23.301482 12587 layer_factory.hpp:77] Creating layer res5b_branch2c
I0920 17:20:23.301488 12587 net.cpp:84] Creating Layer res5b_branch2c
I0920 17:20:23.301491 12587 net.cpp:406] res5b_branch2c <- res5b_branch2b
I0920 17:20:23.301493 12587 net.cpp:380] res5b_branch2c -> res5b_branch2c
I0920 17:20:23.303578 12587 net.cpp:122] Setting up res5b_branch2c
I0920 17:20:23.303587 12587 net.cpp:129] Top shape: 8 2048 7 7 (802816)
I0920 17:20:23.303589 12587 net.cpp:137] Memory required for data: 1812758624
I0920 17:20:23.303593 12587 layer_factory.hpp:77] Creating layer bn5b_branch2c
I0920 17:20:23.303596 12587 net.cpp:84] Creating Layer bn5b_branch2c
I0920 17:20:23.303599 12587 net.cpp:406] bn5b_branch2c <- res5b_branch2c
I0920 17:20:23.303603 12587 net.cpp:367] bn5b_branch2c -> res5b_branch2c (in-place)
I0920 17:20:23.303776 12587 net.cpp:122] Setting up bn5b_branch2c
I0920 17:20:23.303781 12587 net.cpp:129] Top shape: 8 2048 7 7 (802816)
I0920 17:20:23.303782 12587 net.cpp:137] Memory required for data: 1815969888
I0920 17:20:23.303787 12587 layer_factory.hpp:77] Creating layer scale5b_branch2c
I0920 17:20:23.303791 12587 net.cpp:84] Creating Layer scale5b_branch2c
I0920 17:20:23.303793 12587 net.cpp:406] scale5b_branch2c <- res5b_branch2c
I0920 17:20:23.303797 12587 net.cpp:367] scale5b_branch2c -> res5b_branch2c (in-place)
I0920 17:20:23.303833 12587 layer_factory.hpp:77] Creating layer scale5b_branch2c
I0920 17:20:23.303932 12587 net.cpp:122] Setting up scale5b_branch2c
I0920 17:20:23.303937 12587 net.cpp:129] Top shape: 8 2048 7 7 (802816)
I0920 17:20:23.303938 12587 net.cpp:137] Memory required for data: 1819181152
I0920 17:20:23.303942 12587 layer_factory.hpp:77] Creating layer res5b
I0920 17:20:23.303946 12587 net.cpp:84] Creating Layer res5b
I0920 17:20:23.303948 12587 net.cpp:406] res5b <- res5a_res5a_relu_0_split_1
I0920 17:20:23.303951 12587 net.cpp:406] res5b <- res5b_branch2c
I0920 17:20:23.303953 12587 net.cpp:380] res5b -> res5b
I0920 17:20:23.303972 12587 net.cpp:122] Setting up res5b
I0920 17:20:23.303977 12587 net.cpp:129] Top shape: 8 2048 7 7 (802816)
I0920 17:20:23.303977 12587 net.cpp:137] Memory required for data: 1822392416
I0920 17:20:23.303979 12587 layer_factory.hpp:77] Creating layer res5b_relu
I0920 17:20:23.303984 12587 net.cpp:84] Creating Layer res5b_relu
I0920 17:20:23.303993 12587 net.cpp:406] res5b_relu <- res5b
I0920 17:20:23.303997 12587 net.cpp:367] res5b_relu -> res5b (in-place)
I0920 17:20:23.304343 12587 net.cpp:122] Setting up res5b_relu
I0920 17:20:23.304350 12587 net.cpp:129] Top shape: 8 2048 7 7 (802816)
I0920 17:20:23.304352 12587 net.cpp:137] Memory required for data: 1825603680
I0920 17:20:23.304354 12587 layer_factory.hpp:77] Creating layer res5b_res5b_relu_0_split
I0920 17:20:23.304358 12587 net.cpp:84] Creating Layer res5b_res5b_relu_0_split
I0920 17:20:23.304360 12587 net.cpp:406] res5b_res5b_relu_0_split <- res5b
I0920 17:20:23.304364 12587 net.cpp:380] res5b_res5b_relu_0_split -> res5b_res5b_relu_0_split_0
I0920 17:20:23.304369 12587 net.cpp:380] res5b_res5b_relu_0_split -> res5b_res5b_relu_0_split_1
I0920 17:20:23.304404 12587 net.cpp:122] Setting up res5b_res5b_relu_0_split
I0920 17:20:23.304407 12587 net.cpp:129] Top shape: 8 2048 7 7 (802816)
I0920 17:20:23.304410 12587 net.cpp:129] Top shape: 8 2048 7 7 (802816)
I0920 17:20:23.304411 12587 net.cpp:137] Memory required for data: 1832026208
I0920 17:20:23.304414 12587 layer_factory.hpp:77] Creating layer res5c_branch2a
I0920 17:20:23.304419 12587 net.cpp:84] Creating Layer res5c_branch2a
I0920 17:20:23.304420 12587 net.cpp:406] res5c_branch2a <- res5b_res5b_relu_0_split_0
I0920 17:20:23.304425 12587 net.cpp:380] res5c_branch2a -> res5c_branch2a
I0920 17:20:23.306442 12587 net.cpp:122] Setting up res5c_branch2a
I0920 17:20:23.306459 12587 net.cpp:129] Top shape: 8 512 7 7 (200704)
I0920 17:20:23.306462 12587 net.cpp:137] Memory required for data: 1832829024
I0920 17:20:23.306468 12587 layer_factory.hpp:77] Creating layer bn5c_branch2a
I0920 17:20:23.306474 12587 net.cpp:84] Creating Layer bn5c_branch2a
I0920 17:20:23.306478 12587 net.cpp:406] bn5c_branch2a <- res5c_branch2a
I0920 17:20:23.306483 12587 net.cpp:367] bn5c_branch2a -> res5c_branch2a (in-place)
I0920 17:20:23.306664 12587 net.cpp:122] Setting up bn5c_branch2a
I0920 17:20:23.306669 12587 net.cpp:129] Top shape: 8 512 7 7 (200704)
I0920 17:20:23.306671 12587 net.cpp:137] Memory required for data: 1833631840
I0920 17:20:23.306675 12587 layer_factory.hpp:77] Creating layer scale5c_branch2a
I0920 17:20:23.306679 12587 net.cpp:84] Creating Layer scale5c_branch2a
I0920 17:20:23.306682 12587 net.cpp:406] scale5c_branch2a <- res5c_branch2a
I0920 17:20:23.306684 12587 net.cpp:367] scale5c_branch2a -> res5c_branch2a (in-place)
I0920 17:20:23.306735 12587 layer_factory.hpp:77] Creating layer scale5c_branch2a
I0920 17:20:23.306854 12587 net.cpp:122] Setting up scale5c_branch2a
I0920 17:20:23.306859 12587 net.cpp:129] Top shape: 8 512 7 7 (200704)
I0920 17:20:23.306869 12587 net.cpp:137] Memory required for data: 1834434656
I0920 17:20:23.306874 12587 layer_factory.hpp:77] Creating layer res5c_branch2a_relu
I0920 17:20:23.306876 12587 net.cpp:84] Creating Layer res5c_branch2a_relu
I0920 17:20:23.306879 12587 net.cpp:406] res5c_branch2a_relu <- res5c_branch2a
I0920 17:20:23.306881 12587 net.cpp:367] res5c_branch2a_relu -> res5c_branch2a (in-place)
I0920 17:20:23.307231 12587 net.cpp:122] Setting up res5c_branch2a_relu
I0920 17:20:23.307238 12587 net.cpp:129] Top shape: 8 512 7 7 (200704)
I0920 17:20:23.307250 12587 net.cpp:137] Memory required for data: 1835237472
I0920 17:20:23.307252 12587 layer_factory.hpp:77] Creating layer res5c_branch2b
I0920 17:20:23.307257 12587 net.cpp:84] Creating Layer res5c_branch2b
I0920 17:20:23.307260 12587 net.cpp:406] res5c_branch2b <- res5c_branch2a
I0920 17:20:23.307263 12587 net.cpp:380] res5c_branch2b -> res5c_branch2b
I0920 17:20:23.312219 12587 net.cpp:122] Setting up res5c_branch2b
I0920 17:20:23.312259 12587 net.cpp:129] Top shape: 8 512 7 7 (200704)
I0920 17:20:23.312261 12587 net.cpp:137] Memory required for data: 1836040288
I0920 17:20:23.312268 12587 layer_factory.hpp:77] Creating layer bn5c_branch2b
I0920 17:20:23.312283 12587 net.cpp:84] Creating Layer bn5c_branch2b
I0920 17:20:23.312288 12587 net.cpp:406] bn5c_branch2b <- res5c_branch2b
I0920 17:20:23.312292 12587 net.cpp:367] bn5c_branch2b -> res5c_branch2b (in-place)
I0920 17:20:23.312503 12587 net.cpp:122] Setting up bn5c_branch2b
I0920 17:20:23.312508 12587 net.cpp:129] Top shape: 8 512 7 7 (200704)
I0920 17:20:23.312510 12587 net.cpp:137] Memory required for data: 1836843104
I0920 17:20:23.312515 12587 layer_factory.hpp:77] Creating layer scale5c_branch2b
I0920 17:20:23.312520 12587 net.cpp:84] Creating Layer scale5c_branch2b
I0920 17:20:23.312522 12587 net.cpp:406] scale5c_branch2b <- res5c_branch2b
I0920 17:20:23.312525 12587 net.cpp:367] scale5c_branch2b -> res5c_branch2b (in-place)
I0920 17:20:23.312567 12587 layer_factory.hpp:77] Creating layer scale5c_branch2b
I0920 17:20:23.312695 12587 net.cpp:122] Setting up scale5c_branch2b
I0920 17:20:23.312702 12587 net.cpp:129] Top shape: 8 512 7 7 (200704)
I0920 17:20:23.312705 12587 net.cpp:137] Memory required for data: 1837645920
I0920 17:20:23.312710 12587 layer_factory.hpp:77] Creating layer res5c_branch2b_relu
I0920 17:20:23.312714 12587 net.cpp:84] Creating Layer res5c_branch2b_relu
I0920 17:20:23.312717 12587 net.cpp:406] res5c_branch2b_relu <- res5c_branch2b
I0920 17:20:23.312721 12587 net.cpp:367] res5c_branch2b_relu -> res5c_branch2b (in-place)
I0920 17:20:23.312856 12587 net.cpp:122] Setting up res5c_branch2b_relu
I0920 17:20:23.312861 12587 net.cpp:129] Top shape: 8 512 7 7 (200704)
I0920 17:20:23.312865 12587 net.cpp:137] Memory required for data: 1838448736
I0920 17:20:23.312866 12587 layer_factory.hpp:77] Creating layer res5c_branch2c
I0920 17:20:23.312873 12587 net.cpp:84] Creating Layer res5c_branch2c
I0920 17:20:23.312875 12587 net.cpp:406] res5c_branch2c <- res5c_branch2b
I0920 17:20:23.312878 12587 net.cpp:380] res5c_branch2c -> res5c_branch2c
I0920 17:20:23.314985 12587 net.cpp:122] Setting up res5c_branch2c
I0920 17:20:23.314996 12587 net.cpp:129] Top shape: 8 2048 7 7 (802816)
I0920 17:20:23.314998 12587 net.cpp:137] Memory required for data: 1841660000
I0920 17:20:23.315001 12587 layer_factory.hpp:77] Creating layer bn5c_branch2c
I0920 17:20:23.315006 12587 net.cpp:84] Creating Layer bn5c_branch2c
I0920 17:20:23.315009 12587 net.cpp:406] bn5c_branch2c <- res5c_branch2c
I0920 17:20:23.315013 12587 net.cpp:367] bn5c_branch2c -> res5c_branch2c (in-place)
I0920 17:20:23.315429 12587 net.cpp:122] Setting up bn5c_branch2c
I0920 17:20:23.315438 12587 net.cpp:129] Top shape: 8 2048 7 7 (802816)
I0920 17:20:23.315439 12587 net.cpp:137] Memory required for data: 1844871264
I0920 17:20:23.315444 12587 layer_factory.hpp:77] Creating layer scale5c_branch2c
I0920 17:20:23.315449 12587 net.cpp:84] Creating Layer scale5c_branch2c
I0920 17:20:23.315451 12587 net.cpp:406] scale5c_branch2c <- res5c_branch2c
I0920 17:20:23.315454 12587 net.cpp:367] scale5c_branch2c -> res5c_branch2c (in-place)
I0920 17:20:23.315727 12587 layer_factory.hpp:77] Creating layer scale5c_branch2c
I0920 17:20:23.315814 12587 net.cpp:122] Setting up scale5c_branch2c
I0920 17:20:23.315819 12587 net.cpp:129] Top shape: 8 2048 7 7 (802816)
I0920 17:20:23.315820 12587 net.cpp:137] Memory required for data: 1848082528
I0920 17:20:23.315834 12587 layer_factory.hpp:77] Creating layer res5c
I0920 17:20:23.315838 12587 net.cpp:84] Creating Layer res5c
I0920 17:20:23.315840 12587 net.cpp:406] res5c <- res5b_res5b_relu_0_split_1
I0920 17:20:23.315843 12587 net.cpp:406] res5c <- res5c_branch2c
I0920 17:20:23.315846 12587 net.cpp:380] res5c -> res5c
I0920 17:20:23.315862 12587 net.cpp:122] Setting up res5c
I0920 17:20:23.315866 12587 net.cpp:129] Top shape: 8 2048 7 7 (802816)
I0920 17:20:23.315867 12587 net.cpp:137] Memory required for data: 1851293792
I0920 17:20:23.315870 12587 layer_factory.hpp:77] Creating layer res5c_relu
I0920 17:20:23.315872 12587 net.cpp:84] Creating Layer res5c_relu
I0920 17:20:23.315874 12587 net.cpp:406] res5c_relu <- res5c
I0920 17:20:23.315877 12587 net.cpp:367] res5c_relu -> res5c (in-place)
I0920 17:20:23.316232 12587 net.cpp:122] Setting up res5c_relu
I0920 17:20:23.316239 12587 net.cpp:129] Top shape: 8 2048 7 7 (802816)
I0920 17:20:23.316241 12587 net.cpp:137] Memory required for data: 1854505056
I0920 17:20:23.316253 12587 layer_factory.hpp:77] Creating layer pool5
I0920 17:20:23.316258 12587 net.cpp:84] Creating Layer pool5
I0920 17:20:23.316260 12587 net.cpp:406] pool5 <- res5c
I0920 17:20:23.316265 12587 net.cpp:380] pool5 -> pool5
I0920 17:20:23.316411 12587 net.cpp:122] Setting up pool5
I0920 17:20:23.316417 12587 net.cpp:129] Top shape: 8 2048 1 1 (16384)
I0920 17:20:23.316419 12587 net.cpp:137] Memory required for data: 1854570592
I0920 17:20:23.316421 12587 layer_factory.hpp:77] Creating layer fc1000
I0920 17:20:23.316426 12587 net.cpp:84] Creating Layer fc1000
I0920 17:20:23.316428 12587 net.cpp:406] fc1000 <- pool5
I0920 17:20:23.316431 12587 net.cpp:380] fc1000 -> fc1000
I0920 17:20:23.319075 12587 net.cpp:122] Setting up fc1000
I0920 17:20:23.319104 12587 net.cpp:129] Top shape: 8 1000 (8000)
I0920 17:20:23.319106 12587 net.cpp:137] Memory required for data: 1854602592
I0920 17:20:23.319118 12587 layer_factory.hpp:77] Creating layer drop5
I0920 17:20:23.319131 12587 net.cpp:84] Creating Layer drop5
I0920 17:20:23.319135 12587 net.cpp:406] drop5 <- fc1000
I0920 17:20:23.319140 12587 net.cpp:380] drop5 -> drop5
I0920 17:20:23.319186 12587 net.cpp:122] Setting up drop5
I0920 17:20:23.319190 12587 net.cpp:129] Top shape: 8 1000 (8000)
I0920 17:20:23.319191 12587 net.cpp:137] Memory required for data: 1854634592
I0920 17:20:23.319203 12587 layer_factory.hpp:77] Creating layer fc6
I0920 17:20:23.319206 12587 net.cpp:84] Creating Layer fc6
I0920 17:20:23.319208 12587 net.cpp:406] fc6 <- drop5
I0920 17:20:23.319211 12587 net.cpp:380] fc6 -> fc6
I0920 17:20:23.319286 12587 net.cpp:122] Setting up fc6
I0920 17:20:23.319290 12587 net.cpp:129] Top shape: 8 5 (40)
I0920 17:20:23.319291 12587 net.cpp:137] Memory required for data: 1854634752
I0920 17:20:23.319294 12587 layer_factory.hpp:77] Creating layer fc6_fc6_0_split
I0920 17:20:23.319298 12587 net.cpp:84] Creating Layer fc6_fc6_0_split
I0920 17:20:23.319300 12587 net.cpp:406] fc6_fc6_0_split <- fc6
I0920 17:20:23.319303 12587 net.cpp:380] fc6_fc6_0_split -> fc6_fc6_0_split_0
I0920 17:20:23.319308 12587 net.cpp:380] fc6_fc6_0_split -> fc6_fc6_0_split_1
I0920 17:20:23.319339 12587 net.cpp:122] Setting up fc6_fc6_0_split
I0920 17:20:23.319341 12587 net.cpp:129] Top shape: 8 5 (40)
I0920 17:20:23.319344 12587 net.cpp:129] Top shape: 8 5 (40)
I0920 17:20:23.319355 12587 net.cpp:137] Memory required for data: 1854635072
I0920 17:20:23.319356 12587 layer_factory.hpp:77] Creating layer softmax_loss_5
I0920 17:20:23.319360 12587 net.cpp:84] Creating Layer softmax_loss_5
I0920 17:20:23.319362 12587 net.cpp:406] softmax_loss_5 <- fc6_fc6_0_split_0
I0920 17:20:23.319365 12587 net.cpp:406] softmax_loss_5 <- label_data_1_split_0
I0920 17:20:23.319368 12587 net.cpp:380] softmax_loss_5 -> softmax_loss_5
…
