…
I0907 11:55:18.595170  7174 net.cpp:294] The NetState phase (0) differed from the phase (1) specified by a rule in layer mnist
I0907 11:55:18.595192  7174 net.cpp:294] The NetState phase (0) differed from the phase (1) specified by a rule in layer accuracy
I0907 11:55:18.595386  7174 net.cpp:51] Initializing net from parameters: 
name: "SpherefaceNet-20"
state {
  phase: TRAIN
  level: 0
  stage: ""
}
layer {
  name: "mnist"
  type: "Data"
  top: "data"
  top: "label"
  include {
    phase: TRAIN
  }
  transform_param {
    scale: 0.0078125
    mean_value: 127.5
  }
  data_param {
    source: "examples/mnist/mnist_train_lmdb"
    batch_size: 128
    backend: LMDB
  }
}
layer {
  name: "conv1_1"
  type: "Convolution"
  bottom: "data"
  top: "conv1_1"
  param {
    lr_mult: 1
    decay_mult: 1
  }
  param {
    lr_mult: 2
    decay_mult: 0
  }
  convolution_param {
    num_output: 64
    pad: 1
    kernel_size: 3
    stride: 2
    weight_filler {
      type: "xavier"
    }
    bias_filler {
      type: "constant"
      value: 0
    }
  }
}
layer {
  name: "relu1_1"
  type: "PReLU"
  bottom: "conv1_1"
  top: "conv1_1"
}
layer {
  name: "conv1_2"
  type: "Convolution"
  bottom: "conv1_1"
  top: "conv1_2"
  param {
    lr_mult: 1
    decay_mult: 1
  }
  param {
    lr_mult: 0
    decay_mult: 0
  }
  convolution_param {
    num_output: 64
    pad: 1
    kernel_size: 3
    stride: 1
    weight_filler {
      type: "gaussian"
      std: 0.01
    }
    bias_filler {
      type: "constant"
      value: 0
    }
  }
}
layer {
  name: "relu1_2"
  type: "PReLU"
  bottom: "conv1_2"
  top: "conv1_2"
}
layer {
  name: "conv1_3"
  type: "Convolution"
  bottom: "conv1_2"
  top: "conv1_3"
  param {
    lr_mult: 1
    decay_mult: 1
  }
  param {
    lr_mult: 0
    decay_mult: 0
  }
  convolution_param {
    num_output: 64
    pad: 1
    kernel_size: 3
    stride: 1
    weight_filler {
      type: "gaussian"
      std: 0.01
    }
    bias_filler {
      type: "constant"
      value: 0
    }
  }
}
layer {
  name: "relu1_3"
  type: "PReLU"
  bottom: "conv1_3"
  top: "conv1_3"
}
layer {
  name: "res1_3"
  type: "Eltwise"
  bottom: "conv1_1"
  bottom: "conv1_3"
  top: "res1_3"
  eltwise_param {
    operation: SUM
  }
}
layer {
  name: "conv2_1"
  type: "Convolution"
  bottom: "res1_3"
  top: "conv2_1"
  param {
    lr_mult: 1
    decay_mult: 1
  }
  param {
    lr_mult: 2
    decay_mult: 0
  }
  convolution_param {
    num_output: 128
    pad: 1
    kernel_size: 3
    stride: 2
    weight_filler {
      type: "xavier"
    }
    bias_filler {
      type: "constant"
      value: 0
    }
  }
}
layer {
  name: "relu2_1"
  type: "PReLU"
  bottom: "conv2_1"
  top: "conv2_1"
}
layer {
  name: "conv2_2"
  type: "Convolution"
  bottom: "conv2_1"
  top: "conv2_2"
  param {
    lr_mult: 1
    decay_mult: 1
  }
  param {
    lr_mult: 0
    decay_mult: 0
  }
  convolution_param {
    num_output: 128
    pad: 1
    kernel_size: 3
    stride: 1
    weight_filler {
      type: "gaussian"
      std: 0.01
    }
    bias_filler {
      type: "constant"
      value: 0
    }
  }
}
layer {
  name: "relu2_2"
  type: "PReLU"
  bottom: "conv2_2"
  top: "conv2_2"
}
layer {
  name: "conv2_3"
  type: "Convolution"
  bottom: "conv2_2"
  top: "conv2_3"
  param {
    lr_mult: 1
    decay_mult: 1
  }
  param {
    lr_mult: 0
    decay_mult: 0
  }
  convolution_param {
    num_output: 128
    pad: 1
    kernel_size: 3
    stride: 1
    weight_filler {
      type: "gaussian"
      std: 0.01
    }
    bias_filler {
      type: "constant"
      value: 0
    }
  }
}
layer {
  name: "relu2_3"
  type: "PReLU"
  bottom: "conv2_3"
  top: "conv2_3"
}
layer {
  name: "res2_3"
  type: "Eltwise"
  bottom: "conv2_1"
  bottom: "conv2_3"
  top: "res2_3"
  eltwise_param {
    operation: SUM
  }
}
layer {
  name: "conv2_4"
  type: "Convolution"
  bottom: "res2_3"
  top: "conv2_4"
  param {
    lr_mult: 1
    decay_mult: 1
  }
  param {
    lr_mult: 0
    decay_mult: 0
  }
  convolution_param {
    num_output: 128
    pad: 1
    kernel_size: 3
    stride: 1
    weight_filler {
      type: "gaussian"
      std: 0.01
    }
    bias_filler {
      type: "constant"
      value: 0
    }
  }
}
layer {
  name: "relu2_4"
  type: "PReLU"
  bottom: "conv2_4"
  top: "conv2_4"
}
layer {
  name: "conv2_5"
  type: "Convolution"
  bottom: "conv2_4"
  top: "conv2_5"
  param {
    lr_mult: 1
    decay_mult: 1
  }
  param {
    lr_mult: 0
    decay_mult: 0
  }
  convolution_param {
    num_output: 128
    pad: 1
    kernel_size: 3
    stride: 1
    weight_filler {
      type: "gaussian"
      std: 0.01
    }
    bias_filler {
      type: "constant"
      value: 0
    }
  }
}
layer {
  name: "relu2_5"
  type: "PReLU"
  bottom: "conv2_5"
  top: "conv2_5"
}
layer {
  name: "res2_5"
  type: "Eltwise"
  bottom: "res2_3"
  bottom: "conv2_5"
  top: "res2_5"
  eltwise_param {
    operation: SUM
  }
}
layer {
  name: "conv3_1"
  type: "Convolution"
  bottom: "res2_5"
  top: "conv3_1"
  param {
    lr_mult: 1
    decay_mult: 1
  }
  param {
    lr_mult: 2
    decay_mult: 0
  }
  convolution_param {
    num_output: 256
    pad: 1
    kernel_size: 3
    stride: 2
    weight_filler {
      type: "xavier"
    }
    bias_filler {
      type: "constant"
      value: 0
    }
  }
}
layer {
  name: "relu3_1"
  type: "PReLU"
  bottom: "conv3_1"
  top: "conv3_1"
}
layer {
  name: "conv3_2"
  type: "Convolution"
  bottom: "conv3_1"
  top: "conv3_2"
  param {
    lr_mult: 1
    decay_mult: 1
  }
  param {
    lr_mult: 0
    decay_mult: 0
  }
  convolution_param {
    num_output: 256
    pad: 1
    kernel_size: 3
    stride: 1
    weight_filler {
      type: "gaussian"
      std: 0.01
    }
    bias_filler {
      type: "constant"
      value: 0
    }
  }
}
layer {
  name: "relu3_2"
  type: "PReLU"
  bottom: "conv3_2"
  top: "conv3_2"
}
layer {
  name: "conv3_3"
  type: "Convolution"
  bottom: "conv3_2"
  top: "conv3_3"
  param {
    lr_mult: 1
    decay_mult: 1
  }
  param {
    lr_mult: 0
    decay_mult: 0
  }
  convolution_param {
    num_output: 256
    pad: 1
    kernel_size: 3
    stride: 1
    weight_filler {
      type: "gaussian"
      std: 0.01
    }
    bias_filler {
      type: "constant"
      value: 0
    }
  }
}
layer {
  name: "relu3_3"
  type: "PReLU"
  bottom: "conv3_3"
  top: "conv3_3"
}
layer {
  name: "res3_3"
  type: "Eltwise"
  bottom: "conv3_1"
  bottom: "conv3_3"
  top: "res3_3"
  eltwise_param {
    operation: SUM
  }
}
layer {
  name: "conv3_4"
  type: "Convolution"
  bottom: "res3_3"
  top: "conv3_4"
  param {
    lr_mult: 1
    decay_mult: 1
  }
  param {
    lr_mult: 0
    decay_mult: 0
  }
  convolution_param {
    num_output: 256
    pad: 1
    kernel_size: 3
    stride: 1
    weight_filler {
      type: "gaussian"
      std: 0.01
    }
    bias_filler {
      type: "constant"
      value: 0
    }
  }
}
layer {
  name: "relu3_4"
  type: "PReLU"
  bottom: "conv3_4"
  top: "conv3_4"
}
layer {
  name: "conv3_5"
  type: "Convolution"
  bottom: "conv3_4"
  top: "conv3_5"
  param {
    lr_mult: 1
    decay_mult: 1
  }
  param {
    lr_mult: 0
    decay_mult: 0
  }
  convolution_param {
    num_output: 256
    pad: 1
    kernel_size: 3
    stride: 1
    weight_filler {
      type: "gaussian"
      std: 0.01
    }
    bias_filler {
      type: "constant"
      value: 0
    }
  }
}
layer {
  name: "relu3_5"
  type: "PReLU"
  bottom: "conv3_5"
  top: "conv3_5"
}
layer {
  name: "res3_5"
  type: "Eltwise"
  bottom: "res3_3"
  bottom: "conv3_5"
  top: "res3_5"
  eltwise_param {
    operation: SUM
  }
}
layer {
  name: "conv3_6"
  type: "Convolution"
  bottom: "res3_5"
  top: "conv3_6"
  param {
    lr_mult: 1
    decay_mult: 1
  }
  param {
    lr_mult: 0
    decay_mult: 0
  }
  convolution_param {
    num_output: 256
    pad: 1
    kernel_size: 3
    stride: 1
    weight_filler {
      type: "gaussian"
      std: 0.01
    }
    bias_filler {
      type: "constant"
      value: 0
    }
  }
}
layer {
  name: "relu3_6"
  type: "PReLU"
  bottom: "conv3_6"
  top: "conv3_6"
}
layer {
  name: "conv3_7"
  type: "Convolution"
  bottom: "conv3_6"
  top: "conv3_7"
  param {
    lr_mult: 1
    decay_mult: 1
  }
  param {
    lr_mult: 0
    decay_mult: 0
  }
  convolution_param {
    num_output: 256
    pad: 1
    kernel_size: 3
    stride: 1
    weight_filler {
      type: "gaussian"
      std: 0.01
    }
    bias_filler {
      type: "constant"
      value: 0
    }
  }
}
layer {
  name: "relu3_7"
  type: "PReLU"
  bottom: "conv3_7"
  top: "conv3_7"
}
layer {
  name: "res3_7"
  type: "Eltwise"
  bottom: "res3_5"
  bottom: "conv3_7"
  top: "res3_7"
  eltwise_param {
    operation: SUM
  }
}
layer {
  name: "conv3_8"
  type: "Convolution"
  bottom: "res3_7"
  top: "conv3_8"
  param {
    lr_mult: 1
    decay_mult: 1
  }
  param {
    lr_mult: 0
    decay_mult: 0
  }
  convolution_param {
    num_output: 256
    pad: 1
    kernel_size: 3
    stride: 1
    weight_filler {
      type: "gaussian"
      std: 0.01
    }
    bias_filler {
      type: "constant"
      value: 0
    }
  }
}
layer {
  name: "relu3_8"
  type: "PReLU"
  bottom: "conv3_8"
  top: "conv3_8"
}
layer {
  name: "conv3_9"
  type: "Convolution"
  bottom: "conv3_8"
  top: "conv3_9"
  param {
    lr_mult: 1
    decay_mult: 1
  }
  param {
    lr_mult: 0
    decay_mult: 0
  }
  convolution_param {
    num_output: 256
    pad: 1
    kernel_size: 3
    stride: 1
    weight_filler {
      type: "gaussian"
      std: 0.01
    }
    bias_filler {
      type: "constant"
      value: 0
    }
  }
}
layer {
  name: "relu3_9"
  type: "PReLU"
  bottom: "conv3_9"
  top: "conv3_9"
}
layer {
  name: "res3_9"
  type: "Eltwise"
  bottom: "res3_7"
  bottom: "conv3_9"
  top: "res3_9"
  eltwise_param {
    operation: SUM
  }
}
layer {
  name: "conv4_1"
  type: "Convolution"
  bottom: "res3_9"
  top: "conv4_1"
  param {
    lr_mult: 1
    decay_mult: 1
  }
  param {
    lr_mult: 2
    decay_mult: 0
  }
  convolution_param {
    num_output: 512
    pad: 1
    kernel_size: 3
    stride: 2
    weight_filler {
      type: "xavier"
    }
    bias_filler {
      type: "constant"
      value: 0
    }
  }
}
layer {
  name: "relu4_1"
  type: "PReLU"
  bottom: "conv4_1"
  top: "conv4_1"
}
layer {
  name: "conv4_2"
  type: "Convolution"
  bottom: "conv4_1"
  top: "conv4_2"
  param {
    lr_mult: 1
    decay_mult: 1
  }
  param {
    lr_mult: 0
    decay_mult: 0
  }
  convolution_param {
    num_output: 512
    pad: 1
    kernel_size: 3
    stride: 1
    weight_filler {
      type: "gaussian"
      std: 0.01
    }
    bias_filler {
      type: "constant"
      value: 0
    }
  }
}
layer {
  name: "relu4_2"
  type: "PReLU"
  bottom: "conv4_2"
  top: "conv4_2"
}
layer {
  name: "conv4_3"
  type: "Convolution"
  bottom: "conv4_2"
  top: "conv4_3"
  param {
    lr_mult: 1
    decay_mult: 1
  }
  param {
    lr_mult: 0
    decay_mult: 0
  }
  convolution_param {
    num_output: 512
    pad: 1
    kernel_size: 3
    stride: 1
    weight_filler {
      type: "gaussian"
      std: 0.01
    }
    bias_filler {
      type: "constant"
      value: 0
    }
  }
}
layer {
  name: "relu4_3"
  type: "PReLU"
  bottom: "conv4_3"
  top: "conv4_3"
}
layer {
  name: "res4_3"
  type: "Eltwise"
  bottom: "conv4_1"
  bottom: "conv4_3"
  top: "res4_3"
  eltwise_param {
    operation: SUM
  }
}
layer {
  name: "fc5"
  type: "InnerProduct"
  bottom: "res4_3"
  top: "fc5"
  param {
    lr_mult: 1
    decay_mult: 1
  }
  param {
    lr_mult: 2
    decay_mult: 0
  }
  inner_product_param {
    num_output: 512
    weight_filler {
      type: "xavier"
    }
    bias_filler {
      type: "constant"
      value: 0
    }
  }
}
layer {
  name: "ip2"
  type: "ModifiedInnerProduct"
  bottom: "fc5"
  top: "fc6"
  top: "weight"
  param {
    lr_mult: 1
    decay_mult: 1
  }
  modified_inner_product_param {
    num_output: 10
    bias_term: false
    weight_filler {
      type: "xavier"
    }
    cluster: true
  }
}
layer {
  name: "softmax_loss"
  type: "SoftmaxWithLoss"
  bottom: "fc6"
  bottom: "label"
  top: "softmax_loss"
}
layer {
  name: "norm_weight"
  type: "Normalize"
  bottom: "weight"
  top: "norm_weight"
}
layer {
  name: "norm_fc6"
  type: "Normalize"
  bottom: "fc5"
  top: "norm_fc5"
}
layer {
  name: "cluster_loss"
  type: "ClusterLoss"
  bottom: "norm_weight"
  bottom: "norm_fc5"
  bottom: "label"
  top: "cluster_loss"
  loss_weight: 1
  cluster_loss_param {
    alpha: 0.001
  }
}
I0907 11:55:18.595551  7174 layer_factory.hpp:77] Creating layer mnist
I0907 11:55:18.597954  7174 db_lmdb.cpp:35] Opened lmdb examples/mnist/mnist_train_lmdb
I0907 11:55:18.598757  7174 net.cpp:84] Creating Layer mnist
I0907 11:55:18.598768  7174 net.cpp:380] mnist -> data
I0907 11:55:18.598784  7174 net.cpp:380] mnist -> label
I0907 11:55:18.599191  7174 data_layer.cpp:45] output data size: 128,1,28,28
I0907 11:55:18.601214  7174 net.cpp:122] Setting up mnist
I0907 11:55:18.601227  7174 net.cpp:129] Top shape: 128 1 28 28 (100352)
I0907 11:55:18.601230  7174 net.cpp:129] Top shape: 128 (128)
I0907 11:55:18.601231  7174 net.cpp:137] Memory required for data: 401920
I0907 11:55:18.601236  7174 layer_factory.hpp:77] Creating layer label_mnist_1_split
I0907 11:55:18.601243  7174 net.cpp:84] Creating Layer label_mnist_1_split
I0907 11:55:18.601258  7174 net.cpp:406] label_mnist_1_split <- label
I0907 11:55:18.601272  7174 net.cpp:380] label_mnist_1_split -> label_mnist_1_split_0
I0907 11:55:18.601281  7174 net.cpp:380] label_mnist_1_split -> label_mnist_1_split_1
I0907 11:55:18.601315  7174 net.cpp:122] Setting up label_mnist_1_split
I0907 11:55:18.601320  7174 net.cpp:129] Top shape: 128 (128)
I0907 11:55:18.601321  7174 net.cpp:129] Top shape: 128 (128)
I0907 11:55:18.601325  7174 net.cpp:137] Memory required for data: 402944
I0907 11:55:18.601327  7174 layer_factory.hpp:77] Creating layer conv1_1
I0907 11:55:18.601342  7174 net.cpp:84] Creating Layer conv1_1
I0907 11:55:18.601347  7174 net.cpp:406] conv1_1 <- data
I0907 11:55:18.601352  7174 net.cpp:380] conv1_1 -> conv1_1
I0907 11:55:19.043927  7174 net.cpp:122] Setting up conv1_1
I0907 11:55:19.043949  7174 net.cpp:129] Top shape: 128 64 14 14 (1605632)
I0907 11:55:19.043951  7174 net.cpp:137] Memory required for data: 6825472
I0907 11:55:19.043967  7174 layer_factory.hpp:77] Creating layer relu1_1
I0907 11:55:19.043977  7174 net.cpp:84] Creating Layer relu1_1
I0907 11:55:19.043980  7174 net.cpp:406] relu1_1 <- conv1_1
I0907 11:55:19.043985  7174 net.cpp:367] relu1_1 -> conv1_1 (in-place)
I0907 11:55:19.044355  7174 net.cpp:122] Setting up relu1_1
I0907 11:55:19.044363  7174 net.cpp:129] Top shape: 128 64 14 14 (1605632)
I0907 11:55:19.044365  7174 net.cpp:137] Memory required for data: 13248000
I0907 11:55:19.044370  7174 layer_factory.hpp:77] Creating layer conv1_1_relu1_1_0_split
I0907 11:55:19.044375  7174 net.cpp:84] Creating Layer conv1_1_relu1_1_0_split
I0907 11:55:19.044378  7174 net.cpp:406] conv1_1_relu1_1_0_split <- conv1_1
I0907 11:55:19.044381  7174 net.cpp:380] conv1_1_relu1_1_0_split -> conv1_1_relu1_1_0_split_0
I0907 11:55:19.044389  7174 net.cpp:380] conv1_1_relu1_1_0_split -> conv1_1_relu1_1_0_split_1
I0907 11:55:19.044421  7174 net.cpp:122] Setting up conv1_1_relu1_1_0_split
I0907 11:55:19.044427  7174 net.cpp:129] Top shape: 128 64 14 14 (1605632)
I0907 11:55:19.044430  7174 net.cpp:129] Top shape: 128 64 14 14 (1605632)
I0907 11:55:19.044431  7174 net.cpp:137] Memory required for data: 26093056
I0907 11:55:19.044433  7174 layer_factory.hpp:77] Creating layer conv1_2
I0907 11:55:19.044440  7174 net.cpp:84] Creating Layer conv1_2
I0907 11:55:19.044443  7174 net.cpp:406] conv1_2 <- conv1_1_relu1_1_0_split_0
I0907 11:55:19.044447  7174 net.cpp:380] conv1_2 -> conv1_2
I0907 11:55:19.046906  7174 net.cpp:122] Setting up conv1_2
I0907 11:55:19.046916  7174 net.cpp:129] Top shape: 128 64 14 14 (1605632)
I0907 11:55:19.046917  7174 net.cpp:137] Memory required for data: 32515584
I0907 11:55:19.046924  7174 layer_factory.hpp:77] Creating layer relu1_2
I0907 11:55:19.046931  7174 net.cpp:84] Creating Layer relu1_2
I0907 11:55:19.046936  7174 net.cpp:406] relu1_2 <- conv1_2
I0907 11:55:19.046942  7174 net.cpp:367] relu1_2 -> conv1_2 (in-place)
I0907 11:55:19.047013  7174 net.cpp:122] Setting up relu1_2
I0907 11:55:19.047019  7174 net.cpp:129] Top shape: 128 64 14 14 (1605632)
I0907 11:55:19.047020  7174 net.cpp:137] Memory required for data: 38938112
I0907 11:55:19.047024  7174 layer_factory.hpp:77] Creating layer conv1_3
I0907 11:55:19.047034  7174 net.cpp:84] Creating Layer conv1_3
I0907 11:55:19.047039  7174 net.cpp:406] conv1_3 <- conv1_2
I0907 11:55:19.047045  7174 net.cpp:380] conv1_3 -> conv1_3
I0907 11:55:19.048696  7174 net.cpp:122] Setting up conv1_3
I0907 11:55:19.048705  7174 net.cpp:129] Top shape: 128 64 14 14 (1605632)
I0907 11:55:19.048709  7174 net.cpp:137] Memory required for data: 45360640
I0907 11:55:19.048715  7174 layer_factory.hpp:77] Creating layer relu1_3
I0907 11:55:19.048723  7174 net.cpp:84] Creating Layer relu1_3
I0907 11:55:19.048728  7174 net.cpp:406] relu1_3 <- conv1_3
I0907 11:55:19.048734  7174 net.cpp:367] relu1_3 -> conv1_3 (in-place)
I0907 11:55:19.048800  7174 net.cpp:122] Setting up relu1_3
I0907 11:55:19.048806  7174 net.cpp:129] Top shape: 128 64 14 14 (1605632)
I0907 11:55:19.048808  7174 net.cpp:137] Memory required for data: 51783168
I0907 11:55:19.048815  7174 layer_factory.hpp:77] Creating layer res1_3
I0907 11:55:19.048823  7174 net.cpp:84] Creating Layer res1_3
I0907 11:55:19.048830  7174 net.cpp:406] res1_3 <- conv1_1_relu1_1_0_split_1
I0907 11:55:19.048833  7174 net.cpp:406] res1_3 <- conv1_3
I0907 11:55:19.048840  7174 net.cpp:380] res1_3 -> res1_3
I0907 11:55:19.048863  7174 net.cpp:122] Setting up res1_3
I0907 11:55:19.048868  7174 net.cpp:129] Top shape: 128 64 14 14 (1605632)
I0907 11:55:19.048869  7174 net.cpp:137] Memory required for data: 58205696
I0907 11:55:19.048872  7174 layer_factory.hpp:77] Creating layer conv2_1
I0907 11:55:19.048882  7174 net.cpp:84] Creating Layer conv2_1
I0907 11:55:19.048887  7174 net.cpp:406] conv2_1 <- res1_3
I0907 11:55:19.048894  7174 net.cpp:380] conv2_1 -> conv2_1
I0907 11:55:19.050535  7174 net.cpp:122] Setting up conv2_1
I0907 11:55:19.050544  7174 net.cpp:129] Top shape: 128 128 7 7 (802816)
I0907 11:55:19.050546  7174 net.cpp:137] Memory required for data: 61416960
I0907 11:55:19.050552  7174 layer_factory.hpp:77] Creating layer relu2_1
I0907 11:55:19.050559  7174 net.cpp:84] Creating Layer relu2_1
I0907 11:55:19.050565  7174 net.cpp:406] relu2_1 <- conv2_1
I0907 11:55:19.050570  7174 net.cpp:367] relu2_1 -> conv2_1 (in-place)
I0907 11:55:19.050631  7174 net.cpp:122] Setting up relu2_1
I0907 11:55:19.050637  7174 net.cpp:129] Top shape: 128 128 7 7 (802816)
I0907 11:55:19.050638  7174 net.cpp:137] Memory required for data: 64628224
I0907 11:55:19.050642  7174 layer_factory.hpp:77] Creating layer conv2_1_relu2_1_0_split
I0907 11:55:19.050647  7174 net.cpp:84] Creating Layer conv2_1_relu2_1_0_split
I0907 11:55:19.050652  7174 net.cpp:406] conv2_1_relu2_1_0_split <- conv2_1
I0907 11:55:19.050657  7174 net.cpp:380] conv2_1_relu2_1_0_split -> conv2_1_relu2_1_0_split_0
I0907 11:55:19.050665  7174 net.cpp:380] conv2_1_relu2_1_0_split -> conv2_1_relu2_1_0_split_1
I0907 11:55:19.050698  7174 net.cpp:122] Setting up conv2_1_relu2_1_0_split
I0907 11:55:19.050704  7174 net.cpp:129] Top shape: 128 128 7 7 (802816)
I0907 11:55:19.050707  7174 net.cpp:129] Top shape: 128 128 7 7 (802816)
I0907 11:55:19.050709  7174 net.cpp:137] Memory required for data: 71050752
I0907 11:55:19.050712  7174 layer_factory.hpp:77] Creating layer conv2_2
I0907 11:55:19.050724  7174 net.cpp:84] Creating Layer conv2_2
I0907 11:55:19.050729  7174 net.cpp:406] conv2_2 <- conv2_1_relu2_1_0_split_0
I0907 11:55:19.050745  7174 net.cpp:380] conv2_2 -> conv2_2
I0907 11:55:19.053078  7174 net.cpp:122] Setting up conv2_2
I0907 11:55:19.053086  7174 net.cpp:129] Top shape: 128 128 7 7 (802816)
I0907 11:55:19.053089  7174 net.cpp:137] Memory required for data: 74262016
I0907 11:55:19.053094  7174 layer_factory.hpp:77] Creating layer relu2_2
I0907 11:55:19.053102  7174 net.cpp:84] Creating Layer relu2_2
I0907 11:55:19.053107  7174 net.cpp:406] relu2_2 <- conv2_2
I0907 11:55:19.053112  7174 net.cpp:367] relu2_2 -> conv2_2 (in-place)
I0907 11:55:19.053174  7174 net.cpp:122] Setting up relu2_2
I0907 11:55:19.053181  7174 net.cpp:129] Top shape: 128 128 7 7 (802816)
I0907 11:55:19.053185  7174 net.cpp:137] Memory required for data: 77473280
I0907 11:55:19.053189  7174 layer_factory.hpp:77] Creating layer conv2_3
I0907 11:55:19.053200  7174 net.cpp:84] Creating Layer conv2_3
I0907 11:55:19.053205  7174 net.cpp:406] conv2_3 <- conv2_2
I0907 11:55:19.053212  7174 net.cpp:380] conv2_3 -> conv2_3
I0907 11:55:19.055507  7174 net.cpp:122] Setting up conv2_3
I0907 11:55:19.055516  7174 net.cpp:129] Top shape: 128 128 7 7 (802816)
I0907 11:55:19.055518  7174 net.cpp:137] Memory required for data: 80684544
I0907 11:55:19.055527  7174 layer_factory.hpp:77] Creating layer relu2_3
I0907 11:55:19.055536  7174 net.cpp:84] Creating Layer relu2_3
I0907 11:55:19.055542  7174 net.cpp:406] relu2_3 <- conv2_3
I0907 11:55:19.055547  7174 net.cpp:367] relu2_3 -> conv2_3 (in-place)
I0907 11:55:19.055613  7174 net.cpp:122] Setting up relu2_3
I0907 11:55:19.055619  7174 net.cpp:129] Top shape: 128 128 7 7 (802816)
I0907 11:55:19.055619  7174 net.cpp:137] Memory required for data: 83895808
I0907 11:55:19.055624  7174 layer_factory.hpp:77] Creating layer res2_3
I0907 11:55:19.055632  7174 net.cpp:84] Creating Layer res2_3
I0907 11:55:19.055636  7174 net.cpp:406] res2_3 <- conv2_1_relu2_1_0_split_1
I0907 11:55:19.055640  7174 net.cpp:406] res2_3 <- conv2_3
I0907 11:55:19.055646  7174 net.cpp:380] res2_3 -> res2_3
I0907 11:55:19.055670  7174 net.cpp:122] Setting up res2_3
I0907 11:55:19.055675  7174 net.cpp:129] Top shape: 128 128 7 7 (802816)
I0907 11:55:19.055676  7174 net.cpp:137] Memory required for data: 87107072
I0907 11:55:19.055680  7174 layer_factory.hpp:77] Creating layer res2_3_res2_3_0_split
I0907 11:55:19.055685  7174 net.cpp:84] Creating Layer res2_3_res2_3_0_split
I0907 11:55:19.055690  7174 net.cpp:406] res2_3_res2_3_0_split <- res2_3
I0907 11:55:19.055694  7174 net.cpp:380] res2_3_res2_3_0_split -> res2_3_res2_3_0_split_0
I0907 11:55:19.055704  7174 net.cpp:380] res2_3_res2_3_0_split -> res2_3_res2_3_0_split_1
I0907 11:55:19.055734  7174 net.cpp:122] Setting up res2_3_res2_3_0_split
I0907 11:55:19.055739  7174 net.cpp:129] Top shape: 128 128 7 7 (802816)
I0907 11:55:19.055742  7174 net.cpp:129] Top shape: 128 128 7 7 (802816)
I0907 11:55:19.055744  7174 net.cpp:137] Memory required for data: 93529600
I0907 11:55:19.055747  7174 layer_factory.hpp:77] Creating layer conv2_4
I0907 11:55:19.055757  7174 net.cpp:84] Creating Layer conv2_4
I0907 11:55:19.055761  7174 net.cpp:406] conv2_4 <- res2_3_res2_3_0_split_0
I0907 11:55:19.055768  7174 net.cpp:380] conv2_4 -> conv2_4
I0907 11:55:19.058362  7174 net.cpp:122] Setting up conv2_4
I0907 11:55:19.058370  7174 net.cpp:129] Top shape: 128 128 7 7 (802816)
I0907 11:55:19.058373  7174 net.cpp:137] Memory required for data: 96740864
I0907 11:55:19.058379  7174 layer_factory.hpp:77] Creating layer relu2_4
I0907 11:55:19.058385  7174 net.cpp:84] Creating Layer relu2_4
I0907 11:55:19.058389  7174 net.cpp:406] relu2_4 <- conv2_4
I0907 11:55:19.058396  7174 net.cpp:367] relu2_4 -> conv2_4 (in-place)
I0907 11:55:19.058459  7174 net.cpp:122] Setting up relu2_4
I0907 11:55:19.058464  7174 net.cpp:129] Top shape: 128 128 7 7 (802816)
I0907 11:55:19.058465  7174 net.cpp:137] Memory required for data: 99952128
I0907 11:55:19.058468  7174 layer_factory.hpp:77] Creating layer conv2_5
I0907 11:55:19.058480  7174 net.cpp:84] Creating Layer conv2_5
I0907 11:55:19.058485  7174 net.cpp:406] conv2_5 <- conv2_4
I0907 11:55:19.058499  7174 net.cpp:380] conv2_5 -> conv2_5
I0907 11:55:19.061100  7174 net.cpp:122] Setting up conv2_5
I0907 11:55:19.061110  7174 net.cpp:129] Top shape: 128 128 7 7 (802816)
I0907 11:55:19.061111  7174 net.cpp:137] Memory required for data: 103163392
I0907 11:55:19.061117  7174 layer_factory.hpp:77] Creating layer relu2_5
I0907 11:55:19.061123  7174 net.cpp:84] Creating Layer relu2_5
I0907 11:55:19.061128  7174 net.cpp:406] relu2_5 <- conv2_5
I0907 11:55:19.061134  7174 net.cpp:367] relu2_5 -> conv2_5 (in-place)
I0907 11:55:19.061199  7174 net.cpp:122] Setting up relu2_5
I0907 11:55:19.061204  7174 net.cpp:129] Top shape: 128 128 7 7 (802816)
I0907 11:55:19.061206  7174 net.cpp:137] Memory required for data: 106374656
I0907 11:55:19.061210  7174 layer_factory.hpp:77] Creating layer res2_5
I0907 11:55:19.061218  7174 net.cpp:84] Creating Layer res2_5
I0907 11:55:19.061221  7174 net.cpp:406] res2_5 <- res2_3_res2_3_0_split_1
I0907 11:55:19.061225  7174 net.cpp:406] res2_5 <- conv2_5
I0907 11:55:19.061233  7174 net.cpp:380] res2_5 -> res2_5
I0907 11:55:19.061257  7174 net.cpp:122] Setting up res2_5
I0907 11:55:19.061262  7174 net.cpp:129] Top shape: 128 128 7 7 (802816)
I0907 11:55:19.061264  7174 net.cpp:137] Memory required for data: 109585920
I0907 11:55:19.061267  7174 layer_factory.hpp:77] Creating layer conv3_1
I0907 11:55:19.061276  7174 net.cpp:84] Creating Layer conv3_1
I0907 11:55:19.061280  7174 net.cpp:406] conv3_1 <- res2_5
I0907 11:55:19.061288  7174 net.cpp:380] conv3_1 -> conv3_1
I0907 11:55:19.063711  7174 net.cpp:122] Setting up conv3_1
I0907 11:55:19.063720  7174 net.cpp:129] Top shape: 128 256 4 4 (524288)
I0907 11:55:19.063722  7174 net.cpp:137] Memory required for data: 111683072
I0907 11:55:19.063729  7174 layer_factory.hpp:77] Creating layer relu3_1
I0907 11:55:19.063735  7174 net.cpp:84] Creating Layer relu3_1
I0907 11:55:19.063740  7174 net.cpp:406] relu3_1 <- conv3_1
I0907 11:55:19.063745  7174 net.cpp:367] relu3_1 -> conv3_1 (in-place)
I0907 11:55:19.064066  7174 net.cpp:122] Setting up relu3_1
I0907 11:55:19.064074  7174 net.cpp:129] Top shape: 128 256 4 4 (524288)
I0907 11:55:19.064076  7174 net.cpp:137] Memory required for data: 113780224
I0907 11:55:19.064081  7174 layer_factory.hpp:77] Creating layer conv3_1_relu3_1_0_split
I0907 11:55:19.064090  7174 net.cpp:84] Creating Layer conv3_1_relu3_1_0_split
I0907 11:55:19.064093  7174 net.cpp:406] conv3_1_relu3_1_0_split <- conv3_1
I0907 11:55:19.064100  7174 net.cpp:380] conv3_1_relu3_1_0_split -> conv3_1_relu3_1_0_split_0
I0907 11:55:19.064108  7174 net.cpp:380] conv3_1_relu3_1_0_split -> conv3_1_relu3_1_0_split_1
I0907 11:55:19.064141  7174 net.cpp:122] Setting up conv3_1_relu3_1_0_split
I0907 11:55:19.064146  7174 net.cpp:129] Top shape: 128 256 4 4 (524288)
I0907 11:55:19.064148  7174 net.cpp:129] Top shape: 128 256 4 4 (524288)
I0907 11:55:19.064151  7174 net.cpp:137] Memory required for data: 117974528
I0907 11:55:19.064153  7174 layer_factory.hpp:77] Creating layer conv3_2
I0907 11:55:19.064164  7174 net.cpp:84] Creating Layer conv3_2
I0907 11:55:19.064169  7174 net.cpp:406] conv3_2 <- conv3_1_relu3_1_0_split_0
I0907 11:55:19.064175  7174 net.cpp:380] conv3_2 -> conv3_2
I0907 11:55:19.069783  7174 net.cpp:122] Setting up conv3_2
I0907 11:55:19.069793  7174 net.cpp:129] Top shape: 128 256 4 4 (524288)
I0907 11:55:19.069797  7174 net.cpp:137] Memory required for data: 120071680
I0907 11:55:19.069802  7174 layer_factory.hpp:77] Creating layer relu3_2
I0907 11:55:19.069809  7174 net.cpp:84] Creating Layer relu3_2
I0907 11:55:19.069814  7174 net.cpp:406] relu3_2 <- conv3_2
I0907 11:55:19.069821  7174 net.cpp:367] relu3_2 -> conv3_2 (in-place)
I0907 11:55:19.069886  7174 net.cpp:122] Setting up relu3_2
I0907 11:55:19.069891  7174 net.cpp:129] Top shape: 128 256 4 4 (524288)
I0907 11:55:19.069893  7174 net.cpp:137] Memory required for data: 122168832
I0907 11:55:19.069897  7174 layer_factory.hpp:77] Creating layer conv3_3
I0907 11:55:19.069908  7174 net.cpp:84] Creating Layer conv3_3
I0907 11:55:19.069913  7174 net.cpp:406] conv3_3 <- conv3_2
I0907 11:55:19.069936  7174 net.cpp:380] conv3_3 -> conv3_3
I0907 11:55:19.075529  7174 net.cpp:122] Setting up conv3_3
I0907 11:55:19.075541  7174 net.cpp:129] Top shape: 128 256 4 4 (524288)
I0907 11:55:19.075542  7174 net.cpp:137] Memory required for data: 124265984
I0907 11:55:19.075549  7174 layer_factory.hpp:77] Creating layer relu3_3
I0907 11:55:19.075557  7174 net.cpp:84] Creating Layer relu3_3
I0907 11:55:19.075562  7174 net.cpp:406] relu3_3 <- conv3_3
I0907 11:55:19.075567  7174 net.cpp:367] relu3_3 -> conv3_3 (in-place)
I0907 11:55:19.075634  7174 net.cpp:122] Setting up relu3_3
I0907 11:55:19.075639  7174 net.cpp:129] Top shape: 128 256 4 4 (524288)
I0907 11:55:19.075640  7174 net.cpp:137] Memory required for data: 126363136
I0907 11:55:19.075651  7174 layer_factory.hpp:77] Creating layer res3_3
I0907 11:55:19.075659  7174 net.cpp:84] Creating Layer res3_3
I0907 11:55:19.075664  7174 net.cpp:406] res3_3 <- conv3_1_relu3_1_0_split_1
I0907 11:55:19.075667  7174 net.cpp:406] res3_3 <- conv3_3
I0907 11:55:19.075675  7174 net.cpp:380] res3_3 -> res3_3
I0907 11:55:19.075700  7174 net.cpp:122] Setting up res3_3
I0907 11:55:19.075704  7174 net.cpp:129] Top shape: 128 256 4 4 (524288)
I0907 11:55:19.075706  7174 net.cpp:137] Memory required for data: 128460288
I0907 11:55:19.075708  7174 layer_factory.hpp:77] Creating layer res3_3_res3_3_0_split
I0907 11:55:19.075719  7174 net.cpp:84] Creating Layer res3_3_res3_3_0_split
I0907 11:55:19.075723  7174 net.cpp:406] res3_3_res3_3_0_split <- res3_3
I0907 11:55:19.075729  7174 net.cpp:380] res3_3_res3_3_0_split -> res3_3_res3_3_0_split_0
I0907 11:55:19.075737  7174 net.cpp:380] res3_3_res3_3_0_split -> res3_3_res3_3_0_split_1
I0907 11:55:19.075769  7174 net.cpp:122] Setting up res3_3_res3_3_0_split
I0907 11:55:19.075774  7174 net.cpp:129] Top shape: 128 256 4 4 (524288)
I0907 11:55:19.075776  7174 net.cpp:129] Top shape: 128 256 4 4 (524288)
I0907 11:55:19.075779  7174 net.cpp:137] Memory required for data: 132654592
I0907 11:55:19.075783  7174 layer_factory.hpp:77] Creating layer conv3_4
I0907 11:55:19.075793  7174 net.cpp:84] Creating Layer conv3_4
I0907 11:55:19.075795  7174 net.cpp:406] conv3_4 <- res3_3_res3_3_0_split_0
I0907 11:55:19.075800  7174 net.cpp:380] conv3_4 -> conv3_4
I0907 11:55:19.081384  7174 net.cpp:122] Setting up conv3_4
I0907 11:55:19.081394  7174 net.cpp:129] Top shape: 128 256 4 4 (524288)
I0907 11:55:19.081396  7174 net.cpp:137] Memory required for data: 134751744
I0907 11:55:19.081403  7174 layer_factory.hpp:77] Creating layer relu3_4
I0907 11:55:19.081410  7174 net.cpp:84] Creating Layer relu3_4
I0907 11:55:19.081414  7174 net.cpp:406] relu3_4 <- conv3_4
I0907 11:55:19.081421  7174 net.cpp:367] relu3_4 -> conv3_4 (in-place)
I0907 11:55:19.081490  7174 net.cpp:122] Setting up relu3_4
I0907 11:55:19.081496  7174 net.cpp:129] Top shape: 128 256 4 4 (524288)
I0907 11:55:19.081498  7174 net.cpp:137] Memory required for data: 136848896
I0907 11:55:19.081503  7174 layer_factory.hpp:77] Creating layer conv3_5
I0907 11:55:19.081513  7174 net.cpp:84] Creating Layer conv3_5
I0907 11:55:19.081518  7174 net.cpp:406] conv3_5 <- conv3_4
I0907 11:55:19.081526  7174 net.cpp:380] conv3_5 -> conv3_5
I0907 11:55:19.087141  7174 net.cpp:122] Setting up conv3_5
I0907 11:55:19.087153  7174 net.cpp:129] Top shape: 128 256 4 4 (524288)
I0907 11:55:19.087155  7174 net.cpp:137] Memory required for data: 138946048
I0907 11:55:19.087162  7174 layer_factory.hpp:77] Creating layer relu3_5
I0907 11:55:19.087169  7174 net.cpp:84] Creating Layer relu3_5
I0907 11:55:19.087173  7174 net.cpp:406] relu3_5 <- conv3_5
I0907 11:55:19.087178  7174 net.cpp:367] relu3_5 -> conv3_5 (in-place)
I0907 11:55:19.087250  7174 net.cpp:122] Setting up relu3_5
I0907 11:55:19.087256  7174 net.cpp:129] Top shape: 128 256 4 4 (524288)
I0907 11:55:19.087257  7174 net.cpp:137] Memory required for data: 141043200
I0907 11:55:19.087262  7174 layer_factory.hpp:77] Creating layer res3_5
I0907 11:55:19.087267  7174 net.cpp:84] Creating Layer res3_5
I0907 11:55:19.087272  7174 net.cpp:406] res3_5 <- res3_3_res3_3_0_split_1
I0907 11:55:19.087290  7174 net.cpp:406] res3_5 <- conv3_5
I0907 11:55:19.087297  7174 net.cpp:380] res3_5 -> res3_5
I0907 11:55:19.087323  7174 net.cpp:122] Setting up res3_5
I0907 11:55:19.087329  7174 net.cpp:129] Top shape: 128 256 4 4 (524288)
I0907 11:55:19.087332  7174 net.cpp:137] Memory required for data: 143140352
I0907 11:55:19.087333  7174 layer_factory.hpp:77] Creating layer res3_5_res3_5_0_split
I0907 11:55:19.087340  7174 net.cpp:84] Creating Layer res3_5_res3_5_0_split
I0907 11:55:19.087345  7174 net.cpp:406] res3_5_res3_5_0_split <- res3_5
I0907 11:55:19.087352  7174 net.cpp:380] res3_5_res3_5_0_split -> res3_5_res3_5_0_split_0
I0907 11:55:19.087364  7174 net.cpp:380] res3_5_res3_5_0_split -> res3_5_res3_5_0_split_1
I0907 11:55:19.087399  7174 net.cpp:122] Setting up res3_5_res3_5_0_split
I0907 11:55:19.087404  7174 net.cpp:129] Top shape: 128 256 4 4 (524288)
I0907 11:55:19.087406  7174 net.cpp:129] Top shape: 128 256 4 4 (524288)
I0907 11:55:19.087409  7174 net.cpp:137] Memory required for data: 147334656
I0907 11:55:19.087411  7174 layer_factory.hpp:77] Creating layer conv3_6
I0907 11:55:19.087422  7174 net.cpp:84] Creating Layer conv3_6
I0907 11:55:19.087427  7174 net.cpp:406] conv3_6 <- res3_5_res3_5_0_split_0
I0907 11:55:19.087435  7174 net.cpp:380] conv3_6 -> conv3_6
I0907 11:55:19.093034  7174 net.cpp:122] Setting up conv3_6
I0907 11:55:19.093044  7174 net.cpp:129] Top shape: 128 256 4 4 (524288)
I0907 11:55:19.093045  7174 net.cpp:137] Memory required for data: 149431808
I0907 11:55:19.093051  7174 layer_factory.hpp:77] Creating layer relu3_6
I0907 11:55:19.093058  7174 net.cpp:84] Creating Layer relu3_6
I0907 11:55:19.093062  7174 net.cpp:406] relu3_6 <- conv3_6
I0907 11:55:19.093070  7174 net.cpp:367] relu3_6 -> conv3_6 (in-place)
I0907 11:55:19.093140  7174 net.cpp:122] Setting up relu3_6
I0907 11:55:19.093147  7174 net.cpp:129] Top shape: 128 256 4 4 (524288)
I0907 11:55:19.093148  7174 net.cpp:137] Memory required for data: 151528960
I0907 11:55:19.093153  7174 layer_factory.hpp:77] Creating layer conv3_7
I0907 11:55:19.093163  7174 net.cpp:84] Creating Layer conv3_7
I0907 11:55:19.093168  7174 net.cpp:406] conv3_7 <- conv3_6
I0907 11:55:19.093174  7174 net.cpp:380] conv3_7 -> conv3_7
I0907 11:55:19.098778  7174 net.cpp:122] Setting up conv3_7
I0907 11:55:19.098789  7174 net.cpp:129] Top shape: 128 256 4 4 (524288)
I0907 11:55:19.098791  7174 net.cpp:137] Memory required for data: 153626112
I0907 11:55:19.098795  7174 layer_factory.hpp:77] Creating layer relu3_7
I0907 11:55:19.098800  7174 net.cpp:84] Creating Layer relu3_7
I0907 11:55:19.098803  7174 net.cpp:406] relu3_7 <- conv3_7
I0907 11:55:19.098806  7174 net.cpp:367] relu3_7 -> conv3_7 (in-place)
I0907 11:55:19.098870  7174 net.cpp:122] Setting up relu3_7
I0907 11:55:19.098873  7174 net.cpp:129] Top shape: 128 256 4 4 (524288)
I0907 11:55:19.098875  7174 net.cpp:137] Memory required for data: 155723264
I0907 11:55:19.098877  7174 layer_factory.hpp:77] Creating layer res3_7
I0907 11:55:19.098881  7174 net.cpp:84] Creating Layer res3_7
I0907 11:55:19.098892  7174 net.cpp:406] res3_7 <- res3_5_res3_5_0_split_1
I0907 11:55:19.098894  7174 net.cpp:406] res3_7 <- conv3_7
I0907 11:55:19.098897  7174 net.cpp:380] res3_7 -> res3_7
I0907 11:55:19.098914  7174 net.cpp:122] Setting up res3_7
I0907 11:55:19.098918  7174 net.cpp:129] Top shape: 128 256 4 4 (524288)
I0907 11:55:19.098920  7174 net.cpp:137] Memory required for data: 157820416
I0907 11:55:19.098922  7174 layer_factory.hpp:77] Creating layer res3_7_res3_7_0_split
I0907 11:55:19.098925  7174 net.cpp:84] Creating Layer res3_7_res3_7_0_split
I0907 11:55:19.098927  7174 net.cpp:406] res3_7_res3_7_0_split <- res3_7
I0907 11:55:19.098930  7174 net.cpp:380] res3_7_res3_7_0_split -> res3_7_res3_7_0_split_0
I0907 11:55:19.098937  7174 net.cpp:380] res3_7_res3_7_0_split -> res3_7_res3_7_0_split_1
I0907 11:55:19.098959  7174 net.cpp:122] Setting up res3_7_res3_7_0_split
I0907 11:55:19.098963  7174 net.cpp:129] Top shape: 128 256 4 4 (524288)
I0907 11:55:19.098965  7174 net.cpp:129] Top shape: 128 256 4 4 (524288)
I0907 11:55:19.098976  7174 net.cpp:137] Memory required for data: 162014720
I0907 11:55:19.098978  7174 layer_factory.hpp:77] Creating layer conv3_8
I0907 11:55:19.098984  7174 net.cpp:84] Creating Layer conv3_8
I0907 11:55:19.098987  7174 net.cpp:406] conv3_8 <- res3_7_res3_7_0_split_0
I0907 11:55:19.098992  7174 net.cpp:380] conv3_8 -> conv3_8
I0907 11:55:19.104271  7174 net.cpp:122] Setting up conv3_8
I0907 11:55:19.104281  7174 net.cpp:129] Top shape: 128 256 4 4 (524288)
I0907 11:55:19.104284  7174 net.cpp:137] Memory required for data: 164111872
I0907 11:55:19.104287  7174 layer_factory.hpp:77] Creating layer relu3_8
I0907 11:55:19.104292  7174 net.cpp:84] Creating Layer relu3_8
I0907 11:55:19.104295  7174 net.cpp:406] relu3_8 <- conv3_8
I0907 11:55:19.104300  7174 net.cpp:367] relu3_8 -> conv3_8 (in-place)
I0907 11:55:19.104363  7174 net.cpp:122] Setting up relu3_8
I0907 11:55:19.104367  7174 net.cpp:129] Top shape: 128 256 4 4 (524288)
I0907 11:55:19.104369  7174 net.cpp:137] Memory required for data: 166209024
I0907 11:55:19.104372  7174 layer_factory.hpp:77] Creating layer conv3_9
I0907 11:55:19.104378  7174 net.cpp:84] Creating Layer conv3_9
I0907 11:55:19.104380  7174 net.cpp:406] conv3_9 <- conv3_8
I0907 11:55:19.104384  7174 net.cpp:380] conv3_9 -> conv3_9
I0907 11:55:19.110029  7174 net.cpp:122] Setting up conv3_9
I0907 11:55:19.110040  7174 net.cpp:129] Top shape: 128 256 4 4 (524288)
I0907 11:55:19.110043  7174 net.cpp:137] Memory required for data: 168306176
I0907 11:55:19.110049  7174 layer_factory.hpp:77] Creating layer relu3_9
I0907 11:55:19.110055  7174 net.cpp:84] Creating Layer relu3_9
I0907 11:55:19.110059  7174 net.cpp:406] relu3_9 <- conv3_9
I0907 11:55:19.110064  7174 net.cpp:367] relu3_9 -> conv3_9 (in-place)
I0907 11:55:19.110128  7174 net.cpp:122] Setting up relu3_9
I0907 11:55:19.110133  7174 net.cpp:129] Top shape: 128 256 4 4 (524288)
I0907 11:55:19.110136  7174 net.cpp:137] Memory required for data: 170403328
I0907 11:55:19.110137  7174 layer_factory.hpp:77] Creating layer res3_9
I0907 11:55:19.110141  7174 net.cpp:84] Creating Layer res3_9
I0907 11:55:19.110143  7174 net.cpp:406] res3_9 <- res3_7_res3_7_0_split_1
I0907 11:55:19.110146  7174 net.cpp:406] res3_9 <- conv3_9
I0907 11:55:19.110148  7174 net.cpp:380] res3_9 -> res3_9
I0907 11:55:19.110167  7174 net.cpp:122] Setting up res3_9
I0907 11:55:19.110172  7174 net.cpp:129] Top shape: 128 256 4 4 (524288)
I0907 11:55:19.110173  7174 net.cpp:137] Memory required for data: 172500480
I0907 11:55:19.110177  7174 layer_factory.hpp:77] Creating layer conv4_1
I0907 11:55:19.110186  7174 net.cpp:84] Creating Layer conv4_1
I0907 11:55:19.110189  7174 net.cpp:406] conv4_1 <- res3_9
I0907 11:55:19.110194  7174 net.cpp:380] conv4_1 -> conv4_1
I0907 11:55:19.116237  7174 net.cpp:122] Setting up conv4_1
I0907 11:55:19.116251  7174 net.cpp:129] Top shape: 128 512 2 2 (262144)
I0907 11:55:19.116253  7174 net.cpp:137] Memory required for data: 173549056
I0907 11:55:19.116259  7174 layer_factory.hpp:77] Creating layer relu4_1
I0907 11:55:19.116266  7174 net.cpp:84] Creating Layer relu4_1
I0907 11:55:19.116271  7174 net.cpp:406] relu4_1 <- conv4_1
I0907 11:55:19.116277  7174 net.cpp:367] relu4_1 -> conv4_1 (in-place)
I0907 11:55:19.116343  7174 net.cpp:122] Setting up relu4_1
I0907 11:55:19.116348  7174 net.cpp:129] Top shape: 128 512 2 2 (262144)
I0907 11:55:19.116351  7174 net.cpp:137] Memory required for data: 174597632
I0907 11:55:19.116355  7174 layer_factory.hpp:77] Creating layer conv4_1_relu4_1_0_split
I0907 11:55:19.116359  7174 net.cpp:84] Creating Layer conv4_1_relu4_1_0_split
I0907 11:55:19.116363  7174 net.cpp:406] conv4_1_relu4_1_0_split <- conv4_1
I0907 11:55:19.116365  7174 net.cpp:380] conv4_1_relu4_1_0_split -> conv4_1_relu4_1_0_split_0
I0907 11:55:19.116370  7174 net.cpp:380] conv4_1_relu4_1_0_split -> conv4_1_relu4_1_0_split_1
I0907 11:55:19.116397  7174 net.cpp:122] Setting up conv4_1_relu4_1_0_split
I0907 11:55:19.116401  7174 net.cpp:129] Top shape: 128 512 2 2 (262144)
I0907 11:55:19.116403  7174 net.cpp:129] Top shape: 128 512 2 2 (262144)
I0907 11:55:19.116413  7174 net.cpp:137] Memory required for data: 176694784
I0907 11:55:19.116415  7174 layer_factory.hpp:77] Creating layer conv4_2
I0907 11:55:19.116422  7174 net.cpp:84] Creating Layer conv4_2
I0907 11:55:19.116425  7174 net.cpp:406] conv4_2 <- conv4_1_relu4_1_0_split_0
I0907 11:55:19.116430  7174 net.cpp:380] conv4_2 -> conv4_2
I0907 11:55:19.134107  7174 net.cpp:122] Setting up conv4_2
I0907 11:55:19.134127  7174 net.cpp:129] Top shape: 128 512 2 2 (262144)
I0907 11:55:19.134130  7174 net.cpp:137] Memory required for data: 177743360
I0907 11:55:19.134136  7174 layer_factory.hpp:77] Creating layer relu4_2
I0907 11:55:19.134143  7174 net.cpp:84] Creating Layer relu4_2
I0907 11:55:19.134146  7174 net.cpp:406] relu4_2 <- conv4_2
I0907 11:55:19.134151  7174 net.cpp:367] relu4_2 -> conv4_2 (in-place)
I0907 11:55:19.134217  7174 net.cpp:122] Setting up relu4_2
I0907 11:55:19.134222  7174 net.cpp:129] Top shape: 128 512 2 2 (262144)
I0907 11:55:19.134224  7174 net.cpp:137] Memory required for data: 178791936
I0907 11:55:19.134227  7174 layer_factory.hpp:77] Creating layer conv4_3
I0907 11:55:19.134233  7174 net.cpp:84] Creating Layer conv4_3
I0907 11:55:19.134243  7174 net.cpp:406] conv4_3 <- conv4_2
I0907 11:55:19.134248  7174 net.cpp:380] conv4_3 -> conv4_3
I0907 11:55:19.152202  7174 net.cpp:122] Setting up conv4_3
I0907 11:55:19.152220  7174 net.cpp:129] Top shape: 128 512 2 2 (262144)
I0907 11:55:19.152223  7174 net.cpp:137] Memory required for data: 179840512
I0907 11:55:19.152230  7174 layer_factory.hpp:77] Creating layer relu4_3
I0907 11:55:19.152235  7174 net.cpp:84] Creating Layer relu4_3
I0907 11:55:19.152238  7174 net.cpp:406] relu4_3 <- conv4_3
I0907 11:55:19.152245  7174 net.cpp:367] relu4_3 -> conv4_3 (in-place)
I0907 11:55:19.152314  7174 net.cpp:122] Setting up relu4_3
I0907 11:55:19.152319  7174 net.cpp:129] Top shape: 128 512 2 2 (262144)
I0907 11:55:19.152321  7174 net.cpp:137] Memory required for data: 180889088
I0907 11:55:19.152323  7174 layer_factory.hpp:77] Creating layer res4_3
I0907 11:55:19.152329  7174 net.cpp:84] Creating Layer res4_3
I0907 11:55:19.152333  7174 net.cpp:406] res4_3 <- conv4_1_relu4_1_0_split_1
I0907 11:55:19.152338  7174 net.cpp:406] res4_3 <- conv4_3
I0907 11:55:19.152343  7174 net.cpp:380] res4_3 -> res4_3
I0907 11:55:19.152371  7174 net.cpp:122] Setting up res4_3
I0907 11:55:19.152379  7174 net.cpp:129] Top shape: 128 512 2 2 (262144)
I0907 11:55:19.152382  7174 net.cpp:137] Memory required for data: 181937664
I0907 11:55:19.152386  7174 layer_factory.hpp:77] Creating layer fc5
I0907 11:55:19.152395  7174 net.cpp:84] Creating Layer fc5
I0907 11:55:19.152400  7174 net.cpp:406] fc5 <- res4_3
I0907 11:55:19.152407  7174 net.cpp:380] fc5 -> fc5
I0907 11:55:19.156855  7174 net.cpp:122] Setting up fc5
I0907 11:55:19.156867  7174 net.cpp:129] Top shape: 128 512 (65536)
I0907 11:55:19.156868  7174 net.cpp:137] Memory required for data: 182199808
I0907 11:55:19.156873  7174 layer_factory.hpp:77] Creating layer fc5_fc5_0_split
I0907 11:55:19.156883  7174 net.cpp:84] Creating Layer fc5_fc5_0_split
I0907 11:55:19.156886  7174 net.cpp:406] fc5_fc5_0_split <- fc5
I0907 11:55:19.156893  7174 net.cpp:380] fc5_fc5_0_split -> fc5_fc5_0_split_0
I0907 11:55:19.156900  7174 net.cpp:380] fc5_fc5_0_split -> fc5_fc5_0_split_1
I0907 11:55:19.156939  7174 net.cpp:122] Setting up fc5_fc5_0_split
I0907 11:55:19.156945  7174 net.cpp:129] Top shape: 128 512 (65536)
I0907 11:55:19.156947  7174 net.cpp:129] Top shape: 128 512 (65536)
I0907 11:55:19.156949  7174 net.cpp:137] Memory required for data: 182724096
I0907 11:55:19.156952  7174 layer_factory.hpp:77] Creating layer ip2
I0907 11:55:19.156960  7174 net.cpp:84] Creating Layer ip2
I0907 11:55:19.156965  7174 net.cpp:406] ip2 <- fc5_fc5_0_split_0
I0907 11:55:19.156971  7174 net.cpp:380] ip2 -> fc6
I0907 11:55:19.156980  7174 net.cpp:380] ip2 -> weight
I0907 11:55:19.157045  7174 net.cpp:122] Setting up ip2
I0907 11:55:19.157052  7174 net.cpp:129] Top shape: 128 10 (1280)
I0907 11:55:19.157068  7174 net.cpp:129] Top shape: 10 512 (5120)
I0907 11:55:19.157073  7174 net.cpp:137] Memory required for data: 182749696
I0907 11:55:19.157078  7174 layer_factory.hpp:77] Creating layer softmax_loss
I0907 11:55:19.157083  7174 net.cpp:84] Creating Layer softmax_loss
I0907 11:55:19.157088  7174 net.cpp:406] softmax_loss <- fc6
I0907 11:55:19.157093  7174 net.cpp:406] softmax_loss <- label_mnist_1_split_0
I0907 11:55:19.157099  7174 net.cpp:380] softmax_loss -> softmax_loss
I0907 11:55:19.157109  7174 layer_factory.hpp:77] Creating layer softmax_loss
I0907 11:55:19.157317  7174 net.cpp:122] Setting up softmax_loss
I0907 11:55:19.157325  7174 net.cpp:129] Top shape: (1)
I0907 11:55:19.157326  7174 net.cpp:132]     with loss weight 1
I0907 11:55:19.157341  7174 net.cpp:137] Memory required for data: 182749700
I0907 11:55:19.157346  7174 layer_factory.hpp:77] Creating layer norm_weight
I0907 11:55:19.157354  7174 net.cpp:84] Creating Layer norm_weight
I0907 11:55:19.157358  7174 net.cpp:406] norm_weight <- weight
I0907 11:55:19.157366  7174 net.cpp:380] norm_weight -> norm_weight
I0907 11:55:19.157435  7174 net.cpp:122] Setting up norm_weight
I0907 11:55:19.157441  7174 net.cpp:129] Top shape: 10 512 (5120)
I0907 11:55:19.157443  7174 net.cpp:137] Memory required for data: 182770180
I0907 11:55:19.157444  7174 layer_factory.hpp:77] Creating layer norm_fc6
I0907 11:55:19.157449  7174 net.cpp:84] Creating Layer norm_fc6
I0907 11:55:19.157454  7174 net.cpp:406] norm_fc6 <- fc5_fc5_0_split_1
I0907 11:55:19.157459  7174 net.cpp:380] norm_fc6 -> norm_fc5
I0907 11:55:19.157526  7174 net.cpp:122] Setting up norm_fc6
I0907 11:55:19.157531  7174 net.cpp:129] Top shape: 128 512 (65536)
I0907 11:55:19.157532  7174 net.cpp:137] Memory required for data: 183032324
I0907 11:55:19.157534  7174 layer_factory.hpp:77] Creating layer cluster_loss
I0907 11:55:19.157546  7174 net.cpp:84] Creating Layer cluster_loss
I0907 11:55:19.157552  7174 net.cpp:406] cluster_loss <- norm_weight
I0907 11:55:19.157555  7174 net.cpp:406] cluster_loss <- norm_fc5
I0907 11:55:19.157559  7174 net.cpp:406] cluster_loss <- label_mnist_1_split_1
…
I0907 11:55:19.158445  7174 solver.cpp:172] Creating test net (#0) specified by net file: examples/mnist_example/mnist_cluster.prototxt
I0907 11:55:19.158499  7174 net.cpp:294] The NetState phase (1) differed from the phase (0) specified by a rule in layer mnist
I0907 11:55:19.158707  7174 net.cpp:51] Initializing net from parameters: 
name: "SpherefaceNet-20"
state {
  phase: TEST
}
layer {
  name: "mnist"
  type: "Data"
  top: "data"
  top: "label"
  include {
    phase: TEST
  }
  transform_param {
    scale: 0.0078125
    mean_value: 127.5
  }
  data_param {
    source: "examples/mnist/mnist_test_lmdb"
    batch_size: 100
    backend: LMDB
  }
}
layer {
  name: "conv1_1"
  type: "Convolution"
  bottom: "data"
  top: "conv1_1"
  param {
    lr_mult: 1
    decay_mult: 1
  }
  param {
    lr_mult: 2
    decay_mult: 0
  }
  convolution_param {
    num_output: 64
    pad: 1
    kernel_size: 3
    stride: 2
    weight_filler {
      type: "xavier"
    }
    bias_filler {
      type: "constant"
      value: 0
    }
  }
}
layer {
  name: "relu1_1"
  type: "PReLU"
  bottom: "conv1_1"
  top: "conv1_1"
}
layer {
  name: "conv1_2"
  type: "Convolution"
  bottom: "conv1_1"
  top: "conv1_2"
  param {
    lr_mult: 1
    decay_mult: 1
  }
  param {
    lr_mult: 0
    decay_mult: 0
  }
  convolution_param {
    num_output: 64
    pad: 1
    kernel_size: 3
    stride: 1
    weight_filler {
      type: "gaussian"
      std: 0.01
    }
    bias_filler {
      type: "constant"
      value: 0
    }
  }
}
layer {
  name: "relu1_2"
  type: "PReLU"
  bottom: "conv1_2"
  top: "conv1_2"
}
layer {
  name: "conv1_3"
  type: "Convolution"
  bottom: "conv1_2"
  top: "conv1_3"
  param {
    lr_mult: 1
    decay_mult: 1
  }
  param {
    lr_mult: 0
    decay_mult: 0
  }
  convolution_param {
    num_output: 64
    pad: 1
    kernel_size: 3
    stride: 1
    weight_filler {
      type: "gaussian"
      std: 0.01
    }
    bias_filler {
      type: "constant"
      value: 0
    }
  }
}
layer {
  name: "relu1_3"
  type: "PReLU"
  bottom: "conv1_3"
  top: "conv1_3"
}
layer {
  name: "res1_3"
  type: "Eltwise"
  bottom: "conv1_1"
  bottom: "conv1_3"
  top: "res1_3"
  eltwise_param {
    operation: SUM
  }
}
layer {
  name: "conv2_1"
  type: "Convolution"
  bottom: "res1_3"
  top: "conv2_1"
  param {
    lr_mult: 1
    decay_mult: 1
  }
  param {
    lr_mult: 2
    decay_mult: 0
  }
  convolution_param {
    num_output: 128
    pad: 1
    kernel_size: 3
    stride: 2
    weight_filler {
      type: "xavier"
    }
    bias_filler {
      type: "constant"
      value: 0
    }
  }
}
layer {
  name: "relu2_1"
  type: "PReLU"
  bottom: "conv2_1"
  top: "conv2_1"
}
layer {
  name: "conv2_2"
  type: "Convolution"
  bottom: "conv2_1"
  top: "conv2_2"
  param {
    lr_mult: 1
    decay_mult: 1
  }
  param {
    lr_mult: 0
    decay_mult: 0
  }
  convolution_param {
    num_output: 128
    pad: 1
    kernel_size: 3
    stride: 1
    weight_filler {
      type: "gaussian"
      std: 0.01
    }
    bias_filler {
      type: "constant"
      value: 0
    }
  }
}
layer {
  name: "relu2_2"
  type: "PReLU"
  bottom: "conv2_2"
  top: "conv2_2"
}
layer {
  name: "conv2_3"
  type: "Convolution"
  bottom: "conv2_2"
  top: "conv2_3"
  param {
    lr_mult: 1
    decay_mult: 1
  }
  param {
    lr_mult: 0
    decay_mult: 0
  }
  convolution_param {
    num_output: 128
    pad: 1
    kernel_size: 3
    stride: 1
    weight_filler {
      type: "gaussian"
      std: 0.01
    }
    bias_filler {
      type: "constant"
      value: 0
    }
  }
}
layer {
  name: "relu2_3"
  type: "PReLU"
  bottom: "conv2_3"
  top: "conv2_3"
}
layer {
  name: "res2_3"
  type: "Eltwise"
  bottom: "conv2_1"
  bottom: "conv2_3"
  top: "res2_3"
  eltwise_param {
    operation: SUM
  }
}
layer {
  name: "conv2_4"
  type: "Convolution"
  bottom: "res2_3"
  top: "conv2_4"
  param {
    lr_mult: 1
    decay_mult: 1
  }
  param {
    lr_mult: 0
    decay_mult: 0
  }
  convolution_param {
    num_output: 128
    pad: 1
    kernel_size: 3
    stride: 1
    weight_filler {
      type: "gaussian"
      std: 0.01
    }
    bias_filler {
      type: "constant"
      value: 0
    }
  }
}
layer {
  name: "relu2_4"
  type: "PReLU"
  bottom: "conv2_4"
  top: "conv2_4"
}
layer {
  name: "conv2_5"
  type: "Convolution"
  bottom: "conv2_4"
  top: "conv2_5"
  param {
    lr_mult: 1
    decay_mult: 1
  }
  param {
    lr_mult: 0
    decay_mult: 0
  }
  convolution_param {
    num_output: 128
    pad: 1
    kernel_size: 3
    stride: 1
    weight_filler {
      type: "gaussian"
      std: 0.01
    }
    bias_filler {
      type: "constant"
      value: 0
    }
  }
}
layer {
  name: "relu2_5"
  type: "PReLU"
  bottom: "conv2_5"
  top: "conv2_5"
}
layer {
  name: "res2_5"
  type: "Eltwise"
  bottom: "res2_3"
  bottom: "conv2_5"
  top: "res2_5"
  eltwise_param {
    operation: SUM
  }
}
layer {
  name: "conv3_1"
  type: "Convolution"
  bottom: "res2_5"
  top: "conv3_1"
  param {
    lr_mult: 1
    decay_mult: 1
  }
  param {
    lr_mult: 2
    decay_mult: 0
  }
  convolution_param {
    num_output: 256
    pad: 1
    kernel_size: 3
    stride: 2
    weight_filler {
      type: "xavier"
    }
    bias_filler {
      type: "constant"
      value: 0
    }
  }
}
layer {
  name: "relu3_1"
  type: "PReLU"
  bottom: "conv3_1"
  top: "conv3_1"
}
layer {
  name: "conv3_2"
  type: "Convolution"
  bottom: "conv3_1"
  top: "conv3_2"
  param {
    lr_mult: 1
    decay_mult: 1
  }
  param {
    lr_mult: 0
    decay_mult: 0
  }
  convolution_param {
    num_output: 256
    pad: 1
    kernel_size: 3
    stride: 1
    weight_filler {
      type: "gaussian"
      std: 0.01
    }
    bias_filler {
      type: "constant"
      value: 0
    }
  }
}
layer {
  name: "relu3_2"
  type: "PReLU"
  bottom: "conv3_2"
  top: "conv3_2"
}
layer {
  name: "conv3_3"
  type: "Convolution"
  bottom: "conv3_2"
  top: "conv3_3"
  param {
    lr_mult: 1
    decay_mult: 1
  }
  param {
    lr_mult: 0
    decay_mult: 0
  }
  convolution_param {
    num_output: 256
    pad: 1
    kernel_size: 3
    stride: 1
    weight_filler {
      type: "gaussian"
      std: 0.01
    }
    bias_filler {
      type: "constant"
      value: 0
    }
  }
}
layer {
  name: "relu3_3"
  type: "PReLU"
  bottom: "conv3_3"
  top: "conv3_3"
}
layer {
  name: "res3_3"
  type: "Eltwise"
  bottom: "conv3_1"
  bottom: "conv3_3"
  top: "res3_3"
  eltwise_param {
    operation: SUM
  }
}
layer {
  name: "conv3_4"
  type: "Convolution"
  bottom: "res3_3"
  top: "conv3_4"
  param {
    lr_mult: 1
    decay_mult: 1
  }
  param {
    lr_mult: 0
    decay_mult: 0
  }
  convolution_param {
    num_output: 256
    pad: 1
    kernel_size: 3
    stride: 1
    weight_filler {
      type: "gaussian"
      std: 0.01
    }
    bias_filler {
      type: "constant"
      value: 0
    }
  }
}
layer {
  name: "relu3_4"
  type: "PReLU"
  bottom: "conv3_4"
  top: "conv3_4"
}
layer {
  name: "conv3_5"
  type: "Convolution"
  bottom: "conv3_4"
  top: "conv3_5"
  param {
    lr_mult: 1
    decay_mult: 1
  }
  param {
    lr_mult: 0
    decay_mult: 0
  }
  convolution_param {
    num_output: 256
    pad: 1
    kernel_size: 3
    stride: 1
    weight_filler {
      type: "gaussian"
      std: 0.01
    }
    bias_filler {
      type: "constant"
      value: 0
    }
  }
}
layer {
  name: "relu3_5"
  type: "PReLU"
  bottom: "conv3_5"
  top: "conv3_5"
}
layer {
  name: "res3_5"
  type: "Eltwise"
  bottom: "res3_3"
  bottom: "conv3_5"
  top: "res3_5"
  eltwise_param {
    operation: SUM
  }
}
layer {
  name: "conv3_6"
  type: "Convolution"
  bottom: "res3_5"
  top: "conv3_6"
  param {
    lr_mult: 1
    decay_mult: 1
  }
  param {
    lr_mult: 0
    decay_mult: 0
  }
  convolution_param {
    num_output: 256
    pad: 1
    kernel_size: 3
    stride: 1
    weight_filler {
      type: "gaussian"
      std: 0.01
    }
    bias_filler {
      type: "constant"
      value: 0
    }
  }
}
layer {
  name: "relu3_6"
  type: "PReLU"
  bottom: "conv3_6"
  top: "conv3_6"
}
layer {
  name: "conv3_7"
  type: "Convolution"
  bottom: "conv3_6"
  top: "conv3_7"
  param {
    lr_mult: 1
    decay_mult: 1
  }
  param {
    lr_mult: 0
    decay_mult: 0
  }
  convolution_param {
    num_output: 256
    pad: 1
    kernel_size: 3
    stride: 1
    weight_filler {
      type: "gaussian"
      std: 0.01
    }
    bias_filler {
      type: "constant"
      value: 0
    }
  }
}
layer {
  name: "relu3_7"
  type: "PReLU"
  bottom: "conv3_7"
  top: "conv3_7"
}
layer {
  name: "res3_7"
  type: "Eltwise"
  bottom: "res3_5"
  bottom: "conv3_7"
  top: "res3_7"
  eltwise_param {
    operation: SUM
  }
}
layer {
  name: "conv3_8"
  type: "Convolution"
  bottom: "res3_7"
  top: "conv3_8"
  param {
    lr_mult: 1
    decay_mult: 1
  }
  param {
    lr_mult: 0
    decay_mult: 0
  }
  convolution_param {
    num_output: 256
    pad: 1
    kernel_size: 3
    stride: 1
    weight_filler {
      type: "gaussian"
      std: 0.01
    }
    bias_filler {
      type: "constant"
      value: 0
    }
  }
}
layer {
  name: "relu3_8"
  type: "PReLU"
  bottom: "conv3_8"
  top: "conv3_8"
}
layer {
  name: "conv3_9"
  type: "Convolution"
  bottom: "conv3_8"
  top: "conv3_9"
  param {
    lr_mult: 1
    decay_mult: 1
  }
  param {
    lr_mult: 0
    decay_mult: 0
  }
  convolution_param {
    num_output: 256
    pad: 1
    kernel_size: 3
    stride: 1
    weight_filler {
      type: "gaussian"
      std: 0.01
    }
    bias_filler {
      type: "constant"
      value: 0
    }
  }
}
layer {
  name: "relu3_9"
  type: "PReLU"
  bottom: "conv3_9"
  top: "conv3_9"
}
layer {
  name: "res3_9"
  type: "Eltwise"
  bottom: "res3_7"
  bottom: "conv3_9"
  top: "res3_9"
  eltwise_param {
    operation: SUM
  }
}
layer {
  name: "conv4_1"
  type: "Convolution"
  bottom: "res3_9"
  top: "conv4_1"
  param {
    lr_mult: 1
    decay_mult: 1
  }
  param {
    lr_mult: 2
    decay_mult: 0
  }
  convolution_param {
    num_output: 512
    pad: 1
    kernel_size: 3
    stride: 2
    weight_filler {
      type: "xavier"
    }
    bias_filler {
      type: "constant"
      value: 0
    }
  }
}
layer {
  name: "relu4_1"
  type: "PReLU"
  bottom: "conv4_1"
  top: "conv4_1"
}
layer {
  name: "conv4_2"
  type: "Convolution"
  bottom: "conv4_1"
  top: "conv4_2"
  param {
    lr_mult: 1
    decay_mult: 1
  }
  param {
    lr_mult: 0
    decay_mult: 0
  }
  convolution_param {
    num_output: 512
    pad: 1
    kernel_size: 3
    stride: 1
    weight_filler {
      type: "gaussian"
      std: 0.01
    }
    bias_filler {
      type: "constant"
      value: 0
    }
  }
}
layer {
  name: "relu4_2"
  type: "PReLU"
  bottom: "conv4_2"
  top: "conv4_2"
}
layer {
  name: "conv4_3"
  type: "Convolution"
  bottom: "conv4_2"
  top: "conv4_3"
  param {
    lr_mult: 1
    decay_mult: 1
  }
  param {
    lr_mult: 0
    decay_mult: 0
  }
  convolution_param {
    num_output: 512
    pad: 1
    kernel_size: 3
    stride: 1
    weight_filler {
      type: "gaussian"
      std: 0.01
    }
    bias_filler {
      type: "constant"
      value: 0
    }
  }
}
layer {
  name: "relu4_3"
  type: "PReLU"
  bottom: "conv4_3"
  top: "conv4_3"
}
layer {
  name: "res4_3"
  type: "Eltwise"
  bottom: "conv4_1"
  bottom: "conv4_3"
  top: "res4_3"
  eltwise_param {
    operation: SUM
  }
}
layer {
  name: "fc5"
  type: "InnerProduct"
  bottom: "res4_3"
  top: "fc5"
  param {
    lr_mult: 1
    decay_mult: 1
  }
  param {
    lr_mult: 2
    decay_mult: 0
  }
  inner_product_param {
    num_output: 512
    weight_filler {
      type: "xavier"
    }
    bias_filler {
      type: "constant"
      value: 0
    }
  }
}
layer {
  name: "ip2"
  type: "ModifiedInnerProduct"
  bottom: "fc5"
  top: "fc6"
  top: "weight"
  param {
    lr_mult: 1
    decay_mult: 1
  }
  modified_inner_product_param {
    num_output: 10
    bias_term: false
    weight_filler {
      type: "xavier"
    }
    cluster: true
  }
}
layer {
  name: "softmax_loss"
  type: "SoftmaxWithLoss"
  bottom: "fc6"
  bottom: "label"
  top: "softmax_loss"
}
layer {
  name: "accuracy"
  type: "Accuracy"
  bottom: "fc6"
  bottom: "label"
  top: "accuracy"
  include {
    phase: TEST
  }
}
layer {
  name: "norm_weight"
  type: "Normalize"
  bottom: "weight"
  top: "norm_weight"
}
layer {
  name: "norm_fc6"
  type: "Normalize"
  bottom: "fc5"
  top: "norm_fc5"
}
layer {
  name: "cluster_loss"
  type: "ClusterLoss"
  bottom: "norm_weight"
  bottom: "norm_fc5"
  bottom: "label"
  top: "cluster_loss"
  loss_weight: 1
  cluster_loss_param {
    alpha: 0.001
  }
}
I0907 11:55:19.158848  7174 layer_factory.hpp:77] Creating layer mnist
I0907 11:55:19.159284  7174 db_lmdb.cpp:35] Opened lmdb examples/mnist/mnist_test_lmdb
I0907 11:55:19.159955  7174 net.cpp:84] Creating Layer mnist
I0907 11:55:19.159962  7174 net.cpp:380] mnist -> data
I0907 11:55:19.159971  7174 net.cpp:380] mnist -> label
I0907 11:55:19.160060  7174 data_layer.cpp:45] output data size: 100,1,28,28
I0907 11:55:19.161734  7174 net.cpp:122] Setting up mnist
I0907 11:55:19.161743  7174 net.cpp:129] Top shape: 100 1 28 28 (78400)
I0907 11:55:19.161746  7174 net.cpp:129] Top shape: 100 (100)
I0907 11:55:19.161747  7174 net.cpp:137] Memory required for data: 314000
I0907 11:55:19.161751  7174 layer_factory.hpp:77] Creating layer label_mnist_1_split
I0907 11:55:19.161757  7174 net.cpp:84] Creating Layer label_mnist_1_split
I0907 11:55:19.161763  7174 net.cpp:406] label_mnist_1_split <- label
I0907 11:55:19.161769  7174 net.cpp:380] label_mnist_1_split -> label_mnist_1_split_0
I0907 11:55:19.161777  7174 net.cpp:380] label_mnist_1_split -> label_mnist_1_split_1
I0907 11:55:19.161783  7174 net.cpp:380] label_mnist_1_split -> label_mnist_1_split_2
I0907 11:55:19.161864  7174 net.cpp:122] Setting up label_mnist_1_split
I0907 11:55:19.161871  7174 net.cpp:129] Top shape: 100 (100)
I0907 11:55:19.161873  7174 net.cpp:129] Top shape: 100 (100)
I0907 11:55:19.161875  7174 net.cpp:129] Top shape: 100 (100)
I0907 11:55:19.161880  7174 net.cpp:137] Memory required for data: 315200
I0907 11:55:19.161881  7174 layer_factory.hpp:77] Creating layer conv1_1
I0907 11:55:19.161893  7174 net.cpp:84] Creating Layer conv1_1
I0907 11:55:19.161898  7174 net.cpp:406] conv1_1 <- data
I0907 11:55:19.161906  7174 net.cpp:380] conv1_1 -> conv1_1
I0907 11:55:19.163338  7174 net.cpp:122] Setting up conv1_1
I0907 11:55:19.163348  7174 net.cpp:129] Top shape: 100 64 14 14 (1254400)
I0907 11:55:19.163352  7174 net.cpp:137] Memory required for data: 5332800
I0907 11:55:19.163360  7174 layer_factory.hpp:77] Creating layer relu1_1
I0907 11:55:19.163381  7174 net.cpp:84] Creating Layer relu1_1
I0907 11:55:19.163388  7174 net.cpp:406] relu1_1 <- conv1_1
I0907 11:55:19.163393  7174 net.cpp:367] relu1_1 -> conv1_1 (in-place)
I0907 11:55:19.163522  7174 net.cpp:122] Setting up relu1_1
I0907 11:55:19.163529  7174 net.cpp:129] Top shape: 100 64 14 14 (1254400)
I0907 11:55:19.163534  7174 net.cpp:137] Memory required for data: 10350400
I0907 11:55:19.163540  7174 layer_factory.hpp:77] Creating layer conv1_1_relu1_1_0_split
I0907 11:55:19.163549  7174 net.cpp:84] Creating Layer conv1_1_relu1_1_0_split
I0907 11:55:19.163552  7174 net.cpp:406] conv1_1_relu1_1_0_split <- conv1_1
I0907 11:55:19.163556  7174 net.cpp:380] conv1_1_relu1_1_0_split -> conv1_1_relu1_1_0_split_0
I0907 11:55:19.163563  7174 net.cpp:380] conv1_1_relu1_1_0_split -> conv1_1_relu1_1_0_split_1
I0907 11:55:19.163595  7174 net.cpp:122] Setting up conv1_1_relu1_1_0_split
I0907 11:55:19.163599  7174 net.cpp:129] Top shape: 100 64 14 14 (1254400)
I0907 11:55:19.163602  7174 net.cpp:129] Top shape: 100 64 14 14 (1254400)
I0907 11:55:19.163605  7174 net.cpp:137] Memory required for data: 20385600
I0907 11:55:19.163609  7174 layer_factory.hpp:77] Creating layer conv1_2
I0907 11:55:19.163615  7174 net.cpp:84] Creating Layer conv1_2
I0907 11:55:19.163619  7174 net.cpp:406] conv1_2 <- conv1_1_relu1_1_0_split_0
I0907 11:55:19.163625  7174 net.cpp:380] conv1_2 -> conv1_2
I0907 11:55:19.165580  7174 net.cpp:122] Setting up conv1_2
I0907 11:55:19.165588  7174 net.cpp:129] Top shape: 100 64 14 14 (1254400)
I0907 11:55:19.165592  7174 net.cpp:137] Memory required for data: 25403200
I0907 11:55:19.165599  7174 layer_factory.hpp:77] Creating layer relu1_2
I0907 11:55:19.165604  7174 net.cpp:84] Creating Layer relu1_2
I0907 11:55:19.165608  7174 net.cpp:406] relu1_2 <- conv1_2
I0907 11:55:19.165612  7174 net.cpp:367] relu1_2 -> conv1_2 (in-place)
I0907 11:55:19.165690  7174 net.cpp:122] Setting up relu1_2
I0907 11:55:19.165695  7174 net.cpp:129] Top shape: 100 64 14 14 (1254400)
I0907 11:55:19.165697  7174 net.cpp:137] Memory required for data: 30420800
I0907 11:55:19.165702  7174 layer_factory.hpp:77] Creating layer conv1_3
I0907 11:55:19.165719  7174 net.cpp:84] Creating Layer conv1_3
I0907 11:55:19.165722  7174 net.cpp:406] conv1_3 <- conv1_2
I0907 11:55:19.165727  7174 net.cpp:380] conv1_3 -> conv1_3
I0907 11:55:19.167441  7174 net.cpp:122] Setting up conv1_3
I0907 11:55:19.167450  7174 net.cpp:129] Top shape: 100 64 14 14 (1254400)
I0907 11:55:19.167454  7174 net.cpp:137] Memory required for data: 35438400
I0907 11:55:19.167460  7174 layer_factory.hpp:77] Creating layer relu1_3
I0907 11:55:19.167466  7174 net.cpp:84] Creating Layer relu1_3
I0907 11:55:19.167469  7174 net.cpp:406] relu1_3 <- conv1_3
I0907 11:55:19.167474  7174 net.cpp:367] relu1_3 -> conv1_3 (in-place)
I0907 11:55:19.167548  7174 net.cpp:122] Setting up relu1_3
I0907 11:55:19.167553  7174 net.cpp:129] Top shape: 100 64 14 14 (1254400)
I0907 11:55:19.167556  7174 net.cpp:137] Memory required for data: 40456000
I0907 11:55:19.167560  7174 layer_factory.hpp:77] Creating layer res1_3
I0907 11:55:19.167564  7174 net.cpp:84] Creating Layer res1_3
I0907 11:55:19.167567  7174 net.cpp:406] res1_3 <- conv1_1_relu1_1_0_split_1
I0907 11:55:19.167568  7174 net.cpp:406] res1_3 <- conv1_3
I0907 11:55:19.167573  7174 net.cpp:380] res1_3 -> res1_3
I0907 11:55:19.167595  7174 net.cpp:122] Setting up res1_3
I0907 11:55:19.167599  7174 net.cpp:129] Top shape: 100 64 14 14 (1254400)
I0907 11:55:19.167601  7174 net.cpp:137] Memory required for data: 45473600
I0907 11:55:19.167603  7174 layer_factory.hpp:77] Creating layer conv2_1
I0907 11:55:19.167609  7174 net.cpp:84] Creating Layer conv2_1
I0907 11:55:19.167613  7174 net.cpp:406] conv2_1 <- res1_3
I0907 11:55:19.167618  7174 net.cpp:380] conv2_1 -> conv2_1
I0907 11:55:19.168726  7174 net.cpp:122] Setting up conv2_1
I0907 11:55:19.168735  7174 net.cpp:129] Top shape: 100 128 7 7 (627200)
I0907 11:55:19.168737  7174 net.cpp:137] Memory required for data: 47982400
I0907 11:55:19.168743  7174 layer_factory.hpp:77] Creating layer relu2_1
I0907 11:55:19.168747  7174 net.cpp:84] Creating Layer relu2_1
I0907 11:55:19.168751  7174 net.cpp:406] relu2_1 <- conv2_1
I0907 11:55:19.168756  7174 net.cpp:367] relu2_1 -> conv2_1 (in-place)
I0907 11:55:19.168823  7174 net.cpp:122] Setting up relu2_1
I0907 11:55:19.168828  7174 net.cpp:129] Top shape: 100 128 7 7 (627200)
I0907 11:55:19.168830  7174 net.cpp:137] Memory required for data: 50491200
I0907 11:55:19.168834  7174 layer_factory.hpp:77] Creating layer conv2_1_relu2_1_0_split
I0907 11:55:19.168839  7174 net.cpp:84] Creating Layer conv2_1_relu2_1_0_split
I0907 11:55:19.168843  7174 net.cpp:406] conv2_1_relu2_1_0_split <- conv2_1
I0907 11:55:19.168848  7174 net.cpp:380] conv2_1_relu2_1_0_split -> conv2_1_relu2_1_0_split_0
I0907 11:55:19.168854  7174 net.cpp:380] conv2_1_relu2_1_0_split -> conv2_1_relu2_1_0_split_1
I0907 11:55:19.168884  7174 net.cpp:122] Setting up conv2_1_relu2_1_0_split
I0907 11:55:19.168887  7174 net.cpp:129] Top shape: 100 128 7 7 (627200)
I0907 11:55:19.168890  7174 net.cpp:129] Top shape: 100 128 7 7 (627200)
I0907 11:55:19.168891  7174 net.cpp:137] Memory required for data: 55508800
I0907 11:55:19.168893  7174 layer_factory.hpp:77] Creating layer conv2_2
I0907 11:55:19.168901  7174 net.cpp:84] Creating Layer conv2_2
I0907 11:55:19.168905  7174 net.cpp:406] conv2_2 <- conv2_1_relu2_1_0_split_0
I0907 11:55:19.168910  7174 net.cpp:380] conv2_2 -> conv2_2
I0907 11:55:19.171566  7174 net.cpp:122] Setting up conv2_2
I0907 11:55:19.171576  7174 net.cpp:129] Top shape: 100 128 7 7 (627200)
I0907 11:55:19.171578  7174 net.cpp:137] Memory required for data: 58017600
I0907 11:55:19.171584  7174 layer_factory.hpp:77] Creating layer relu2_2
I0907 11:55:19.171588  7174 net.cpp:84] Creating Layer relu2_2
I0907 11:55:19.171591  7174 net.cpp:406] relu2_2 <- conv2_2
I0907 11:55:19.171596  7174 net.cpp:367] relu2_2 -> conv2_2 (in-place)
I0907 11:55:19.171664  7174 net.cpp:122] Setting up relu2_2
I0907 11:55:19.171669  7174 net.cpp:129] Top shape: 100 128 7 7 (627200)
I0907 11:55:19.171671  7174 net.cpp:137] Memory required for data: 60526400
I0907 11:55:19.171674  7174 layer_factory.hpp:77] Creating layer conv2_3
I0907 11:55:19.171687  7174 net.cpp:84] Creating Layer conv2_3
I0907 11:55:19.171690  7174 net.cpp:406] conv2_3 <- conv2_2
I0907 11:55:19.171696  7174 net.cpp:380] conv2_3 -> conv2_3
I0907 11:55:19.174355  7174 net.cpp:122] Setting up conv2_3
I0907 11:55:19.174365  7174 net.cpp:129] Top shape: 100 128 7 7 (627200)
I0907 11:55:19.174370  7174 net.cpp:137] Memory required for data: 63035200
I0907 11:55:19.174378  7174 layer_factory.hpp:77] Creating layer relu2_3
I0907 11:55:19.174384  7174 net.cpp:84] Creating Layer relu2_3
I0907 11:55:19.174387  7174 net.cpp:406] relu2_3 <- conv2_3
I0907 11:55:19.174392  7174 net.cpp:367] relu2_3 -> conv2_3 (in-place)
I0907 11:55:19.174464  7174 net.cpp:122] Setting up relu2_3
I0907 11:55:19.174469  7174 net.cpp:129] Top shape: 100 128 7 7 (627200)
I0907 11:55:19.174473  7174 net.cpp:137] Memory required for data: 65544000
I0907 11:55:19.174476  7174 layer_factory.hpp:77] Creating layer res2_3
I0907 11:55:19.174480  7174 net.cpp:84] Creating Layer res2_3
I0907 11:55:19.174484  7174 net.cpp:406] res2_3 <- conv2_1_relu2_1_0_split_1
I0907 11:55:19.174487  7174 net.cpp:406] res2_3 <- conv2_3
I0907 11:55:19.174492  7174 net.cpp:380] res2_3 -> res2_3
I0907 11:55:19.174513  7174 net.cpp:122] Setting up res2_3
I0907 11:55:19.174518  7174 net.cpp:129] Top shape: 100 128 7 7 (627200)
I0907 11:55:19.174520  7174 net.cpp:137] Memory required for data: 68052800
I0907 11:55:19.174521  7174 layer_factory.hpp:77] Creating layer res2_3_res2_3_0_split
I0907 11:55:19.174525  7174 net.cpp:84] Creating Layer res2_3_res2_3_0_split
I0907 11:55:19.174528  7174 net.cpp:406] res2_3_res2_3_0_split <- res2_3
I0907 11:55:19.174533  7174 net.cpp:380] res2_3_res2_3_0_split -> res2_3_res2_3_0_split_0
I0907 11:55:19.174540  7174 net.cpp:380] res2_3_res2_3_0_split -> res2_3_res2_3_0_split_1
I0907 11:55:19.174568  7174 net.cpp:122] Setting up res2_3_res2_3_0_split
I0907 11:55:19.174572  7174 net.cpp:129] Top shape: 100 128 7 7 (627200)
I0907 11:55:19.174574  7174 net.cpp:129] Top shape: 100 128 7 7 (627200)
I0907 11:55:19.174576  7174 net.cpp:137] Memory required for data: 73070400
I0907 11:55:19.174577  7174 layer_factory.hpp:77] Creating layer conv2_4
I0907 11:55:19.174585  7174 net.cpp:84] Creating Layer conv2_4
I0907 11:55:19.174588  7174 net.cpp:406] conv2_4 <- res2_3_res2_3_0_split_0
I0907 11:55:19.174593  7174 net.cpp:380] conv2_4 -> conv2_4
I0907 11:55:19.177247  7174 net.cpp:122] Setting up conv2_4
I0907 11:55:19.177254  7174 net.cpp:129] Top shape: 100 128 7 7 (627200)
I0907 11:55:19.177258  7174 net.cpp:137] Memory required for data: 75579200
I0907 11:55:19.177263  7174 layer_factory.hpp:77] Creating layer relu2_4
I0907 11:55:19.177268  7174 net.cpp:84] Creating Layer relu2_4
I0907 11:55:19.177271  7174 net.cpp:406] relu2_4 <- conv2_4
I0907 11:55:19.177276  7174 net.cpp:367] relu2_4 -> conv2_4 (in-place)
I0907 11:55:19.177347  7174 net.cpp:122] Setting up relu2_4
I0907 11:55:19.177352  7174 net.cpp:129] Top shape: 100 128 7 7 (627200)
I0907 11:55:19.177355  7174 net.cpp:137] Memory required for data: 78088000
I0907 11:55:19.177356  7174 layer_factory.hpp:77] Creating layer conv2_5
I0907 11:55:19.177363  7174 net.cpp:84] Creating Layer conv2_5
I0907 11:55:19.177366  7174 net.cpp:406] conv2_5 <- conv2_4
I0907 11:55:19.177371  7174 net.cpp:380] conv2_5 -> conv2_5
I0907 11:55:19.180047  7174 net.cpp:122] Setting up conv2_5
I0907 11:55:19.180054  7174 net.cpp:129] Top shape: 100 128 7 7 (627200)
I0907 11:55:19.180058  7174 net.cpp:137] Memory required for data: 80596800
I0907 11:55:19.180063  7174 layer_factory.hpp:77] Creating layer relu2_5
I0907 11:55:19.180069  7174 net.cpp:84] Creating Layer relu2_5
I0907 11:55:19.180071  7174 net.cpp:406] relu2_5 <- conv2_5
I0907 11:55:19.180078  7174 net.cpp:367] relu2_5 -> conv2_5 (in-place)
I0907 11:55:19.180148  7174 net.cpp:122] Setting up relu2_5
I0907 11:55:19.180153  7174 net.cpp:129] Top shape: 100 128 7 7 (627200)
I0907 11:55:19.180155  7174 net.cpp:137] Memory required for data: 83105600
I0907 11:55:19.180160  7174 layer_factory.hpp:77] Creating layer res2_5
I0907 11:55:19.180174  7174 net.cpp:84] Creating Layer res2_5
I0907 11:55:19.180178  7174 net.cpp:406] res2_5 <- res2_3_res2_3_0_split_1
I0907 11:55:19.180181  7174 net.cpp:406] res2_5 <- conv2_5
I0907 11:55:19.180183  7174 net.cpp:380] res2_5 -> res2_5
I0907 11:55:19.180205  7174 net.cpp:122] Setting up res2_5
I0907 11:55:19.180210  7174 net.cpp:129] Top shape: 100 128 7 7 (627200)
I0907 11:55:19.180212  7174 net.cpp:137] Memory required for data: 85614400
I0907 11:55:19.180214  7174 layer_factory.hpp:77] Creating layer conv3_1
I0907 11:55:19.180222  7174 net.cpp:84] Creating Layer conv3_1
I0907 11:55:19.180225  7174 net.cpp:406] conv3_1 <- res2_5
I0907 11:55:19.180229  7174 net.cpp:380] conv3_1 -> conv3_1
I0907 11:55:19.182391  7174 net.cpp:122] Setting up conv3_1
I0907 11:55:19.182400  7174 net.cpp:129] Top shape: 100 256 4 4 (409600)
I0907 11:55:19.182404  7174 net.cpp:137] Memory required for data: 87252800
I0907 11:55:19.182409  7174 layer_factory.hpp:77] Creating layer relu3_1
I0907 11:55:19.182415  7174 net.cpp:84] Creating Layer relu3_1
I0907 11:55:19.182417  7174 net.cpp:406] relu3_1 <- conv3_1
I0907 11:55:19.182423  7174 net.cpp:367] relu3_1 -> conv3_1 (in-place)
I0907 11:55:19.182497  7174 net.cpp:122] Setting up relu3_1
I0907 11:55:19.182500  7174 net.cpp:129] Top shape: 100 256 4 4 (409600)
I0907 11:55:19.182502  7174 net.cpp:137] Memory required for data: 88891200
I0907 11:55:19.182504  7174 layer_factory.hpp:77] Creating layer conv3_1_relu3_1_0_split
I0907 11:55:19.182508  7174 net.cpp:84] Creating Layer conv3_1_relu3_1_0_split
I0907 11:55:19.182510  7174 net.cpp:406] conv3_1_relu3_1_0_split <- conv3_1
I0907 11:55:19.182513  7174 net.cpp:380] conv3_1_relu3_1_0_split -> conv3_1_relu3_1_0_split_0
I0907 11:55:19.182519  7174 net.cpp:380] conv3_1_relu3_1_0_split -> conv3_1_relu3_1_0_split_1
I0907 11:55:19.182549  7174 net.cpp:122] Setting up conv3_1_relu3_1_0_split
I0907 11:55:19.182554  7174 net.cpp:129] Top shape: 100 256 4 4 (409600)
I0907 11:55:19.182556  7174 net.cpp:129] Top shape: 100 256 4 4 (409600)
I0907 11:55:19.182559  7174 net.cpp:137] Memory required for data: 92168000
I0907 11:55:19.182560  7174 layer_factory.hpp:77] Creating layer conv3_2
I0907 11:55:19.182569  7174 net.cpp:84] Creating Layer conv3_2
I0907 11:55:19.182571  7174 net.cpp:406] conv3_2 <- conv3_1_relu3_1_0_split_0
I0907 11:55:19.182577  7174 net.cpp:380] conv3_2 -> conv3_2
I0907 11:55:19.188525  7174 net.cpp:122] Setting up conv3_2
I0907 11:55:19.188534  7174 net.cpp:129] Top shape: 100 256 4 4 (409600)
I0907 11:55:19.188537  7174 net.cpp:137] Memory required for data: 93806400
I0907 11:55:19.188544  7174 layer_factory.hpp:77] Creating layer relu3_2
I0907 11:55:19.188549  7174 net.cpp:84] Creating Layer relu3_2
I0907 11:55:19.188552  7174 net.cpp:406] relu3_2 <- conv3_2
I0907 11:55:19.188557  7174 net.cpp:367] relu3_2 -> conv3_2 (in-place)
I0907 11:55:19.188632  7174 net.cpp:122] Setting up relu3_2
I0907 11:55:19.188638  7174 net.cpp:129] Top shape: 100 256 4 4 (409600)
I0907 11:55:19.188642  7174 net.cpp:137] Memory required for data: 95444800
I0907 11:55:19.188645  7174 layer_factory.hpp:77] Creating layer conv3_3
I0907 11:55:19.188652  7174 net.cpp:84] Creating Layer conv3_3
I0907 11:55:19.188655  7174 net.cpp:406] conv3_3 <- conv3_2
I0907 11:55:19.188659  7174 net.cpp:380] conv3_3 -> conv3_3
I0907 11:55:19.194247  7174 net.cpp:122] Setting up conv3_3
I0907 11:55:19.194258  7174 net.cpp:129] Top shape: 100 256 4 4 (409600)
I0907 11:55:19.194260  7174 net.cpp:137] Memory required for data: 97083200
I0907 11:55:19.194265  7174 layer_factory.hpp:77] Creating layer relu3_3
I0907 11:55:19.194269  7174 net.cpp:84] Creating Layer relu3_3
I0907 11:55:19.194272  7174 net.cpp:406] relu3_3 <- conv3_3
I0907 11:55:19.194275  7174 net.cpp:367] relu3_3 -> conv3_3 (in-place)
I0907 11:55:19.194351  7174 net.cpp:122] Setting up relu3_3
I0907 11:55:19.194357  7174 net.cpp:129] Top shape: 100 256 4 4 (409600)
I0907 11:55:19.194358  7174 net.cpp:137] Memory required for data: 98721600
I0907 11:55:19.194365  7174 layer_factory.hpp:77] Creating layer res3_3
I0907 11:55:19.194381  7174 net.cpp:84] Creating Layer res3_3
I0907 11:55:19.194386  7174 net.cpp:406] res3_3 <- conv3_1_relu3_1_0_split_1
I0907 11:55:19.194389  7174 net.cpp:406] res3_3 <- conv3_3
I0907 11:55:19.194396  7174 net.cpp:380] res3_3 -> res3_3
I0907 11:55:19.194422  7174 net.cpp:122] Setting up res3_3
I0907 11:55:19.194427  7174 net.cpp:129] Top shape: 100 256 4 4 (409600)
I0907 11:55:19.194428  7174 net.cpp:137] Memory required for data: 100360000
I0907 11:55:19.194430  7174 layer_factory.hpp:77] Creating layer res3_3_res3_3_0_split
I0907 11:55:19.194437  7174 net.cpp:84] Creating Layer res3_3_res3_3_0_split
I0907 11:55:19.194442  7174 net.cpp:406] res3_3_res3_3_0_split <- res3_3
I0907 11:55:19.194447  7174 net.cpp:380] res3_3_res3_3_0_split -> res3_3_res3_3_0_split_0
I0907 11:55:19.194452  7174 net.cpp:380] res3_3_res3_3_0_split -> res3_3_res3_3_0_split_1
I0907 11:55:19.194483  7174 net.cpp:122] Setting up res3_3_res3_3_0_split
I0907 11:55:19.194488  7174 net.cpp:129] Top shape: 100 256 4 4 (409600)
I0907 11:55:19.194489  7174 net.cpp:129] Top shape: 100 256 4 4 (409600)
I0907 11:55:19.194490  7174 net.cpp:137] Memory required for data: 103636800
I0907 11:55:19.194492  7174 layer_factory.hpp:77] Creating layer conv3_4
I0907 11:55:19.194500  7174 net.cpp:84] Creating Layer conv3_4
I0907 11:55:19.194504  7174 net.cpp:406] conv3_4 <- res3_3_res3_3_0_split_0
I0907 11:55:19.194509  7174 net.cpp:380] conv3_4 -> conv3_4
I0907 11:55:19.200147  7174 net.cpp:122] Setting up conv3_4
I0907 11:55:19.200156  7174 net.cpp:129] Top shape: 100 256 4 4 (409600)
I0907 11:55:19.200160  7174 net.cpp:137] Memory required for data: 105275200
I0907 11:55:19.200165  7174 layer_factory.hpp:77] Creating layer relu3_4
I0907 11:55:19.200171  7174 net.cpp:84] Creating Layer relu3_4
I0907 11:55:19.200176  7174 net.cpp:406] relu3_4 <- conv3_4
I0907 11:55:19.200181  7174 net.cpp:367] relu3_4 -> conv3_4 (in-place)
I0907 11:55:19.200255  7174 net.cpp:122] Setting up relu3_4
I0907 11:55:19.200260  7174 net.cpp:129] Top shape: 100 256 4 4 (409600)
I0907 11:55:19.200263  7174 net.cpp:137] Memory required for data: 106913600
I0907 11:55:19.200268  7174 layer_factory.hpp:77] Creating layer conv3_5
I0907 11:55:19.200278  7174 net.cpp:84] Creating Layer conv3_5
I0907 11:55:19.200279  7174 net.cpp:406] conv3_5 <- conv3_4
I0907 11:55:19.200285  7174 net.cpp:380] conv3_5 -> conv3_5
I0907 11:55:19.205960  7174 net.cpp:122] Setting up conv3_5
I0907 11:55:19.205968  7174 net.cpp:129] Top shape: 100 256 4 4 (409600)
I0907 11:55:19.205971  7174 net.cpp:137] Memory required for data: 108552000
I0907 11:55:19.205977  7174 layer_factory.hpp:77] Creating layer relu3_5
I0907 11:55:19.205983  7174 net.cpp:84] Creating Layer relu3_5
I0907 11:55:19.205986  7174 net.cpp:406] relu3_5 <- conv3_5
I0907 11:55:19.205991  7174 net.cpp:367] relu3_5 -> conv3_5 (in-place)
I0907 11:55:19.206068  7174 net.cpp:122] Setting up relu3_5
I0907 11:55:19.206073  7174 net.cpp:129] Top shape: 100 256 4 4 (409600)
I0907 11:55:19.206074  7174 net.cpp:137] Memory required for data: 110190400
I0907 11:55:19.206077  7174 layer_factory.hpp:77] Creating layer res3_5
I0907 11:55:19.206082  7174 net.cpp:84] Creating Layer res3_5
I0907 11:55:19.206084  7174 net.cpp:406] res3_5 <- res3_3_res3_3_0_split_1
I0907 11:55:19.206087  7174 net.cpp:406] res3_5 <- conv3_5
I0907 11:55:19.206090  7174 net.cpp:380] res3_5 -> res3_5
I0907 11:55:19.206118  7174 net.cpp:122] Setting up res3_5
I0907 11:55:19.206123  7174 net.cpp:129] Top shape: 100 256 4 4 (409600)
I0907 11:55:19.206125  7174 net.cpp:137] Memory required for data: 111828800
I0907 11:55:19.206127  7174 layer_factory.hpp:77] Creating layer res3_5_res3_5_0_split
I0907 11:55:19.206132  7174 net.cpp:84] Creating Layer res3_5_res3_5_0_split
I0907 11:55:19.206136  7174 net.cpp:406] res3_5_res3_5_0_split <- res3_5
I0907 11:55:19.206141  7174 net.cpp:380] res3_5_res3_5_0_split -> res3_5_res3_5_0_split_0
I0907 11:55:19.206147  7174 net.cpp:380] res3_5_res3_5_0_split -> res3_5_res3_5_0_split_1
I0907 11:55:19.206179  7174 net.cpp:122] Setting up res3_5_res3_5_0_split
I0907 11:55:19.206192  7174 net.cpp:129] Top shape: 100 256 4 4 (409600)
I0907 11:55:19.206195  7174 net.cpp:129] Top shape: 100 256 4 4 (409600)
I0907 11:55:19.206198  7174 net.cpp:137] Memory required for data: 115105600
I0907 11:55:19.206202  7174 layer_factory.hpp:77] Creating layer conv3_6
I0907 11:55:19.206210  7174 net.cpp:84] Creating Layer conv3_6
I0907 11:55:19.206213  7174 net.cpp:406] conv3_6 <- res3_5_res3_5_0_split_0
I0907 11:55:19.206218  7174 net.cpp:380] conv3_6 -> conv3_6
I0907 11:55:19.211558  7174 net.cpp:122] Setting up conv3_6
I0907 11:55:19.211568  7174 net.cpp:129] Top shape: 100 256 4 4 (409600)
I0907 11:55:19.211571  7174 net.cpp:137] Memory required for data: 116744000
I0907 11:55:19.211577  7174 layer_factory.hpp:77] Creating layer relu3_6
I0907 11:55:19.211583  7174 net.cpp:84] Creating Layer relu3_6
I0907 11:55:19.211587  7174 net.cpp:406] relu3_6 <- conv3_6
I0907 11:55:19.211593  7174 net.cpp:367] relu3_6 -> conv3_6 (in-place)
I0907 11:55:19.211670  7174 net.cpp:122] Setting up relu3_6
I0907 11:55:19.211675  7174 net.cpp:129] Top shape: 100 256 4 4 (409600)
I0907 11:55:19.211678  7174 net.cpp:137] Memory required for data: 118382400
I0907 11:55:19.211681  7174 layer_factory.hpp:77] Creating layer conv3_7
I0907 11:55:19.211691  7174 net.cpp:84] Creating Layer conv3_7
I0907 11:55:19.211694  7174 net.cpp:406] conv3_7 <- conv3_6
I0907 11:55:19.211699  7174 net.cpp:380] conv3_7 -> conv3_7
I0907 11:55:19.217362  7174 net.cpp:122] Setting up conv3_7
I0907 11:55:19.217373  7174 net.cpp:129] Top shape: 100 256 4 4 (409600)
I0907 11:55:19.217376  7174 net.cpp:137] Memory required for data: 120020800
I0907 11:55:19.217382  7174 layer_factory.hpp:77] Creating layer relu3_7
I0907 11:55:19.217391  7174 net.cpp:84] Creating Layer relu3_7
I0907 11:55:19.217393  7174 net.cpp:406] relu3_7 <- conv3_7
I0907 11:55:19.217397  7174 net.cpp:367] relu3_7 -> conv3_7 (in-place)
I0907 11:55:19.217474  7174 net.cpp:122] Setting up relu3_7
I0907 11:55:19.217480  7174 net.cpp:129] Top shape: 100 256 4 4 (409600)
I0907 11:55:19.217481  7174 net.cpp:137] Memory required for data: 121659200
I0907 11:55:19.217484  7174 layer_factory.hpp:77] Creating layer res3_7
I0907 11:55:19.217489  7174 net.cpp:84] Creating Layer res3_7
I0907 11:55:19.217491  7174 net.cpp:406] res3_7 <- res3_5_res3_5_0_split_1
I0907 11:55:19.217494  7174 net.cpp:406] res3_7 <- conv3_7
I0907 11:55:19.217499  7174 net.cpp:380] res3_7 -> res3_7
I0907 11:55:19.217522  7174 net.cpp:122] Setting up res3_7
I0907 11:55:19.217526  7174 net.cpp:129] Top shape: 100 256 4 4 (409600)
I0907 11:55:19.217528  7174 net.cpp:137] Memory required for data: 123297600
I0907 11:55:19.217530  7174 layer_factory.hpp:77] Creating layer res3_7_res3_7_0_split
I0907 11:55:19.217537  7174 net.cpp:84] Creating Layer res3_7_res3_7_0_split
I0907 11:55:19.217541  7174 net.cpp:406] res3_7_res3_7_0_split <- res3_7
I0907 11:55:19.217545  7174 net.cpp:380] res3_7_res3_7_0_split -> res3_7_res3_7_0_split_0
I0907 11:55:19.217550  7174 net.cpp:380] res3_7_res3_7_0_split -> res3_7_res3_7_0_split_1
I0907 11:55:19.217584  7174 net.cpp:122] Setting up res3_7_res3_7_0_split
I0907 11:55:19.217588  7174 net.cpp:129] Top shape: 100 256 4 4 (409600)
I0907 11:55:19.217592  7174 net.cpp:129] Top shape: 100 256 4 4 (409600)
I0907 11:55:19.217594  7174 net.cpp:137] Memory required for data: 126574400
I0907 11:55:19.217597  7174 layer_factory.hpp:77] Creating layer conv3_8
I0907 11:55:19.217607  7174 net.cpp:84] Creating Layer conv3_8
I0907 11:55:19.217609  7174 net.cpp:406] conv3_8 <- res3_7_res3_7_0_split_0
I0907 11:55:19.217613  7174 net.cpp:380] conv3_8 -> conv3_8
I0907 11:55:19.223251  7174 net.cpp:122] Setting up conv3_8
I0907 11:55:19.223260  7174 net.cpp:129] Top shape: 100 256 4 4 (409600)
I0907 11:55:19.223263  7174 net.cpp:137] Memory required for data: 128212800
I0907 11:55:19.223266  7174 layer_factory.hpp:77] Creating layer relu3_8
I0907 11:55:19.223271  7174 net.cpp:84] Creating Layer relu3_8
I0907 11:55:19.223274  7174 net.cpp:406] relu3_8 <- conv3_8
I0907 11:55:19.223286  7174 net.cpp:367] relu3_8 -> conv3_8 (in-place)
I0907 11:55:19.223363  7174 net.cpp:122] Setting up relu3_8
I0907 11:55:19.223368  7174 net.cpp:129] Top shape: 100 256 4 4 (409600)
I0907 11:55:19.223371  7174 net.cpp:137] Memory required for data: 129851200
I0907 11:55:19.223373  7174 layer_factory.hpp:77] Creating layer conv3_9
I0907 11:55:19.223381  7174 net.cpp:84] Creating Layer conv3_9
I0907 11:55:19.223384  7174 net.cpp:406] conv3_9 <- conv3_8
I0907 11:55:19.223389  7174 net.cpp:380] conv3_9 -> conv3_9
I0907 11:55:19.229044  7174 net.cpp:122] Setting up conv3_9
I0907 11:55:19.229053  7174 net.cpp:129] Top shape: 100 256 4 4 (409600)
I0907 11:55:19.229056  7174 net.cpp:137] Memory required for data: 131489600
I0907 11:55:19.229063  7174 layer_factory.hpp:77] Creating layer relu3_9
I0907 11:55:19.229068  7174 net.cpp:84] Creating Layer relu3_9
I0907 11:55:19.229074  7174 net.cpp:406] relu3_9 <- conv3_9
I0907 11:55:19.229079  7174 net.cpp:367] relu3_9 -> conv3_9 (in-place)
I0907 11:55:19.229157  7174 net.cpp:122] Setting up relu3_9
I0907 11:55:19.229162  7174 net.cpp:129] Top shape: 100 256 4 4 (409600)
I0907 11:55:19.229164  7174 net.cpp:137] Memory required for data: 133128000
I0907 11:55:19.229166  7174 layer_factory.hpp:77] Creating layer res3_9
I0907 11:55:19.229171  7174 net.cpp:84] Creating Layer res3_9
I0907 11:55:19.229173  7174 net.cpp:406] res3_9 <- res3_7_res3_7_0_split_1
I0907 11:55:19.229177  7174 net.cpp:406] res3_9 <- conv3_9
I0907 11:55:19.229182  7174 net.cpp:380] res3_9 -> res3_9
I0907 11:55:19.229204  7174 net.cpp:122] Setting up res3_9
I0907 11:55:19.229209  7174 net.cpp:129] Top shape: 100 256 4 4 (409600)
I0907 11:55:19.229210  7174 net.cpp:137] Memory required for data: 134766400
I0907 11:55:19.229212  7174 layer_factory.hpp:77] Creating layer conv4_1
I0907 11:55:19.229221  7174 net.cpp:84] Creating Layer conv4_1
I0907 11:55:19.229224  7174 net.cpp:406] conv4_1 <- res3_9
I0907 11:55:19.229230  7174 net.cpp:380] conv4_1 -> conv4_1
I0907 11:55:19.235409  7174 net.cpp:122] Setting up conv4_1
I0907 11:55:19.235425  7174 net.cpp:129] Top shape: 100 512 2 2 (204800)
I0907 11:55:19.235427  7174 net.cpp:137] Memory required for data: 135585600
I0907 11:55:19.235432  7174 layer_factory.hpp:77] Creating layer relu4_1
I0907 11:55:19.235440  7174 net.cpp:84] Creating Layer relu4_1
I0907 11:55:19.235443  7174 net.cpp:406] relu4_1 <- conv4_1
I0907 11:55:19.235450  7174 net.cpp:367] relu4_1 -> conv4_1 (in-place)
I0907 11:55:19.235527  7174 net.cpp:122] Setting up relu4_1
I0907 11:55:19.235534  7174 net.cpp:129] Top shape: 100 512 2 2 (204800)
I0907 11:55:19.235535  7174 net.cpp:137] Memory required for data: 136404800
I0907 11:55:19.235538  7174 layer_factory.hpp:77] Creating layer conv4_1_relu4_1_0_split
I0907 11:55:19.235541  7174 net.cpp:84] Creating Layer conv4_1_relu4_1_0_split
I0907 11:55:19.235543  7174 net.cpp:406] conv4_1_relu4_1_0_split <- conv4_1
I0907 11:55:19.235548  7174 net.cpp:380] conv4_1_relu4_1_0_split -> conv4_1_relu4_1_0_split_0
I0907 11:55:19.235553  7174 net.cpp:380] conv4_1_relu4_1_0_split -> conv4_1_relu4_1_0_split_1
I0907 11:55:19.235585  7174 net.cpp:122] Setting up conv4_1_relu4_1_0_split
I0907 11:55:19.235590  7174 net.cpp:129] Top shape: 100 512 2 2 (204800)
I0907 11:55:19.235594  7174 net.cpp:129] Top shape: 100 512 2 2 (204800)
I0907 11:55:19.235595  7174 net.cpp:137] Memory required for data: 138043200
I0907 11:55:19.235599  7174 layer_factory.hpp:77] Creating layer conv4_2
I0907 11:55:19.235608  7174 net.cpp:84] Creating Layer conv4_2
I0907 11:55:19.235611  7174 net.cpp:406] conv4_2 <- conv4_1_relu4_1_0_split_0
I0907 11:55:19.235616  7174 net.cpp:380] conv4_2 -> conv4_2
I0907 11:55:19.252965  7174 net.cpp:122] Setting up conv4_2
I0907 11:55:19.252985  7174 net.cpp:129] Top shape: 100 512 2 2 (204800)
I0907 11:55:19.252988  7174 net.cpp:137] Memory required for data: 138862400
I0907 11:55:19.252996  7174 layer_factory.hpp:77] Creating layer relu4_2
I0907 11:55:19.253005  7174 net.cpp:84] Creating Layer relu4_2
I0907 11:55:19.253010  7174 net.cpp:406] relu4_2 <- conv4_2
I0907 11:55:19.253027  7174 net.cpp:367] relu4_2 -> conv4_2 (in-place)
I0907 11:55:19.253110  7174 net.cpp:122] Setting up relu4_2
I0907 11:55:19.253115  7174 net.cpp:129] Top shape: 100 512 2 2 (204800)
I0907 11:55:19.253118  7174 net.cpp:137] Memory required for data: 139681600
I0907 11:55:19.253121  7174 layer_factory.hpp:77] Creating layer conv4_3
I0907 11:55:19.253132  7174 net.cpp:84] Creating Layer conv4_3
I0907 11:55:19.253135  7174 net.cpp:406] conv4_3 <- conv4_2
I0907 11:55:19.253139  7174 net.cpp:380] conv4_3 -> conv4_3
I0907 11:55:19.271123  7174 net.cpp:122] Setting up conv4_3
I0907 11:55:19.271143  7174 net.cpp:129] Top shape: 100 512 2 2 (204800)
I0907 11:55:19.271145  7174 net.cpp:137] Memory required for data: 140500800
I0907 11:55:19.271152  7174 layer_factory.hpp:77] Creating layer relu4_3
I0907 11:55:19.271158  7174 net.cpp:84] Creating Layer relu4_3
I0907 11:55:19.271162  7174 net.cpp:406] relu4_3 <- conv4_3
I0907 11:55:19.271168  7174 net.cpp:367] relu4_3 -> conv4_3 (in-place)
I0907 11:55:19.271246  7174 net.cpp:122] Setting up relu4_3
I0907 11:55:19.271251  7174 net.cpp:129] Top shape: 100 512 2 2 (204800)
I0907 11:55:19.271253  7174 net.cpp:137] Memory required for data: 141320000
I0907 11:55:19.271255  7174 layer_factory.hpp:77] Creating layer res4_3
I0907 11:55:19.271260  7174 net.cpp:84] Creating Layer res4_3
I0907 11:55:19.271262  7174 net.cpp:406] res4_3 <- conv4_1_relu4_1_0_split_1
I0907 11:55:19.271265  7174 net.cpp:406] res4_3 <- conv4_3
I0907 11:55:19.271268  7174 net.cpp:380] res4_3 -> res4_3
I0907 11:55:19.271289  7174 net.cpp:122] Setting up res4_3
I0907 11:55:19.271293  7174 net.cpp:129] Top shape: 100 512 2 2 (204800)
I0907 11:55:19.271296  7174 net.cpp:137] Memory required for data: 142139200
I0907 11:55:19.271296  7174 layer_factory.hpp:77] Creating layer fc5
I0907 11:55:19.271301  7174 net.cpp:84] Creating Layer fc5
I0907 11:55:19.271303  7174 net.cpp:406] fc5 <- res4_3
I0907 11:55:19.271307  7174 net.cpp:380] fc5 -> fc5
I0907 11:55:19.275776  7174 net.cpp:122] Setting up fc5
I0907 11:55:19.275786  7174 net.cpp:129] Top shape: 100 512 (51200)
I0907 11:55:19.275789  7174 net.cpp:137] Memory required for data: 142344000
I0907 11:55:19.275792  7174 layer_factory.hpp:77] Creating layer fc5_fc5_0_split
I0907 11:55:19.275797  7174 net.cpp:84] Creating Layer fc5_fc5_0_split
I0907 11:55:19.275800  7174 net.cpp:406] fc5_fc5_0_split <- fc5
I0907 11:55:19.275804  7174 net.cpp:380] fc5_fc5_0_split -> fc5_fc5_0_split_0
I0907 11:55:19.275810  7174 net.cpp:380] fc5_fc5_0_split -> fc5_fc5_0_split_1
I0907 11:55:19.275845  7174 net.cpp:122] Setting up fc5_fc5_0_split
I0907 11:55:19.275848  7174 net.cpp:129] Top shape: 100 512 (51200)
I0907 11:55:19.275851  7174 net.cpp:129] Top shape: 100 512 (51200)
I0907 11:55:19.275851  7174 net.cpp:137] Memory required for data: 142753600
I0907 11:55:19.275853  7174 layer_factory.hpp:77] Creating layer ip2
I0907 11:55:19.275858  7174 net.cpp:84] Creating Layer ip2
I0907 11:55:19.275861  7174 net.cpp:406] ip2 <- fc5_fc5_0_split_0
I0907 11:55:19.275863  7174 net.cpp:380] ip2 -> fc6
I0907 11:55:19.275867  7174 net.cpp:380] ip2 -> weight
I0907 11:55:19.275923  7174 net.cpp:122] Setting up ip2
I0907 11:55:19.275928  7174 net.cpp:129] Top shape: 100 10 (1000)
I0907 11:55:19.275929  7174 net.cpp:129] Top shape: 10 512 (5120)
I0907 11:55:19.275930  7174 net.cpp:137] Memory required for data: 142778080
I0907 11:55:19.275933  7174 layer_factory.hpp:77] Creating layer fc6_ip2_0_split
I0907 11:55:19.275936  7174 net.cpp:84] Creating Layer fc6_ip2_0_split
I0907 11:55:19.275938  7174 net.cpp:406] fc6_ip2_0_split <- fc6
I0907 11:55:19.275941  7174 net.cpp:380] fc6_ip2_0_split -> fc6_ip2_0_split_0
I0907 11:55:19.275945  7174 net.cpp:380] fc6_ip2_0_split -> fc6_ip2_0_split_1
I0907 11:55:19.275972  7174 net.cpp:122] Setting up fc6_ip2_0_split
I0907 11:55:19.275976  7174 net.cpp:129] Top shape: 100 10 (1000)
I0907 11:55:19.275979  7174 net.cpp:129] Top shape: 100 10 (1000)
I0907 11:55:19.275979  7174 net.cpp:137] Memory required for data: 142786080
I0907 11:55:19.275991  7174 layer_factory.hpp:77] Creating layer softmax_loss
I0907 11:55:19.275995  7174 net.cpp:84] Creating Layer softmax_loss
I0907 11:55:19.275997  7174 net.cpp:406] softmax_loss <- fc6_ip2_0_split_0
I0907 11:55:19.276000  7174 net.cpp:406] softmax_loss <- label_mnist_1_split_0
I0907 11:55:19.276003  7174 net.cpp:380] softmax_loss -> softmax_loss
…
